grokking_checkpoint/model_epoch200.pt (torch, 900786 bytes, 10 tensors)

transformer.wte.weight f4 [206, 128]
000000 47 27 d1 3e 35 4f 93 bd ea be 9a bc a2 34 91 3e
       0.4085028 -0.07192842 -0.018889863 0.28360468
000010 2a 58 eb bd 0c b7 97 3d 3a a4 b2 3c 17 7e c2 be
       -0.11491425 0.0740796 0.021806825 -0.37986824
000020 bb ec 36 be 7c 58 ae be 8f c9 41 3e f4 2f 0e 3e
       -0.17863743 -0.34051883 0.18924545 0.1388548
000030 b0 bc 15 be a2 3c cf bc 19 89 11 3c 42 51 49 be
       -0.1462276 -0.025297467 0.008882784 -0.19659904
000040 ed 9f 6b 3e d0 17 64 3e 44 93 86 3e 18 c2 54 3e
       0.23010226 0.22274709 0.2628423 0.20777166
000050 04 a3 5a be 1a 1b d0 3d 7b b8 43 3e 64 f5 10 3e
       -0.21351248 0.10161419 0.19113342 0.14156109
000060 b8 0a 83 be 6c ec 47 3b 96 fb bb b9 b1 9b af be
       -0.25594115 0.0030505909 -0.00035854866 -0.3429847
000070 1e 1b c0 bd 2d 97 c3 3d 8f bd a8 3e c2 1d b1 3e
       -0.09380172 0.09550319 0.32957122 0.34593016
000080 5d 60 1f be 81 76 16 3c 31 2c bf be 40 ed 1a 3f
       -0.15564103 0.009183527 -0.37338403 0.60518265
000090 f5 5b a1 be ae bb a0 3e 01 44 86 be c8 0b 8c 3c
       -0.3151547 0.31393188 -0.26223758 0.017095461
0000a0 c9 aa 87 be 92 f8 a6 3e 48 8b 17 bf d3 58 9d be
       -0.26497486 0.3261152 -0.591969 -0.3073183
0000b0 54 ef 99 be 0a 9d 41 be db 63 75 3d e9 32 04 3f
       -0.30065405 -0.18907562 0.059909683 0.5164018
0000c0 5e 8a f4 be 68 3a 9c be 2d 1a bb be 08 3a 5a be
       -0.47761816 -0.3051331 -0.36543408 -0.213112
0000d0 ee f4 e9 be eb 94 4e be 6e ed a2 3e 12 7a b5 3e
       -0.4569468 -0.20173995 0.3182177 0.35444695
0000e0 2d 8f 5b bd d7 43 c5 3d 16 0f fa 3e ea a4 4b 3e
       -0.05360334 0.0963208 0.48839635 0.19887128
0000f0 9b dd 44 be 4c 26 4f 3e 36 47 6c bd 6b 99 44 3e
       -0.19225161 0.20229453 -0.0576851 0.1919915
000100 48 49 ca 3e 17 dc ac 3e 14 af d2 3d 28 fe ce 3e
       0.39509034 0.33761665 0.102873 0.4042828
000110 42 93 29 3e c4 cd 00 bf 51 7c 29 bd d9 4c 70 3e
       0.1656008 -0.50313973 -0.041378323 0.23466815
000120 08 92 f6 be 74 9e 81 be 37 f1 d5 3e d6 6c 9c 3e
       -0.48158288 -0.25316203 0.41785595 0.30551785
000130 16 52 87 3d 8d 60 ee be 35 32 ba 3e 88 c3 04 3e
       0.066074535 -0.46558037 0.3636643 0.12965214
000140 88 c1 bb 3d c9 3f 12 be 29 41 91 3e dd c6 32 be
       0.091677725 -0.14282145 0.28370026 -0.17458673
000150 e9 d3 12 3e bb eb ba be bb 60 ce be 46 46 c3 3c
       0.1433865 -0.36507973 -0.40308174 0.02383722
000160 8d 31 47 3e 6b f8 f4 bc bf 72 83 3e 03 a1 7a be
       0.19452496 -0.029903611 0.25673482 -0.24475484
000170 d4 3e c1 be 3a 37 e7 be 00 cc 70 be f6 db c1 be
       -0.37743247 -0.45159322 -0.2351532 -0.3786313
000180 05 e7 27 bd c9 08 b4 3e 97 4d ba bd ff c9 d0 bd
       -0.0409918 0.35162953 -0.0909683 -0.10194778
000190 e3 af 91 be 59 56 2d be 2b 2d 74 3e 88 56 6d 3e
       -0.28454503 -0.1692747 0.23845355 0.2317754
0001a0 79 ff 5a be 50 79 03 be 43 bb d6 3e d2 ee 24 be
       -0.21386518 -0.12839246 0.41939744 -0.16106728
0001b0 c8 a5 1c 3e e7 5f a9 3e da 5f 5e be 84 8c 7d be
       0.15297616 0.3308098 -0.21716252 -0.24760634
0001c0 56 fb f5 3d 6c 10 a1 3d 4d 4b 36 be f2 c3 ac 3e
       0.12010829 0.0786446 -0.17802162 0.33743244
0001d0 9c ba 97 3d 90 b4 25 3f 3c c8 0f 3e 8e 85 04 be
       0.0740864 0.6472864 0.14041227 -0.12941572
0001e0 ef 85 a4 3c f4 c3 e1 3d 93 2b af 3e 95 d3 86 be
       0.020083396 0.11023703 0.34212932 -0.263333
0001f0 7f 7d a7 be c9 0f 93 be 9c 54 14 be d6 d6 a1 3e
       -0.32712933 -0.2872298 -0.14485401 0.3160922
000200 92 c7 c7 3e 65 ac 7f bd c6 72 66 ba 9a e6 8d 3e
       0.39019448 -0.062420268 -0.0008790906 0.27714998
000210 98 2d 06 be 80 2e 80 3d 66 38 b1 3c 9f 9b c2 be
       -0.1310333 0.06258869 0.021633338 -0.38009354
000220 15 15 3d be 7f f9 a8 be 64 e7 3c 3e f0 4e 15 3e
       -0.18465073 -0.3300285 0.18447644 0.14580894
000230 de c8 0a be aa 7d 2b bc 78 b3 8a 3c b1 79 56 be
       -0.13553187 -0.010466972 0.01693128 -0.20944859
000240 00 d7 6f 3e 00 22 62 3e 2d e3 87 3e d3 84 4d 3e
       0.2342186 0.22083282 0.2654051 0.200702
000250 f7 c5 63 be 98 af b8 3d 54 c4 4b 3e 4a 33 0b 3e
       -0.22243486 0.09017867 0.19899112 0.13593784
000260 a8 81 84 be 52 35 87 bc 29 ff 4e bc 0c 48 b6 be
       -0.2588017 -0.016504917 -0.012634077 -0.35601842
000270 e9 e0 e3 bd a4 ef d5 3d 45 a6 a7 3e 7f dc a8 3e
       -0.111268826 0.104460984 0.3274404 0.32980725
000280 13 b3 29 be bd 65 c8 bb 99 7f b9 be 95 b7 18 3f
       -0.16572218 -0.006115644 -0.36230162 0.59655124
000290 06 da a1 be 6c 3a a0 3e 14 31 78 be b6 9f 03 3d
       -0.3161165 0.31294572 -0.24237472 0.032134734
0002a0 d0 72 8b be d8 0a a9 3e fd 84 17 bf 0a 17 9f be
       -0.27236032 0.33016086 -0.591873 -0.31072265
0002b0 54 23 a2 be cc 6f 46 be 2f 44 55 3d af fe 01 3f
       -0.31667578 -0.19378585 0.052066978 0.5077924
0002c0 c1 4d f4 be b9 c2 9c be 20 a2 ba be cc ed 61 be
       -0.47715572 -0.30617312 -0.36451817 -0.22063369
0002d0 a8 2e f2 be 3a f6 51 be d1 1d a8 3e 70 29 b8 3e
       -0.4730122 -0.20504084 0.32835248 0.35969114
0002e0 bf f2 0c bd 18 5b d7 3d b3 0d ff 3e 0c b9 37 3e
       -0.03441119 0.10515422 0.4981514 0.17941684
0002f0 0a 00 3a be 68 c2 4c 3e 43 d8 4a bd 29 57 37 3e
       -0.18164077 0.19996035 -0.04952265 0.17904343
000300 c8 f9 c3 3e 22 e4 a5 3e c7 d0 d1 3d bf 5a d3 3e
       0.38276505 0.32400614 0.10244899 0.4128017
000310 78 7e 24 3e ef 51 05 bf 5c cb e7 bc ec 65 6e 3e
       0.16063869 -0.52078146 -0.028295211 0.23281068
000320 39 0d f8 be 67 1f 7b be c5 66 dc 3e 2a 7a 98 3e
       -0.48447588 -0.24523698 0.43047157 0.29780704
000330 5e a4 8d 3d 62 3e e9 be 39 ec b8 3e 08 f0 02 3e
       0.06916116 -0.45555407 0.36117724 0.12786877
000340 73 0d 7e 3d d3 7b 18 be bb 9d 90 3e e8 d1 38 be
       0.062024545 -0.14890985 0.2824534 -0.18048823
000350 9e 92 0c 3e e9 6e b4 be 9c ac cf be 9d 23 ff 3c
       0.13727805 -0.35240868 -0.40561378 0.031144911
000360 95 48 4f 3e fa 54 b8 bc 88 59 82 3e fc f0 6a be
       0.20242532 -0.022501457 0.25458932 -0.2294349
000370 6c 5c c5 be a8 c8 dd be 18 cf 65 be 77 48 c9 be
       -0.38547075 -0.4331715 -0.22442281 -0.393131
000380 1c 36 5b bd 57 d1 b4 3e 75 d7 ca bd 3e 84 dc bd
       -0.0535184 0.35315964 -0.099043764 -0.10767411
000390 92 bc 91 be 9a be 3c be 4f bc 78 3e 6b 94 7d 3e
       -0.2846418 -0.18432084 0.24290584 0.24763648
0003a0 52 03 48 be 68 83 09 be 4d 23 e2 3e 0c 69 35 be
       -0.19532517 -0.13429034 0.44167557 -0.17715853
0003b0 29 7c 1d 3e 35 dd a3 3e 36 48 69 be 23 ee 84 be
       0.15379395 0.32004705 -0.22781453 -0.25962934
0003c0 fa 65 cb 3d f4 d5 b6 3d 91 bb 3d be f8 14 b6 3e
       0.0993156 0.08927527 -0.18528582 0.35562873
0003d0 e2 1d a3 3d af 13 2a 3f df 43 15 3e 18 11 df bd
       0.07964684 0.66436285 0.14576672 -0.10891932
0003e0 d3 bf 84 3b 3f d0 04 3e d3 8e ae 3e e2 44 89 be
       0.0040511875 0.12970065 0.3409334 -0.26810366
0003f0 76 08 a7 be ac d2 8f be 16 b9 21 be 0b 58 a5 3e
       -0.32623643 -0.28090417 -0.15793261 0.32293734

transformer.wpe.weight f4 [5, 128]
000000 7f cf 9a bd 83 aa 09 bc e4 9f ed bd 59 76 d5 bd
       -0.07559108 -0.00840247 -0.11602762 -0.10422964
000010 db 62 7a bd 51 c1 79 bd b4 af 6c bd 07 81 18 3c
       -0.061129432 -0.060975377 -0.05778475 0.009308106
000020 f3 08 88 3d 62 c8 6b 3c 24 2e 01 be 36 cf 09 bd
       0.06642332 0.014391037 -0.12615258 -0.033644877
000030 f9 eb c8 3d 38 00 b0 3d 9f cf 97 bc 51 c6 50 3c
       0.09810633 0.08593792 -0.018531619 0.012742595
000040 c8 f7 00 bd cc 25 9c bd 7a 6e 1a bc c4 ea 74 bd
       -0.031486303 -0.07624397 -0.009425754 -0.059794202
000050 dc 7d b2 3d d5 1f 1e be 20 8d 03 be b4 79 6c bd
       0.08715412 -0.1544183 -0.12846804 -0.057733253
000060 f1 f1 2f 3e 13 43 9f bc 24 3f 7c 3d d6 2a 9e 3d
       0.17182137 -0.019441163 0.061583653 0.07723014
000070 28 da 96 bb 35 48 21 bd 51 c1 6d bd 5e d2 72 be
       -0.004603643 -0.039375503 -0.05804569 -0.23713061
000080 fd 11 28 3d 1d 5e c1 3c f8 bc 52 3e 61 a4 81 be
       0.04103278 0.023604447 0.20579898 -0.25320724
000090 91 ee b3 3d e5 6a e9 bd 43 bd c0 3d 73 67 35 bd
       0.08785737 -0.11397342 0.09411099 -0.04428811
0000a0 94 1c bd 3d d4 39 c9 3c fc a8 5b 3e 0f 76 94 3d
       0.092339665 0.024563707 0.21451181 0.072490804
0000b0 04 e0 04 3e 8a 52 f9 3d de 65 71 3c 4c d4 33 be
       0.1297608 0.12173946 0.01473376 -0.17561454
0000c0 97 9f 24 3e ec df 2f 3e 08 e9 3b 3e 45 b7 a2 3d
       0.16076504 0.17175263 0.18350613 0.07945112
0000d0 ff e2 44 3e 2a 7a 25 3e b6 e1 fb bd a6 62 73 be
       0.19227217 0.16159883 -0.1229891 -0.237681
0000e0 7c e1 64 bd 7f 18 26 bd fe 05 0f be 8b 70 6b bd
       -0.0558791 -0.040550705 -0.1396713 -0.057480376
0000f0 ad 91 95 3d f5 57 20 bd 95 24 09 bc 96 68 71 be
       0.07303176 -0.039146382 -0.008370538 -0.23575053
000100 7f 11 2d be 3f 07 e2 bd 7c 51 c2 3c 86 b5 62 be
       -0.16901205 -0.11036538 0.023720495 -0.22139558
000110 53 1e 7b bd b4 81 03 3e b7 3b 8e bd 52 73 ca 3d
       -0.061308216 0.12842447 -0.069449835 0.09885277
000120 ff 1e 7f 3e ff fc 3a 3d 3b cf b1 bd 74 f4 78 bd
       0.24914168 0.045651432 -0.08682104 -0.060780004
000130 74 cb 6f bd 1e e0 44 3e 17 ec 87 3d 4d 63 20 3e
       -0.058543637 0.19226119 0.066368274 0.1566288
000140 cc 0d 50 bd 0b 9e 58 bd b0 65 fe 3b 01 a8 1a bb
       -0.050794408 -0.052885097 0.007763587 -0.0023598673
000150 8b e3 91 bd e5 43 25 3e 2d 82 18 3e 45 ef 40 bd
       -0.071234785 0.16139181 0.14893408 -0.047103185
000160 63 92 81 3c 2c cd 0d 3e ef 20 6d bd 5e 12 54 3d
       0.015816873 0.13847798 -0.057892736 0.05177533
000170 c0 7b da 3c b2 1b 1f 3e 7d 12 a9 3d 90 10 a7 3d
       0.026670337 0.15537909 0.082554795 0.08157456
000180 00 18 87 3d d9 40 d9 bd 12 ae 92 3c c1 42 59 bd
       0.065963745 -0.10608072 0.017905269 -0.053042177
000190 14 c7 0e 3e bc 2f a9 3d aa 84 9a bd 32 6a 13 be
       0.1394313 0.08261058 -0.07544835 -0.14395979
0001a0 54 e5 9d 3d b4 98 36 bd a5 28 e6 bd 2f 48 53 bd
       0.077097565 -0.044579223 -0.11238221 -0.05158251
0001b0 76 41 ba bd 95 7a 02 be 20 14 d0 3c da 7e a3 bc
       -0.09094517 -0.12742074 0.025400221 -0.019957948
0001c0 a4 12 32 3d 5b dc db bd ba bb ed 3d 1a 87 34 be
       0.04347481 -0.10735389 0.116080716 -0.17629662
0001d0 18 2b 85 bc a1 75 79 be 67 53 a7 3d 18 1a 6e bd
       -0.0162559 -0.24361278 0.081702046 -0.058130354
0001e0 85 ad 45 3d 93 f7 2b bd f7 16 2f be f3 e6 d9 bb
       0.048261184 -0.041984152 -0.17098604 -0.0066498457
0001f0 41 90 26 3d 10 be c5 3d e4 c0 94 3d 01 30 1e be
       0.040664915 0.09655392 0.072633535 -0.15448
000200 03 dc 0c bd 99 e1 02 3c 79 bc 14 bd f8 e0 a7 3c
       -0.034389507 0.007988357 -0.036312554 0.020493016
000210 2b ff c6 3c 97 c1 8a 3c 4f 7f 33 3d e8 a2 11 3c
       0.024291595 0.016938014 0.043822583 0.0088889375
000220 da f2 94 bc 4c 7a ca bb 03 ad ad bc 5f 95 a0 3c
       -0.018182207 -0.0061791297 -0.021200662 0.019602476
000230 9f 14 14 bd bc 1d 78 b8 e7 fa d0 bc 33 eb 09 bd
       -0.03615248 -5.91555e-05 -0.025510265 -0.03367157
000240 6a 70 1b bc 22 d7 2d bc dc 01 b7 bc ea a7 55 bb
       -0.009487251 -0.010610374 -0.022339754 -0.0032601305
000250 bc 09 c9 bb a8 d6 c0 bc 4a 71 22 bc 0d 21 62 3c
       -0.0061351936 -0.023539856 -0.0099147055 0.013801825
000260 a0 41 9a 3c 46 bd 46 3d 09 a5 d3 3c 9f ed 9f bc
       0.01883012 0.04852035 0.02583553 -0.019522486
000270 fd 9e b7 3b 54 22 12 bd e6 ed d1 ba 44 64 ee bc
       0.0056036697 -0.03567727 -0.0016016334 -0.029100545
000280 9a ad ce 3b 9d c1 8a 3c 46 6a 49 3d 1f e0 c7 bc
       0.006307316 0.016938025 0.049173616 -0.024398861
000290 8a e2 a3 3c 41 b0 98 3b 69 5d 7b 3c 94 91 2e 3c
       0.020005483 0.004659683 0.015342095 0.010654826
0002a0 f8 19 fc 3c 1c 74 3e bc e3 c4 48 3c 67 5d 08 bc
       0.030774102 -0.011624362 0.012253973 -0.00832305
0002b0 cc ee db bb a5 d4 ee bb 95 4d a5 ba bc cb 4e bc
       -0.0067118164 -0.007288533 -0.0012611622 -0.012621816
0002c0 9c ee 99 3c 40 8a 74 3c d5 c3 9f 3c b8 8e 9e 3b
       0.018790536 0.0149255395 0.01950256 0.0048387907
0002d0 f7 d9 47 3c 8e 5c 04 3c 3f 6d ec 3b 83 91 47 bc
       0.012197963 0.008078707 0.0072151716 -0.012180689
0002e0 e9 8b a7 3c f7 52 c8 bb ee c5 43 bc 51 88 6a bc
       0.020452457 -0.006113406 -0.011949046 -0.014314727
0002f0 23 da 01 3d 94 57 1d bc ca 6a 2b 3c 52 91 97 bc
       0.031702172 -0.0096034 0.010462472 -0.018501911
000300 24 f2 af bc 2c 09 08 3c b9 04 da 3c 40 a3 fa bc
       -0.021477766 0.008302968 0.02661358 -0.030595422
000310 75 76 e1 bb 29 0f d9 3c 2f 33 4a bc 58 1b 91 3c
       -0.0068805763 0.026496487 -0.012341305 0.017713234
000320 cf 17 8b 3c c4 56 8e 3b 3d 15 8a 3c 5a fd ac 3a
       0.016979126 0.0043438394 0.01685583 0.0013198063
000330 85 fc b0 3b db 2b e1 ba d0 c9 25 bb 8f 0c 32 bc
       0.0054011964 -0.0017179208 -0.0025297292 -0.010867252
000340 d6 fd 76 3c bd 5a ba 3b 03 33 4f 3c f5 07 04 3c
       0.015075168 0.0056870864 0.0126464395 0.008058538
000350 ed ed 95 bc 38 df f5 3c 93 9b a7 3b 97 f6 f2 bb
       -0.018301928 0.030013666 0.0051149814 -0.0074146497
000360 95 f2 eb 3b 96 3d 28 3c b2 4a fa bc 2f a8 36 bc
       0.007200549 0.0102685895 -0.030553196 -0.0111484965
000370 56 cb b5 3c 95 b1 80 bb ac bb 32 bb f7 3a 38 bc
       0.022191685 -0.0039274194 -0.0027272506 -0.011244527
000380 70 f6 94 bc 49 5a 35 bb e6 bb 03 3d 10 49 80 bc
       -0.018183917 -0.0027672222 0.032161616 -0.015659839
000390 02 b7 8c 3c 3e 8c 24 bc d9 e0 b4 bc 28 c3 02 bc
       0.017177109 -0.010043202 -0.022079872 -0.007981099
0003a0 ec 05 6a 3c 71 fb c6 39 66 ef 97 bc 1f 49 25 39
       0.014283638 0.0003795284 -0.018546771 0.00015762866
0003b0 ee aa c9 bc 5e 45 05 bd 14 21 65 ba 26 72 ee ba
       -0.024617638 -0.032536857 -0.0008740586 -0.0018191978
0003c0 c4 b9 e8 3c b5 bb 90 3b be ca eb 3b 4f bf c5 bc
       0.028408892 0.0044169077 0.0071957996 -0.024139075
0003d0 99 3c f0 bc 7f fa 66 bc f6 93 e2 3c a8 c7 00 bd
       -0.02932577 -0.014097809 0.027658444 -0.031440407
0003e0 8b 2f de bc 44 3e 8f bb 36 99 4d 3c 3b a4 ee bc
       -0.02712228 -0.0043714363 0.012548735 -0.029131046
0003f0 3c 04 e5 3c ea 56 a7 bc 18 59 a3 3c 6b d0 71 3c
       0.02795612 -0.020427186 0.019939944 0.014759163

transformer.h.0.ln_1.weight f4 [128]
000000 78 84 7f 3f 08 1e 84 3f 71 91 71 3f 4b 4c 7f 3f
       0.99811506 1.0321665 0.9436255 0.9972579
000010 ea d5 81 3f 63 0e 7c 3f d8 91 79 3f 10 36 7d 3f
       1.0143406 0.9845945 0.97488165 0.9891062
000020 19 58 77 3f ec cc 7e 3f bd bd 68 3f c2 f6 7c 3f
       0.966188 0.99531436 0.9091452 0.9881402
000030 c4 5b 71 3f 25 70 76 3f f0 89 7a 3f 13 ae 81 3f
       0.9428065 0.9626487 0.97866726 1.0131248
000040 65 88 77 3f 48 ea 7b 3f ba 53 7d 3f 3c 12 7b 3f
       0.96692497 0.9840436 0.9895588 0.980747
000050 5e 29 78 3f d1 06 7a 3f 76 6e 84 3f 96 4d 78 3f
       0.9693812 0.9766665 1.034621 0.96993387
000060 01 9c 80 3f db ae 7a 3f 79 71 6b 3f 48 0a 81 3f
       1.0047609 0.9792306 0.9197002 1.0081263
000070 13 24 73 3f 5c db 80 3f dc 9d 82 3f d8 72 78 3f
       0.9497692 1.0066943 1.0204425 0.9705024
000080 0a 58 78 3f 12 be 72 3f 59 b7 75 3f d0 27 85 3f
       0.97009337 0.94821274 0.9598289 1.0402775
000090 44 0a 74 3f 25 0d 7e 3f 77 95 72 3f 78 3c 82 3f
       0.95328164 0.99238807 0.94759315 1.0174704
0000a0 f4 99 76 3f 4c a3 82 3f e8 a3 77 3f cc 56 84 3f
       0.96328664 1.0206084 0.96734476 1.0338988
0000b0 80 8a 83 3f d6 23 84 3f 80 f4 76 3f 5b a3 79 3f
       1.0276642 1.0323436 0.9646683 0.97514886
0000c0 67 75 81 3f 5e 41 74 3f 69 66 83 3f 00 1d 81 3f
       1.0113953 0.9541224 1.0265628 1.0086975
0000d0 d6 86 7c 3f d6 ea 80 3f 00 6b 79 3f ad be 79 3f
       0.98643243 1.0071666 0.97428894 0.97556573
0000e0 e7 4d 80 3f 6d 88 7d 3f d5 51 7c 3f 63 c2 77 3f
       1.0023774 0.99036294 0.98562366 0.96780986
0000f0 da d7 7c 3f 6b f9 7e 3f 47 37 77 3f 4e 5f 7a 3f
       0.98766863 0.9959933 0.9656872 0.97801673
000100 bb 65 80 3f 30 78 6d 3f d5 d6 7c 3f a5 61 74 3f
       1.0031046 0.92761517 0.9876531 0.95461494
000110 af c9 81 3f d8 cf 7a 3f bd e9 81 3f 1e 01 7e 3f
       1.0139674 0.97973394 1.0149456 0.99220455
000120 95 79 81 3f 2a 02 77 3f 89 e8 83 3f a1 4f 7c 3f
       1.0115229 0.9648768 1.0305339 0.98559004
000130 bb 70 7f 3f c2 98 7f 3f a8 ed 82 3f 37 c4 83 3f
       0.9978139 0.99842465 1.0228777 1.0294255
000140 6b a5 7e 3f e4 f7 80 3f b8 a3 82 3f 28 d1 7f 3f
       0.9947116 1.007565 1.0206213 0.9992852
000150 95 b4 7e 3f dc 1a 7b 3f ad 85 7c 3f 0b 7c 79 3f
       0.99494296 0.9808786 0.98641473 0.974549
000160 a4 e0 7c 3f e6 24 80 3f a6 95 7c 3f 21 17 77 3f
       0.98780274 1.001126 0.98665845 0.96519667
000170 a3 7a 84 3f 33 8e 7f 3f a4 8c 83 3f de cf 80 3f
       1.0349926 0.99826354 1.0277295 1.0063436
000180 ce 0b 80 3f 03 2b 81 3f 61 19 75 3f 05 12 7b 3f
       1.0003603 1.0091251 0.9574185 0.9807437
000190 d2 01 6f 3f 9d 3d 78 3f ce 0b 82 3f 91 78 7b 3f
       0.9336215 0.96969014 1.0159853 0.98230845
0001a0 d3 d6 83 3f 7d 2b 85 3f 76 00 80 3f 10 b2 7d 3f
       1.0299934 1.0403897 1.0000141 0.99099827
0001b0 63 5b 80 3f 92 7e 73 3f 63 60 85 3f dc 28 82 3f
       1.0027889 0.95115006 1.042004 1.0168719
0001c0 ef 51 76 3f 8c 46 77 3f 0f e1 80 3f 70 3a 7c 3f
       0.9621877 0.9659202 1.0068682 0.9852667
0001d0 03 93 77 3f 5f 2c 82 3f 6a 29 7b 3f de a1 76 3f
       0.967087 1.0169791 0.9811007 0.9634074
0001e0 8b 1b 7b 3f f4 e6 7c 3f d4 25 6f 3f 4f 49 77 3f
       0.980889 0.98789907 0.93417096 0.96596235
0001f0 65 92 72 3f f7 5f 70 3f e7 f8 82 3f 17 04 7a 3f
       0.9475463 0.9389643 1.0232209 0.9766249

transformer.h.0.attn.c_attn.weight f4 [384, 128]
000000 89 4b 1b bc 44 34 a0 3b 48 ca f3 bc a6 66 35 bd
       -0.009478458 0.004889043 -0.029759541 -0.044287346
000010 9c cb 41 bd 87 b1 9b 3c 74 3d 9a bc 35 1b 26 3d
       -0.047313318 0.01900555 -0.018828131 0.04055329
000020 de 66 28 bc ac 26 29 bd 11 d1 05 bd a8 32 83 3d
       -0.010278432 -0.041296646 -0.032670084 0.06406146
000030 da 7d a6 3c f3 c8 1f 3d 64 a5 cb 3c 4c 29 68 bb
       0.020323683 0.03901 0.024859138 -0.0035425005
000040 68 30 ec 3c a5 43 43 bd 0d 37 5d bd c7 4c 0a bc
       0.028831676 -0.047671933 -0.05400758 -0.008441157
000050 bd dc 36 bc da 0d 48 3c 03 d5 c0 ba bd 63 4d bc
       -0.011161027 0.012210334 -0.001471192 -0.0125359865
000060 bf c3 a2 bc 88 d7 17 bd f6 2b 3d bd 21 c2 46 3d
       -0.01986873 -0.03707078 -0.046184503 0.04852498
000070 8b 5a af bc 18 36 b9 3c 4f bf 05 bc d7 93 04 bc
       -0.021405479 0.022608802 -0.008163287 -0.008091888
000080 20 2d 42 bd 85 de a2 3c 2c e4 8f 3c 0c f3 09 bc
       -0.047406316 0.019881496 0.017564856 -0.008419763
000090 c1 c0 2a bd b7 7a 5c bd 5d 9c fb 3c 1b 97 55 bd
       -0.04168773 -0.053827967 0.030714208 -0.05214606
0000a0 f9 c5 de 3b ff 4d cd 3c d6 da 86 3c 91 78 fe 3c
       0.0067985025 0.025061605 0.016461771 0.03106335
0000b0 9c ab 4f 3c 49 16 ec 3c 0f ab c0 3c cb b9 59 bd
       0.012675192 0.02881922 0.023519067 -0.0531557
0000c0 3e 06 b5 bc 0b 76 00 3d b2 aa 15 3b 3e 66 54 3c
       -0.022097703 0.031362575 0.0022837338 0.01296383
0000d0 6e 40 ba 3c f5 df b5 3c 4c 49 d4 bb 41 7f f3 bb
       0.0227358 0.022201518 -0.006478464 -0.0074309413
0000e0 3d a0 e0 3a b0 02 33 bd 27 88 65 bd ff c1 9b 3c
       0.0017137598 -0.043703735 -0.056038048 0.019013403
0000f0 d2 23 8b 3c 04 da 3e bb 92 68 96 3c 36 e8 5d bd
       0.016984854 -0.0029121647 0.01836041 -0.05417653
000100 14 c2 d5 3c 39 3a c7 bc 43 dd d4 bc 2f bd 05 bd
       0.02609352 -0.024319755 -0.025984412 -0.032651123
000110 77 ba e5 3b f7 93 0c 3d cb bf ec bc 80 a6 9e bc
       0.0070107537 0.034320798 -0.028900048 -0.019366503
000120 32 55 45 3d f5 7d cc 3c dd 8e 10 bd 4e 85 3f bd
       0.04817695 0.024962405 -0.035292495 -0.04675799
000130 a9 36 39 3d 58 b9 a6 3d d1 86 c6 bb 1e 24 21 3d
       0.045218144 0.0814082 -0.006058552 0.039341085
000140 5c 1e 04 3c f6 e3 91 bc f5 f2 95 bd 9e ed 77 3c
       0.008063879 -0.017808896 -0.07321731 0.015132336
000150 2b 03 8f 3d d7 ae 43 3d 52 f5 78 3c e1 f9 d7 bc
       0.06983026 0.047774162 0.015195208 -0.026364269
000160 af ad 0e 3d 29 fe 71 bc 60 4e fe 3c ca db 4d 3d
       0.034833606 -0.014770069 0.031043231 0.050258435
000170 20 7d 89 bc fd d8 a3 3c 36 f0 5b 3c fb cf 8c 3d
       -0.016783297 0.020000929 0.01342397 0.068756066
000180 02 dd 41 bd 9b 76 05 b9 3c f8 08 3c 49 a9 01 3d
       -0.04732991 -0.00012728052 0.008359965 0.031655584
000190 e1 36 42 3d e4 0b 95 ba 75 b0 d1 ba 3a b2 ca bc
       0.047415618 -0.0011371342 -0.0015998023 -0.024743188
0001a0 a4 5c 0f 3d 6c 88 a6 ba 59 b2 aa 3b df a5 82 bd
       0.03500046 -0.0012705452 0.005209249 -0.06379294
0001b0 31 03 f0 bb e0 38 ef bc 58 f6 83 3c cc dc b0 3b
       -0.007324599 -0.029201925 0.016108677 0.005397415
0001c0 1f 11 4b bc d7 51 e0 bc c8 f3 c5 ba c7 9d 41 bd
       -0.012394219 -0.027382774 -0.001510256 -0.04726961
0001d0 65 ae e0 ba 13 f8 70 bd 7f da 6c bd ef bb cc 3c
       -0.0017141817 -0.058830332 -0.05782556 0.024991957
0001e0 fb db d2 bc 57 1d 04 3d a6 1d 57 bd 01 9c 53 3c
       -0.02573966 0.032254543 -0.05251851 0.012915612
0001f0 09 15 04 3d c9 f2 27 bd 84 13 3c 3d 68 bb 0c bd
       0.032246623 -0.041003022 0.04591705 -0.034358412
000200 6f 48 54 3c 15 51 c0 bc 2f cf 9a bc 04 a5 71 bd
       0.012956723 -0.023476163 -0.018897621 -0.05899526
000210 42 a4 86 bd ec 9d 14 3d a3 3d 0f bd 1f 38 41 3c
       -0.065742984 0.03628342 -0.03497089 0.0117931655
000220 25 a7 22 bd 60 6e 9c 3c 80 96 13 bd cd 25 be bc
       -0.039710183 0.0190956 -0.0360322 -0.023211384
000230 fc e1 fe 3c fa a2 c2 3c cb a3 71 3c 89 ba d1 bc
       0.031113617 0.023759354 0.014748524 -0.025601642
000240 35 2a d5 bb 8b 72 99 bb dc 50 6c 3c 78 58 67 bc
       -0.0065052756 -0.004682844 0.014423575 -0.014120214
000250 bd e4 97 bb c0 0c fa 3b 7d 98 b3 bc 67 20 c4 3c
       -0.004635422 0.0076309144 -0.021923298 0.023941232
000260 d9 6b 12 bc 72 c7 dd bc 24 1c fe bc d3 7f 37 bd
       -0.008936846 -0.027072642 -0.031019278 -0.044799637
000270 07 89 f7 bb 8e c2 e9 3c 4c 5e 09 bd b0 e5 9e bc
       -0.0075541767 0.028535154 -0.033537194 -0.019396633
000280 bb d1 3d bc 8a 9b f0 bc e1 9d 22 3c bd f1 0c bd
       -0.011585648 -0.029371042 0.009925337 -0.034410227
000290 5e 0f 0a bd a6 2f 59 ba 3c e2 5f 3d 06 c4 e5 bc
       -0.03370606 -0.0008284993 0.054659113 -0.028047573
0002a0 f9 a8 a3 bc dd 89 2c 3a bf 1e 2f 3d e3 98 8e 3b
       -0.019978033 0.00065818225 0.04275393 0.0043517216
0002b0 6a 30 45 bd 03 19 f1 3c 88 e9 2d 3d ec 44 ec bc
       -0.048141874 0.029430872 0.04245904 -0.028841458
0002c0 b8 09 d9 bb 96 83 9a bb 42 6a d0 bc 01 9f 1d 3c
       -0.006623473 -0.0047153933 -0.025441293 0.009620429
0002d0 b4 1b 1b 3c 8f 1c 5c bb 82 8e 8a bd d3 a6 03 3c
       0.009467054 -0.0033586358 -0.067654625 0.008035379
0002e0 4e 3f 98 bc ce c2 04 bd 5e 54 2e 3b aa a7 35 3d
       -0.018584874 -0.032412343 0.002660058 0.04434935
0002f0 2f 70 03 bb 2d 36 93 bc cf 2d 48 3c 16 67 bc bc
       -0.002005588 -0.017970169 0.012217953 -0.022998374
000300 78 ae 42 3d 22 94 29 bd aa 10 a0 3a ca 05 7d bd
       0.047529668 -0.041401036 0.0012211998 -0.0617731
000310 fd 12 cf 3c 90 7b 93 3d ad f3 45 bc 84 b1 35 3c
       0.025277609 0.07201302 -0.012082023 0.011089686
000320 a2 4b d1 3c ce 7e 67 bc 07 f3 69 bc 13 fe b0 bc
       0.02554876 -0.014129354 -0.014279134 -0.021605527
000330 1c a0 aa 3c 85 2f 7d 3b a9 f9 78 3b 4d 02 21 3d
       0.0208283 0.003863306 0.0037990606 0.039308835
000340 84 af ea 3c 47 ad 9d bc cb e6 a7 bc c7 c9 0a bc
       0.028648145 -0.019247664 -0.020495793 -0.008470959
000350 a9 ab 61 3d 47 90 34 3d c4 da 06 3d 44 02 67 bd
       0.05509535 0.044082906 0.032923475 -0.056398645
000360 5c a0 e8 ba 91 66 33 bc cc 92 0a bd a4 46 00 3d
       -0.0017747986 -0.010949747 -0.033831403 0.03131737
000370 2a 33 0b 3d 9b ea 45 3d 3a 1e 1b 3d 35 0e bb 3a
       0.03398434 0.04831944 0.037870623 0.0014271202
000380 2d 22 68 bd 84 e2 1c 3b 98 cc a7 bc c3 2b 45 3b
       -0.056673218 0.0023938725 -0.0204833 0.0030085898
000390 e9 f5 7a 3c 64 44 c1 3c 28 25 d6 bc 70 4e 7c 3d
       0.015317419 0.023592182 -0.026140764 0.06159824
0003a0 d0 4c 6f 3d 93 94 6f 3d 43 db 83 bd 2e 26 48 bd
       0.058422863 0.0584913 -0.06438305 -0.048864536
0003b0 0a 16 ca bc c8 0d a4 bc 9a fc 61 3c 3d 01 1f 3c
       -0.024668712 -0.020026103 0.013793135 0.009704885
0003c0 cb 4d 83 bd fd de bb bc 2c a1 f6 3c 2f 4c 4a bc
       -0.06411322 -0.022933478 0.03010615 -0.012347265
0003d0 98 d7 9c bd b8 c5 bf bb a1 b0 11 3c c5 1e 7e ba
       -0.07658309 -0.0058524273 0.008892209 -0.0009693916
0003e0 4d 65 24 bd ec 04 27 bd 04 73 48 3c ee 94 09 bd
       -0.04013567 -0.04077618 0.012234453 -0.033589296
0003f0 55 61 6d 3c 08 31 57 bd 3a c0 06 ba 23 cd 8d bb
       0.014488538 -0.052536994 -0.00051403383 -0.0043274327

transformer.h.0.attn.c_proj.weight f4 [128, 128]
000000 1f 2d 66 bb dd 76 0e bc 7f 37 30 bc 5f 92 21 3a
       -0.003512211 -0.008695331 -0.010755419 0.00061634736
000010 3e 2c c7 3c c9 54 06 bc 90 19 d4 bc 54 07 c5 bb
       0.024313089 -0.008198925 -0.025891095 -0.0060128365
000020 68 84 e9 bc 08 76 a5 bb 5e 7d 04 3b cc 54 7e 3c
       -0.028505519 -0.005049471 0.0020216326 0.015523147
000030 9d 14 38 3d 5d 69 a3 3c 8a c5 bf 3b 1a 43 c5 bb
       0.044941533 0.019947702 0.005852406 -0.006019962
000040 67 d7 01 bd e8 92 53 3c f5 84 24 3c bd e0 ce bc
       -0.031699564 0.012913443 0.010041465 -0.025253648
000050 36 59 6b bd 8c d6 14 bb 7d ea 50 3d 2f 54 b7 3c
       -0.057458125 -0.0022710888 0.051004875 0.022379009
000060 99 de 6f 37 37 74 7d bc cb 9c 57 bd d5 24 80 3c
       1.4297338e-05 -0.015469602 -0.052639764 0.015642563
000070 4a c7 4d bd 6b 94 b0 bc db 45 aa 3c c0 99 ec bc
       -0.050238885 -0.021555146 0.020785263 -0.028881907
000080 a2 1c 23 3c f4 ec 61 3b 39 c1 89 3b f5 27 d4 3c
       0.009955557 0.003447351 0.004203942 0.02589796
000090 9c d8 1b bd 93 50 41 3c c8 de 07 3c b5 8b 62 3c
       -0.03804837 0.011798996 0.008292861 0.013827254
0000a0 ad a9 55 bc a8 55 5c bc 3b 9d 5d 3d 92 d4 a3 bb
       -0.013040942 -0.013448156 0.054105025 -0.0049997056
0000b0 fa 5c a5 3d b3 56 49 bc 5c be cd bc 41 57 b8 bc
       0.080743745 -0.012288737 -0.025115184 -0.022502543
0000c0 f2 af 3c 3d bd 11 03 bd 24 61 fa b8 2f 77 2c 3d
       0.046066232 -0.03199934 -0.00011939023 0.04210585
0000d0 92 4b 03 3d 1a a5 80 3c ab b9 11 3b 59 0b 99 bc
       0.03205449 0.015703727 0.002223591 -0.018682169
0000e0 30 44 ca bb 1c 03 38 bd 6b 30 39 3d 5d a1 92 ba
       -0.0061726794 -0.04492484 0.04521219 -0.0011187006
0000f0 f6 30 5f 3d 43 25 bf bc cb 0b a6 3c 26 34 31 3d
       0.054490052 -0.023333197 0.020269295 0.043262623
000100 ad 85 7f 3b 01 d1 49 bc 5c c3 72 bc ac d7 eb bb
       0.003898959 -0.012317897 -0.014817085 -0.007197341
000110 36 6b 8d 3c 5e 48 0a bc 00 ec d4 bc 00 8c 71 3c
       0.017263036 -0.008440105 -0.02599144 0.014742851
000120 4a 3d 7b bc f3 f9 25 3d bf eb 04 bd 9a e8 c1 ba
       -0.015334437 0.040521573 -0.032451387 -0.0014794052
000130 99 d7 5a 3d c5 28 5f 3b 57 a4 26 3c f3 a2 83 bd
       0.053428266 0.00340514 0.010171018 -0.064275645
000140 ec 9a e0 3b 87 5d 9b 3b e0 7a b1 3c 84 bc 71 bc
       0.0068544056 0.004741374 0.021665037 -0.014754418
000150 b1 67 4b bd 68 0b 80 3d 01 87 ab bc ad 34 9e 39
       -0.049659435 0.062521756 -0.020938398 0.00030175355
000160 36 d4 f6 bb 96 a6 10 3d 15 29 2a bc 08 39 27 3a
       -0.0075326217 0.03531512 -0.010385771 0.0006379043
000170 8e 67 d2 bc bd f8 8c bd f0 94 f1 bc b4 84 b2 bc
       -0.025684144 -0.068833806 -0.029489964 -0.021791793
000180 81 5d 39 3d e2 a5 40 3d 38 ac 32 bd c7 a4 b8 ba
       0.045255188 0.0470332 -0.04362127 -0.0014087193
000190 4b d6 06 bc 17 01 49 bc 7c 10 61 3c 31 f9 89 bd
       -0.008229802 -0.012268326 0.01373684 -0.067369826
0001a0 11 ec 2e bb 95 57 81 3c ce 9a 31 3d 43 81 2a 3c
       -0.0026691 0.015788833 0.043360524 0.010406795
0001b0 4e dd 79 3d 2e 32 47 3d 70 84 17 bd b7 c8 4d 3d
       0.06100207 0.04863184 -0.036991537 0.050240245
0001c0 c7 4d f8 3c 27 45 b7 bc 02 17 50 3d e6 35 28 bd
       0.030310525 -0.022371842 0.050803192 -0.041067027
0001d0 c9 0e 6d bc 6f 79 18 bc d4 f8 54 bd 84 9b 93 3c
       -0.014468857 -0.009306296 -0.051995113 0.018018492
0001e0 92 01 f9 3c 05 a3 db bc 12 ca c9 3b 71 97 b6 bb
       0.030396257 -0.026811132 0.006158122 -0.0055722524
0001f0 f8 2d c2 3a 63 75 fb 3c 2d b2 0e 3d 87 80 9a bc
       0.0014814725 0.030695623 0.03483789 -0.018860115
000200 1d 3b 8b 3c 63 56 5d bc a1 00 99 3d fe ad 36 3c
       0.01699596 -0.013509366 0.07470823 0.011149881
000210 a1 4e 1a bc 34 95 42 bc 0f 6f 35 bd fd 10 8f bc
       -0.009418161 -0.011876393 -0.044295367 -0.017464155
000220 55 46 1e 3c 4a c9 81 bc 1b d7 8e bc 5b 26 51 bc
       0.009660323 -0.015843052 -0.017436555 -0.012765492
000230 b7 98 a8 bc b1 82 7c 3c fa 8b 11 3d 2d 7a 0a 3c
       -0.020580633 0.015412019 0.035533883 0.008451981
000240 29 59 31 3a 22 db 42 3d 48 2d 1d 3d c5 ee c1 bc
       0.00067653 0.047572263 0.03837326 -0.023673424
000250 c3 14 d0 bc b3 7b 6d 3c 25 e0 4b bb 7b 17 00 bd
       -0.025400525 0.014494824 -0.0031108942 -0.031272393
000260 9b 69 2e bc af a2 90 39 23 43 16 bd ac e8 1c 3d
       -0.0106452955 0.0002758703 -0.03668512 0.03830783
000270 47 22 af bd 6c 66 21 ba 80 0f 39 3b 90 5e fc bb
       -0.0855146 -0.00061569246 0.0028237998 -0.0077017024
000280 1c 34 47 3c 9d c2 d0 bc 2f ed cb 3a 71 97 8a bc
       0.01215842 -0.025483424 0.0015558357 -0.016917916
000290 a3 af 3f 3d 59 50 ba 3c 33 a3 81 bb a0 89 37 bd
       0.04679836 0.02274339 -0.0039562224 -0.044808984
0002a0 fa 73 85 3c 11 e1 6d 3b 69 af 8b 3d c2 57 d1 bc
       0.016290653 0.003629748 0.06820566 -0.025554541
0002b0 eb 07 d1 bc 2b f9 79 3d 49 6d b1 3c e4 45 02 3d
       -0.02551647 0.06102864 0.021658557 0.031804934
0002c0 cf 3f 05 b8 cd d7 b3 3c 3c 7c ab bd d5 b6 64 bd
       -3.1769097e-05 0.021953488 -0.08373305 -0.055838425
0002d0 40 8d 9d 3c 8d 1d 00 bd cd 0d d8 3c 2f 60 6a 3c
       0.019232392 -0.03127818 0.026373768 0.0143051585
0002e0 6d 8d 93 bc 2d 50 a3 bd dc 95 a3 3d fd b3 af bc
       -0.018011773 -0.07974277 0.07987568 -0.02144813
0002f0 eb cb 0f 3c 33 f5 81 3b a7 58 83 3c 9d e6 c1 39
       0.008776645 0.0039659976 0.016033484 0.0003698365
000300 54 6c a4 bb 36 f8 24 3c a0 ed 88 3c ba bf bc 3b
       -0.0050177965 0.010068944 0.01671487 0.0057601603
000310 b2 51 45 bd 16 34 d9 39 c1 ce 16 3c 27 07 12 bd
       -0.048173614 0.00041428272 0.009204567 -0.035651352
000320 2b a9 18 bd 45 ff a2 bc f7 f4 5e 3d a1 4e c6 bc
       -0.037270706 -0.019897113 0.054432835 -0.024207415
000330 fc b5 40 3d 23 3f 2d 3d 03 41 1e bd 67 ff 24 3b
       0.047048554 0.04229654 -0.03863622 0.0025176646
000340 35 b7 4a 3d f8 d8 08 bd a7 7f f4 3c 3e 17 14 bc
       0.049491126 -0.033410043 0.029846026 -0.0090387445
000350 90 4e 0d bd 3e a3 9a 3c 7d 2a 05 bd a8 46 e0 bb
       -0.03449875 0.018876668 -0.032511223 -0.0068443604
000360 d1 64 0b 3d dd 43 00 3c c5 af c4 bc c9 82 ca 3b
       0.034031693 0.00782868 -0.024009595 0.0061801416
000370 63 a2 51 39 63 c5 82 3b bc 59 24 bd 70 72 d3 3b
       0.00019992287 0.0039908155 -0.04012464 0.006452851
000380 60 3c 42 bc f7 75 59 3c 7b ca 04 bc 70 03 d5 3a
       -0.011855215 0.013272754 -0.008104916 0.0016251635
000390 91 d7 0b bd 7c 06 d3 3c 55 84 18 3b 51 59 7f 3d
       -0.034141127 0.025759928 0.0023272235 0.06234104
0003a0 ae c9 04 3d f0 a6 fc 3c 86 de 80 3d 8e 21 03 bc
       0.0324189 0.03084132 0.06292443 -0.0080036055
0003b0 33 56 62 3d b3 3b 33 bd ec 92 1f 3c 6c e1 40 bb
       0.055257987 -0.043758105 0.009739619 -0.0029431237
0003c0 d8 af b1 bd 09 ac 11 bc 60 61 bb 3b d6 1f 09 bc
       -0.08676118 -0.008891114 0.005718395 -0.008369407
0003d0 b5 3b 61 3d 94 f7 2c 3d 87 c8 9a 3b 16 a7 13 3d
       0.05498858 0.042228296 0.0047236118 0.036048017
0003e0 90 78 41 bc 8a 5f b3 3b d5 c4 fe bc 55 17 38 bc
       -0.0118085295 0.0054740356 -0.031099716 -0.011236032
0003f0 6e 5e 19 bb a6 f1 ca ba fc 42 8e bc 6e be 92 3c
       -0.0023402232 -0.0015483394 -0.017365925 0.01791307

transformer.h.0.ln_2.weight f4 [128]
000000 dc 91 9d 3f 92 ad 9c 3f ea 54 9c 3f 08 a9 9b 3f
       1.2310138 1.224047 1.2213414 1.2160959
000010 ef cc 97 3f bb ee 9b 3f ce 3c 99 3f ba ff 9f 3f
       1.1859416 1.218223 1.1971681 1.2499917
000020 e5 d6 98 3f 71 22 99 3f 93 3d 9b 3f 15 c0 97 3f
       1.1940581 1.1963636 1.2128166 1.1855494
000030 10 14 97 3f be 8f 9e 3f a4 d2 98 3f be 1e 9c 3f
       1.1802998 1.2387617 1.1939282 1.2196882
000040 8f bf 98 3f 0f 40 9b 3f 28 b6 98 3f 72 a3 9c 3f
       1.1933459 1.2128924 1.193059 1.223738
000050 0d 30 99 3f bc e4 95 3f 5e 02 9e 3f 68 78 98 3f
       1.1967789 1.1710429 1.2344472 1.1911745
000060 4b 8a 9b 3f 98 00 a0 3f 45 d8 97 3f 65 16 a1 3f
       1.2151579 1.2500181 1.1862875 1.2584959
000070 b6 30 96 3f 39 8d 95 3f 33 40 91 3f 16 65 9c 3f
       1.1733615 1.1683723 1.1347717 1.2218349
000080 f4 48 99 3f bc 11 99 3f 6e 14 99 3f d0 6f 99 3f
       1.1975389 1.1958537 1.195936 1.1987247
000090 9c 25 9c 3f f1 40 99 3f 22 f9 99 3f 4a bb 9a 3f
       1.2198977 1.1972944 1.2029154 1.2088406
0000a0 13 9b 9b 3f 46 f4 98 3f cc 27 a6 3f f7 71 9c 3f
       1.21567 1.1949546 1.2980895 1.2222279
0000b0 94 96 99 3f fd 5a 9f 3f 8e 74 96 3f d0 ed 99 3f
       1.1999078 1.2449642 1.175432 1.20257
0000c0 5e 25 9b 3f cb c9 9b 3f 9b c8 99 3f bd f7 9a 3f
       1.2120779 1.2170957 1.2014345 1.2106854
0000d0 c8 ce 99 3f ce eb 98 3f c1 05 99 3f 5a a9 a0 3f
       1.201623 1.1946962 1.1954881 1.2551682
0000e0 41 81 98 3f 00 b7 9c 3f e5 10 95 3f ba 28 99 3f
       1.1914445 1.2243347 1.1645781 1.1965554
0000f0 23 cf 9e 3f c8 18 98 3f 17 5e 9b 3f f2 12 9c 3f
       1.2406963 1.1882563 1.2138089 1.2193282
000100 f2 42 9b 3f 27 b4 9d 3f e6 2e 9b 3f 75 ba 9c 3f
       1.2129805 1.2320603 1.2123687 1.2244402
000110 6b 23 9a 3f d7 43 a3 3f c6 65 9d 3f a1 96 94 3f
       1.2042059 1.2755078 1.2296684 1.1608468
000120 27 3f 9e 3f e8 37 97 3f 74 de a0 3f 24 89 99 3f
       1.2363023 1.1813936 1.2567887 1.1994977
000130 ac df 9a 3f 1f ab 9e 3f 31 be 94 3f f1 ae 98 3f
       1.2099509 1.2395972 1.1620542 1.1928388
000140 34 51 97 3f 9d 3c 9b 3f 52 37 99 3f 11 7a 98 3f
       1.1821656 1.2127873 1.1970007 1.1912252
000150 04 78 9c 3f e7 94 9c 3f b1 e5 9b 3f f4 f6 99 3f
       1.2224126 1.2232941 1.2179471 1.2028489
000160 bd 29 98 3f 1f 94 99 3f 7e 14 9c 3f 84 52 95 3f
       1.1887738 1.1998328 1.2193754 1.1665807
000170 e0 c2 9f 3f cb d6 9c 3f 4b e7 99 3f 13 83 a0 3f
       1.2481346 1.225305 1.202371 1.2540001
000180 13 6b 9a 3f 30 39 9f 3f ec 63 97 3f 60 dc 9c 3f
       1.2063926 1.2439327 1.1827369 1.2254753
000190 12 59 9c 3f 91 2e 9c 3f 0c 59 9d 3f ea bd 98 3f
       1.2214682 1.2201711 1.22928 1.1932957
0001a0 57 67 9b 3f 12 e7 9a 3f 2d e4 99 3f 54 f9 97 3f
       1.2140912 1.2101767 1.2022759 1.1872964
0001b0 88 2d 99 3f f0 fc 99 3f 96 b4 a2 3f 95 58 9f 3f
       1.196702 1.2030315 1.271136 1.2448908
0001c0 a0 76 98 3f a7 15 95 3f 2f 58 96 3f f8 e4 99 3f
       1.1911201 1.1647233 1.1745661 1.2023001
0001d0 1b 33 97 3f a0 64 a6 3f be d5 9b 3f 0e 51 9d 3f
       1.1812471 1.2999458 1.2174604 1.2290361
0001e0 f7 5d 99 3f 33 70 9b 3f 68 ad 98 3f af ca 9c 3f
       1.1981801 1.2143615 1.1927919 1.2249354
0001f0 e4 40 99 3f a1 59 98 3f c1 e2 9a 3f 7f 57 9a 3f
       1.1972928 1.1902353 1.210045 1.2057952

transformer.h.0.mlp.c_fc.weight f4 [512, 128]
000000 01 dd d2 3d df b4 7b 3d 36 04 5b 3d 25 58 28 3d
       0.102960594 0.06145179 0.053470813 0.041099686
000010 96 7e 86 3d a6 a0 f5 bc cd 88 2a bd e8 67 48 bd
       0.06567113 -0.02998383 -0.04163437 -0.048927218
000020 73 2e 3a bd 57 34 e5 3d f2 e3 f6 bb 9f 55 ec 3d
       -0.045454454 0.11191624 -0.0075344974 0.115397684
000030 b2 63 5a 3c 18 46 75 bd d1 d1 d2 3c 82 17 d9 bb
       0.013329433 -0.0598813 0.025734814 -0.006625117
000040 77 72 00 3d e3 f4 ec 3d 64 79 4f 3d ff 0a 38 3d
       0.031359162 0.11570146 0.050652876 0.04493236
000050 e9 8d e9 bd ac d6 ad bd 47 47 16 3c 3e 06 4c 3c
       -0.1140402 -0.08488211 0.009172267 0.01245266
000060 73 dc 10 bc df 49 ad 3d 49 b5 66 bb 08 f6 2b bd
       -0.008841622 0.084613554 -0.003520327 -0.04198268
000070 fd 24 e6 3d 70 15 78 bc 67 48 4e 3d 28 b7 0a 3d
       0.11237524 -0.01514183 0.050362017 0.033866078
000080 2d a3 18 3d a0 1f 86 bc a8 1d 82 bd 0b 11 b4 bc
       0.03726499 -0.016372502 -0.06353313 -0.021980783
000090 61 18 0d 3c 54 e4 c1 3d b9 cf 7b 39 83 4f 44 3c
       0.008611769 0.09467378 0.00024014608 0.011981848
0000a0 70 c5 07 bd c1 0f 98 bc bb 8c a6 3c 90 00 9d bd
       -0.033147275 -0.0185622 0.020330777 -0.07666123
0000b0 61 b2 0f bd d9 43 5d 3d 6b f2 13 bd 7f 46 04 bc
       -0.035082225 0.054019783 -0.03611986 -0.008073448
0000c0 df 78 5d 3d 4d 38 65 bd fe eb 4f 3d df 2f b0 bd
       0.05407035 -0.055961896 0.05076217 -0.08602881
0000d0 85 5f 7a bd b9 83 a6 3d 75 ce 03 3d df 6f 38 3b
       -0.06112625 0.08130593 0.032179315 0.0028142852
0000e0 a5 0e 27 bc 55 6e 00 3d ea 74 dd bc b6 89 78 3c
       -0.010196363 0.03135522 -0.027033288 0.015169552
0000f0 22 15 20 bd d8 fb 7d bd 72 98 51 bd b9 fd 87 3c
       -0.039082654 -0.062007755 -0.051170774 0.016600477
000100 43 fb f0 bc d3 93 f2 bc a0 65 cf ba f3 da 4b bd
       -0.029416686 -0.029611504 -0.0015823133 -0.049769353
000110 90 20 17 bc 45 87 c9 bb b8 35 6a bc 3a 2d 1a 3d
       -0.009224072 -0.0061501586 -0.014295034 0.037640788
000120 d6 50 27 3c fa 3b 99 3b 0c a8 0a 3d 62 1f 15 3d
       0.010212144 0.004676339 0.03385167 0.036406882
000130 b7 f7 a3 3b 69 92 66 bd 3c e2 89 bc d5 d7 46 bd
       0.005003895 -0.05629197 -0.01683151 -0.048545677
000140 ea c9 3d 3d fe c5 90 bb e9 91 75 3c e5 25 57 3c
       0.04633514 -0.0044181338 0.014988401 0.013131593
000150 6b 58 0d bd 39 cd f2 3b 1d 7c da bd 82 66 00 bd
       -0.03450815 0.0074097184 -0.10668204 -0.03134776
000160 d1 76 ba bc 8f bc b0 3c 7b b4 58 bd b1 9f a2 bd
       -0.022761734 0.021574287 -0.052906495 -0.07940615
000170 b3 f7 3d 3d 69 ef 25 3c 55 a0 29 bd 08 b2 8c 3d
       0.046378803 0.010127881 -0.04141267 0.06869894
000180 08 47 26 bd d1 a1 35 bd b1 db 44 3d e3 76 8b 3c
       -0.040595084 -0.044343773 0.048061077 0.017024463
000190 22 d8 bf bd 6d 6b e7 bb 83 bb 1c 3c ea 81 5a 3d
       -0.09367396 -0.0070623667 0.009566191 0.053346552
0001a0 e8 86 3a bd 5d ff 70 3d 45 e4 83 bc 70 91 a0 3d
       -0.045538813 0.058837283 -0.016100058 0.0784024
0001b0 30 29 05 3d 07 49 b0 3d 1e bd e2 bd 85 47 dd bd
       0.032509983 0.08607679 -0.110712275 -0.10804657
0001c0 02 b5 05 3e a1 e1 58 3d 3f 7a e7 bc c3 2f 67 3d
       0.1305733 0.05294955 -0.028256534 0.056442033
0001d0 92 b7 fe bc bd cb a5 bc 93 81 72 3d 7d a7 89 bc
       -0.031093393 -0.020238752 0.059205603 -0.016803497
0001e0 89 05 31 bd 1c ba 48 bd cd 67 82 bc 98 4f f6 3b
       -0.04321817 -0.049005613 -0.015918637 0.0075168125
0001f0 3d 78 35 bc 03 ae 44 3b 56 85 d3 bc 51 83 8b 3d
       -0.01107603 0.0030010946 -0.025820415 0.06812156
000200 a5 d2 ae 3d 97 8f 8b 3d e7 c3 d0 bc c2 a4 ba bc
       0.08536271 0.06814497 -0.025484039 -0.02278364
000210 27 71 fd bc f1 4d 49 bd c0 7b 2d bc 63 65 48 bd
       -0.030937744 -0.049146596 -0.010588586 -0.048924815
000220 cb a1 c5 bc f5 77 0b 3d ef ca 0f bd fc 0b 6a bc
       -0.024125 0.034049947 -0.035105642 -0.014285084
000230 75 12 ac bd 62 e3 07 3d 68 a5 e8 bc d6 03 26 3c
       -0.08401958 0.033175834 -0.028399184 0.0101327505
000240 09 6b 75 3d 81 44 af 3b 39 84 30 3d 25 b7 ac 3c
       0.05991653 0.0053487425 0.043094847 0.021083424
000250 e7 86 fc bc a5 7e 7d 3d db 33 05 bd 0b 25 24 bc
       -0.030826045 0.061888356 -0.032520156 -0.010018597
000260 b5 6f 00 3d 3e 91 cd bb 59 73 43 bc b8 32 9f 3b
       0.031356532 -0.0062734177 -0.0119293565 0.004858341
000270 80 18 0d bd 20 8a 0e 3c 97 a1 84 3c 99 7f 15 bb
       -0.034447193 0.008699924 0.016190333 -0.002281165
000280 f9 85 f3 3c f6 b4 75 3d b6 97 d0 3a 9f dd ba 3d
       0.02972697 0.05998703 0.0015914354 0.09124302
000290 6e 4f de 3d 21 1a 9b bd d3 1b 4a 3d 2d 75 57 3d
       0.10854994 -0.07573343 0.04934294 0.052601982
0002a0 0c d5 a7 bd 96 10 d8 bd 82 34 b3 3c 43 99 b9 3c
       -0.08194932 -0.105500385 0.021875624 0.022656089
0002b0 a6 43 1f bd dd 12 51 bd 70 50 5c bd 65 dd d6 3c
       -0.038882874 -0.05104338 -0.05378765 0.026228616
0002c0 82 10 f3 bc b2 6f 37 bd 27 31 c3 bd 33 07 ce 3c
       -0.029670957 -0.044784255 -0.095308594 0.025149917
0002d0 fe a5 a8 3b 9f 52 d2 bc da fa 76 3c 63 24 7b 3d
       0.005146741 -0.025674162 0.015074456 0.061313998
0002e0 58 ec a1 3d 44 de e5 3c 97 38 4e bd ac 0a a3 3c
       0.07906407 0.028060086 -0.050346937 0.01990255
0002f0 60 2f ff bc 4d ab a3 bd 77 6b 12 bd 4b e7 1d bd
       -0.03115052 -0.079916574 -0.035747018 -0.038550656
000300 49 aa ed 3c 39 26 25 3d 0d c6 65 bb fb 9f e5 bb
       0.029011862 0.040319655 -0.0035060674 -0.0070075965
000310 e2 93 af bd 96 d2 0e bd bf 49 5c bd c2 42 04 bc
       -0.08573128 -0.0348688 -0.053781267 -0.008072557
000320 9a 2d d5 bc 46 81 94 3c d0 a5 83 3d 8a 2d 1c bb
       -0.026022721 0.018128049 0.064281106 -0.0023830854
000330 69 94 20 bd 0f 85 2d 3c ea a6 f3 bc 6d a6 94 bd
       -0.039204035 0.010590806 -0.029742677 -0.07258306
000340 da 67 41 bb a3 6f 39 3d ec a2 87 bd aa 04 ea bc
       -0.0029511363 0.04527248 -0.06622872 -0.028566677
000350 4f b8 01 3d fa 55 fd bb a0 e9 f7 bc 14 91 ba 3d
       0.03166991 -0.0077311965 -0.030262768 0.09109703
000360 4a 26 02 bc c7 6e 48 bc 4a 76 85 bc b4 92 8a bc
       -0.007943699 -0.012233443 -0.016291756 -0.016915657
000370 90 4e dc 3b e7 f1 71 bd 36 5a 0f 3d e5 2e b9 bd
       0.0067232326 -0.059068587 0.03499814 -0.090421475
000380 42 12 94 3d 59 2d a4 3b 5a 93 44 3c be 7a b7 bb
       0.07230045 0.0050102887 0.011998022 -0.005599349
000390 1d 75 97 3c f3 3c 8f bd fb 68 cd bc fe 61 45 bd
       0.018488461 -0.06994047 -0.025074473 -0.048189156
0003a0 74 ee 80 3c ff ec 1f bc 73 d3 a8 bb 1f 24 31 bb
       0.015738703 -0.009761094 -0.00515216 -0.0027029586
0003b0 e7 5d d9 3d 52 23 ea b8 18 24 9c ba 16 d7 10 3c
       0.106136136 -0.000111645684 -0.0011912612 0.008840343
0003c0 53 47 a1 3d 37 00 34 bd d9 87 ab bc 15 c5 9d 3c
       0.07874932 -0.043945517 -0.0209388 0.019259015
0003d0 8b ba f7 3b d6 4b 5e 3d cc 1a 52 3d c4 70 0c 3d
       0.0075600795 0.05427154 0.051295087 0.03428723
0003e0 71 40 e7 3c 81 71 34 3d 44 9d db bc cc 03 89 bd
       0.02822897 0.04405356 -0.026808389 -0.06690177
0003f0 01 1b 5c 3d 97 ed e8 3c a7 32 3c bd 0c 5b 51 3d
       0.05373669 0.028433604 -0.045946743 0.05111222

transformer.h.0.mlp.c_proj.weight f4 [128, 512]
000000 28 bc c6 3c 84 86 74 bd 0d 98 89 3c 54 51 78 bc
       0.024259642 -0.059698597 0.016796136 -0.015156109
000010 be 1e e1 bb 93 bc bd 3c 1f c4 40 3b 79 a7 59 bd
       -0.00687012 0.023161208 0.0029413772 -0.05313823
000020 f0 b6 97 3d 5c 2e 3f bd a0 5d ce 3a d9 e1 63 3c
       0.074079394 -0.04667507 0.0015744455 0.013908827
000030 70 72 90 bc 90 e9 d3 3d a1 a3 e1 bb 32 bc 03 bd
       -0.017632693 0.10347283 -0.006885961 -0.0321619
000040 c6 80 d4 bb 3e de 75 bb b2 ab 45 3b 51 ee c0 3b
       -0.0064850776 -0.00375165 0.0030162153 0.0058877845
000050 69 c6 66 3c e3 01 9a 3d a7 12 b7 3c 26 0f 05 bd
       0.014085391 0.07519891 0.022347761 -0.03248515
000060 57 f6 06 3d 8f 8e 8b bc 18 26 81 bb e3 47 09 bd
       0.03294977 -0.01703575 -0.0039413087 -0.033515822
000070 4c 67 f7 bc da 30 03 bb fb 9a e3 bb e6 c1 f6 3c
       -0.030200623 -0.0020018131 -0.0069459653 0.030121755
000080 04 43 29 bc b0 61 cd bc 19 b8 0b bd c6 01 06 3d
       -0.010330919 -0.025070995 -0.034111116 0.032716535
000090 6c ee 72 bc af e8 c1 bc c0 78 41 3c 2f 74 de bb
       -0.014827352 -0.023670522 0.011808574 -0.0067887525
0000a0 4f 13 3e bc 29 38 4f 3c 91 ce 80 bc 63 d1 1c 3d
       -0.011601283 0.012647667 -0.015723499 0.038285624
0000b0 c4 61 3b bd 47 a4 ef 3b da 19 cd bc 8f 90 62 3c
       -0.045747533 0.0073132846 -0.025036741 0.013828411
0000c0 b1 d3 0e 3d 0e 33 74 3c 96 72 43 3d 86 63 b7 3c
       0.034869853 0.0149047505 0.0477167 0.022386324
0000d0 a3 e6 de bb 3f 2d 3a 3d f1 6e 90 bd f1 ea 44 3d
       -0.0068023964 0.045453306 -0.070524104 0.04807562
0000e0 55 46 7c bd fb bd 19 bd 88 b8 42 bd 74 76 b9 3c
       -0.06159051 -0.037534695 -0.047539264 0.02263949
0000f0 02 f0 f0 bc a2 38 72 bd 56 66 1d 3c 75 44 3d bd
       -0.02941132 -0.05913604 0.009606918 -0.046207864
000100 33 a8 31 3c 30 5d 6c bd 0d 85 06 bd 0a 06 6b bb
       0.0108433245 -0.057706058 -0.03284173 -0.0035861754
000110 52 51 4a bd 46 a4 e2 bc 8e 67 5d 3d 78 32 9e 3b
       -0.04939396 -0.027666222 0.054053836 0.0048277937
000120 51 2a 8b bc 70 9f 02 bd 1b 7e 27 bc ea 9f 9b bb
       -0.016987951 -0.031890333 -0.010222937 -0.004749288
000130 49 a0 2c 3d ed 35 d3 bc ad 67 13 3c 4b 13 f2 bc
       0.042145047 -0.02578255 0.008996886 -0.029550215
000140 29 ad cd bc 6c 3b ba 3b 97 b8 70 bd 30 af 0e bc
       -0.025106983 0.005683353 -0.05876979 -0.00870876
000150 25 c5 52 3d fc a5 a8 3b 69 d8 92 bd 14 82 33 bc
       0.051457543 0.00514674 -0.07170183 -0.010956306
000160 23 fd 9a bd c4 cc 19 bd 8f f7 ab bd 39 04 34 3c
       -0.07567813 -0.037548795 -0.083968274 0.010987335
000170 b4 e9 58 bc 24 59 c7 3c 2c 63 54 bd 1b 0a 61 bd
       -0.013239313 0.024334498 -0.05185239 -0.054941278
000180 6c 4a ef 3b 92 a0 5d 3c 33 35 06 bd c7 57 48 bc
       0.007302573 0.0135270525 -0.03276558 -0.012227959
000190 62 de 86 bd ac f9 7f 3d f1 f0 eb bc 17 c0 b7 3d
       -0.06585385 0.062493965 -0.028801413 0.08972185
0001a0 4f 0c be 3c 84 18 21 3d a0 22 bc bc 03 14 a1 3c
       0.023199229 0.03933002 -0.02296573 0.019662863
0001b0 d5 75 2d bc 4c bf 39 bd 48 02 8e bd e4 cb 1c bd
       -0.010587175 -0.04534845 -0.06934029 -0.038280383
0001c0 2a 5a ce 3c cd bb ac bb e1 c2 50 bb 42 f5 b0 3b
       0.025189478 -0.005271411 -0.0031854438 0.0054003308
0001d0 cc 71 62 3d a1 5e 83 bc 4f 64 6f 39 d5 a7 94 3d
       0.055284306 -0.016036334 0.00022830184 0.07258574
0001e0 a5 1e 16 bc c8 b6 59 bd 8d 92 0f 3c 6d b9 88 bc
       -0.00916258 -0.05315283 0.008762968 -0.01668998
0001f0 60 09 16 bd 81 5f 9f bd 67 56 16 3d 00 61 36 3b
       -0.036630034 -0.07781888 0.036703493 0.0027828813
000200 fe 0e bf 3c 0a 19 98 3c 38 be 70 3c 3e 29 24 3d
       0.023322579 0.018566627 0.014693789 0.040078394
000210 e0 5b 37 bd ac 06 82 3d c6 ed d4 ba 8a 42 3c 3c
       -0.044765353 0.06348929 -0.0016245178 0.0114904735
000220 0a 09 63 3c 4f 59 16 bc 0a b8 63 bc 7b fd 11 3d
       0.013857136 -0.009176566 -0.013898859 0.03564213
000230 ae 9d 56 3d 4d 0b 0b 3d 5c 56 14 bd 4d eb d2 bc
       0.05239647 0.033946324 -0.03621517 -0.025746966
000240 6f 68 b9 3c 8e ca bc 3d d9 89 cb 3c 96 56 03 3d
       0.022632806 0.09218322 0.024846004 0.032064997
000250 19 30 43 3d 0f 2e 4e 3b f5 59 41 3d ae 2f 49 3d
       0.04765329 0.0031460559 0.04720493 0.049117737
000260 ad 8b 44 3d 26 55 c1 bc cf 7c 9f bc 2e 38 8d bc
       0.047984768 -0.023600172 -0.019468693 -0.017238703
000270 74 46 bf 3c 60 23 2d bd 2b 25 ea bc 26 d8 85 bc
       0.023349024 -0.042270064 -0.028582176 -0.01633842
000280 e1 38 34 3d c3 5c 68 bd 84 07 f2 3c ec 0c f4 bc
       0.043999556 -0.05672909 0.0295446 -0.029791318
000290 dd b2 0d bb ba 35 10 3d 02 b5 dd bc 7d 4d c4 3c
       -0.0021621503 0.035207488 -0.02706385 0.02396273
0002a0 eb ba 4f 3d 34 e2 8e bc fd 46 85 bd 7b 08 d7 3c
       0.05071537 -0.017441846 -0.065076806 0.026249161
0002b0 08 e9 93 39 4f c7 11 bc a8 e5 cc 3c 51 b1 25 3d
       0.00028211647 -0.0088976165 0.025011852 0.040452305
0002c0 c9 fd f7 3c 97 f6 81 3c 6d b9 1f bd cc f4 90 3d
       0.030272381 0.015864654 -0.038995195 0.07077941
0002d0 b1 08 11 3d bd 41 50 bd cd 3e 2a bd a1 da 39 3d
       0.03540868 -0.050843943 -0.041563798 0.045374516
0002e0 68 86 29 3d 29 f8 dd bc 04 1e 17 bd fa db 1b bd
       0.041387945 -0.027095871 -0.03689386 -0.038051583
0002f0 9b 2d 24 bd 67 23 26 bd e7 49 37 bd fa 8a 12 3c
       -0.040082555 -0.040561106 -0.044748213 0.008944267
000300 3a 2b bc 3a 61 a9 6c 3d 60 1b 8a 3d 12 22 26 3d
       0.0014356144 0.05777872 0.067435026 0.040559836
000310 28 f7 9b 3c a5 28 4a 3c 0f a5 51 bd e4 b0 07 bd
       0.019038752 0.012338792 -0.051182803 -0.03312768
000320 d7 6c 34 3d 60 48 e0 bc 08 64 cc 3c 10 08 cc 3c
       0.04404911 -0.027378261 0.024950042 0.024906188
000330 98 fe a8 3c 54 a0 dc 3b b0 1c b8 3c d1 4c 1a bb
       0.020629212 0.00673298 0.022474617 -0.0023544321
000340 d6 bf 9e bc 2b 4f 56 3d dd f6 2a bd 7a a4 87 bb
       -0.019378584 0.052321594 -0.041739333 -0.00413948
000350 ef 64 81 3b 3b 3c 70 ba f8 f1 86 bd ea e6 18 3b
       0.0039488 -0.00091642485 -0.065891206 0.0023330995
000360 f5 d7 55 3c 8b bb 13 bc ae aa 49 bc cb b0 0c 3c
       0.013051976 -0.009016882 -0.01230876 0.008587073
000370 b3 ec 3b ba dd 09 e3 3c bd a6 71 bd 63 43 3a 3d
       -0.0007168755 0.027714664 -0.058996905 0.04547442
000380 5d d8 55 bd e8 b0 ac 3b 8e d1 00 bd 1c a4 cb bc
       -0.052208293 0.0052701123 -0.031449847 -0.024858527
000390 9f 2b 03 3d f2 98 28 3c 0e fb c8 3c f0 0e 97 3d
       0.032024022 0.010290371 0.024533775 0.07375896
0003a0 c5 22 96 3c 94 f1 2e 3c 8d a9 6e 3d 69 c7 2f bd
       0.018327126 0.010677714 0.058267165 -0.04291478
0003b0 df f4 4a bc cb 3f 87 3c 8a f3 40 bc c4 c0 3b 3d
       -0.012387483 0.016509911 -0.011776814 0.045838133
0003c0 09 db 66 bc 0b 04 43 bc 3b cf cd bc ce ae 2b bc
       -0.014090308 -0.011902819 -0.02512323 -0.010478688
0003d0 b5 ef 21 3d af 6e 11 3d 43 77 91 3d 13 eb 0a 3d
       0.039535243 0.035505947 0.071028255 0.03391559
0003e0 71 f7 96 3c 7d cb 22 bd 71 5e f8 bb 50 69 0b 3c
       0.018428536 -0.039744843 -0.0075796177 0.008508995
0003f0 c9 73 0d 3d 64 82 28 bc 83 b4 05 bb cb 78 d3 bd
       0.03453425 -0.010284994 -0.0020401783 -0.10325774
