grokking_checkpoint/model_epoch300.pt (torch, 900786 bytes, 10 tensors)

transformer.wte.weight f4 [206, 128]
0.40632534 -0.066053696 -0.03526408 0.28385562 -0.11169929 0.07157342 0.03151522 -0.37669396
-0.17425571 -0.3348459 0.18068194 0.14603522 -0.14952111 -0.03234244 0.00157514 -0.20657949
0.2258984 0.22249934 0.263951 0.20130315 -0.2096463 0.09006157 0.19245847 0.13827935
-0.2585697 0.0059362534 0.003410921 -0.3421071 -0.09113947 0.092487335 0.33056188 0.3535777
-0.14829409 0.008281301 -0.37388787 0.6092535 -0.31288478 0.3211231 -0.2636665 0.03030353
-0.2565789 0.32946706 -0.59024835 -0.30707 -0.29751408 -0.1859531 0.059867565 0.51544404
-0.49203333 -0.30140257 -0.3769394 -0.21294954 -0.4728691 -0.20912267 0.32439056 0.35527724
-0.05262558 0.10447761 0.505822 0.18918896 -0.18912445 0.20188905 -0.063647196 0.18925534
0.4020742 0.34001 0.11801727 0.40246692 0.15550745 -0.49824488 -0.04892013 0.23908597
-0.48350555 -0.254752 0.4219011 0.31023866 0.07353436 -0.46746626 0.3697384 0.12663555
0.09252444 -0.15063012 0.2875271 -0.16533172 0.13454816 -0.3649705 -0.4063829 0.031816952
0.19036433 -0.018168736 0.2526406 -0.24369246 -0.37064633 -0.4527032 -0.23118478 -0.38163194
-0.03806918 0.35104886 -0.09028978 -0.106512375 -0.29491067 -0.16327731 0.23940901 0.2373259
-0.21317787 -0.13583604 0.42553166 -0.16434632 0.15288682 0.3176171 -0.22083572 -0.25666806
0.117985256 0.07502884 -0.18610556 0.33121777 0.076944806 0.65099263 0.15287943 -0.14190859
0.02058172 0.10804456 0.33001095 -0.260462 -0.33236048 -0.2824759 -0.14332598 0.3194379
0.38816735 -0.056533247 -0.017346589 0.27720827 -0.12731895 0.06036972 0.031157421 -0.37729385
-0.18048353 -0.32459798 0.17626353 0.1522884 -0.13921201 -0.01790916 0.009607914 -0.2188281
0.23036206 0.21996355 0.2666213 0.19445103 -0.21825342 0.07845553 0.19996226 0.1323995
-0.26135558 -0.013471679 -0.008188639 -0.35465595 -0.108266205 0.10195199 0.32834798 0.33765155
-0.1584073 -0.006257374 -0.3632735 0.6005939 -0.31382367 0.31977966 -0.24462503 0.0450876
-0.26411834 0.33305746 -0.59040695 -0.3104995 -0.31322595 -0.18996999 0.05216417 0.5074775
-0.49131286 -0.3019564 -0.3760832 -0.22033507 -0.4886129 -0.21220131 0.33415017 0.3604015
-0.034299735 0.112720594 0.51559114 0.1701574 -0.17881574 0.19991367 -0.05588804 0.17633975
0.3895781 0.32654288 0.11793142 0.4110333 0.15081502 -0.5151594 -0.036162447 0.23783726
-0.48674247 -0.24743244 0.4335994 0.30300277 0.07640771 -0.45768893 0.36766675 0.12528351
0.063278005 -0.15627517 0.2867038 -0.17119695 0.12809183 -0.35266465 -0.4088523 0.038485315
0.19815703 -0.011238122 0.25051412 -0.22829321 -0.37873584 -0.4348775 -0.22071342 -0.39578074
-0.05042768 0.35272828 -0.09787276 -0.1119631 -0.29505336 -0.17733584 0.24365874 0.25271332
-0.19567056 -0.14147235 0.44677472 -0.17956507 0.15369068 0.30651304 -0.23112786 -0.2688909
0.09736427 0.08549981 -0.19321823 0.34885 0.08238581 0.6679977 0.15798518 -0.12216898
0.0050596297 0.12695977 0.32902822 -0.26575804 -0.33159947 -0.27601483 -0.15637529 0.32577765
00000000: e009 d03e 2947 87bd 1171 10bd 8655 913e
00000010: 99c2 e4bd 1695 923d 1a16 013d 08de c0be
00000020: 1770 32be ec70 abbe b004 393e 428a 153e
00000030: 101c 19be 8279 04bd ee74 ce3a 9389 53be
00000040: e951 673e ded6 633e 9624 873e 6a22 4e3e
00000050: 85ad 56be 3372 b83d d513 453e 1a99 0d3e
00000060: 3f63 84be e784 c23b c289 5f3b a928 afbe
00000070: 55a7 babd 006a bd3d 683f a93e 2308 b53e
00000080: 68da 17be 4bae 073c 3b6e bfbe 0af8 1b3f
00000090: 6f32 a0be 3f6a a43e 4cff 86be 1c3f f83c
000000a0: 4f5e 83be e8af a83e 841a 17bf 4738 9dbe
000000b0: c453 98be 7d6a 3ebe b137 753d 24f4 033f
000000c0: cbeb fbbe 7051 9abe 33fe c0be 720f 5abe
000000d0: e61b f2be 4124 56be 8516 a63e e6e6 b53e
000000e0: ec8d 57bd 5bf8 d53d 8d7d 013f c0ba 413e
000000f0: d7a9 41be 01bc 4e3e 7659 82bd 27cc 413e
00000100: abdc cd3e ca15 ae3e 0ab3 f13d 2510 ce3e
00000110: 583d 1f3e f419 ffbe 7960 48bd f4d2 743e
00000120: 0a8e f7be db6e 82be 6c03 d83e 9ad7 9e3e
00000130: 2f99 963d bd57 efbe 5a4e bd3e c0ac 013e
00000140: 747d bd3d c83e 1abe c136 933e b84c 29be
00000150: fec6 093e 6add babe 6b11 d0be 7e52 023d
00000160: deee 423e 9ad6 94bc 1c5a 813e 848a 79be
00000170: 5bc5 bdbe b7c8 e7be b4bb 6cbe 4365 c3be
00000180: 6eee 1bbd adbc b33e d9e9 b8bd 2923 dabd
00000190: 88fe 96be 2b32 27be a327 753e 9005 733e
000001a0: 4d4b 5abe 9a18 0bbe 49df d93e 674a 28be
000001b0: 5d8e 1c3e b59e a23e c222 62be ff69 83be
000001c0: 41a2 f13d b8a8 993d 7592 3ebe 6095 a93e
000001d0: 3d95 9d3d 74a7 263f 6d8c 1c3e 7c50 11be
000001e0: ff9a a83c 7746 dd3d 32f7 a83e 465b 85be
000001f0: 272b aabe aea0 90be 0cc4 12be 5d8d a33e
00000200: dfbd c63e 688f 67bd 6f1a 8ebc 3eee 8d3e
00000210: e65f 02be 3d46 773d d93d ff3c a92c c1be
00000220: add0 38be b531 a6be 6d7e 343e 7ef1 1b3e
00000230: 988d 0ebe 3bb6 92bc 836a 1d3c 7914 60be
00000240: 08e4 6b3e 203e 613e 9682 883e 2c1e 473e
00000250: d37d 5fbe 4bad a03d e8c2 4c3e bc93 073e
00000260: 66d0 85be 51b8 5cbc a429 06bc 7795 b5be
00000270: acba ddbd 34cc d03d 3a1d a83e aae0 ac3e
00000280: 8635 22be a80a cdbb fcfe b9be 86c0 193f
00000290: 7fad a0be 29ba a33e fc7e 7abe c6ad 383d
000002a0: 853a 87be 8286 aa3e e924 17bf caf9 9ebe
000002b0: 275f a0be 7e87 42be 19aa 553d 0cea 013f
000002c0: 5c8d fbbe 079a 9abe fa8d c0be 849f 61be
000002d0: 782b fabe 4d4b 59be bb15 ab3e 8c86 b83e
000002e0: e17d 0cbd 0eda e63d c8fd 033f be3d 2e3e
000002f0: 791b 37be 2bb6 4c3e dcea 64bd 6892 343e
00000300: c876 c73e a130 a73e 0786 f13d f572 d23e
00000310: 416f 1a3e 7de1 03bf 131f 14bd 9c8b 733e
00000320: 4f36 f9be ee5e 7dbe be00 de3e 2e23 9b3e
00000330: a57b 9c3d 3456 eabe d13e bc3e 524a 003e
00000340: e697 813d 9906 20be d7ca 923e 414e 2fbe
00000350: 812a 033e 7690 b4be 1755 d1be c7a2 1d3d
00000360: ade9 4a3e 1a20 38bc 6343 803e b2c5 69be
00000370: aae9 c1be 44a8 debe b302 62be c6a3 cabe
00000380: 418d 4ebd cd98 b43e 8371 c8bd e94c e5bd
00000390: 3c11 97be 8797 35be ad81 793e a463 813e
000003a0: dd5d 48be 21de 10be a8bf e43e e8df 37be
000003b0: 1761 1d3e 47ef 9c3e c8ac 6cbe 11ac 89be
000003c0: eb66 c73d 861a af3d 00db 45be 789c b23e
000003d0: e4b9 a83d e601 2b3f dec6 213e bb33 fabd
000003e0: 40cb a53b be01 023e 6376 a83e 7011 88be
000003f0: 68c7 a9be d151 8dbe d820 20be 54cc a63e

transformer.wpe.weight f4 [5, 128]
-0.077347405 -0.007548364 -0.11450959 -0.101869516 -0.060985252 -0.060106352 -0.06031016 0.0130683975
0.06797394 0.017609296 -0.12343959 -0.03028354 0.099226885 0.08271082 -0.01923174 0.010658014
-0.033687577 -0.07829782 -0.011813836 -0.06568382 0.087559775 -0.15076217 -0.13071543 -0.055029776
0.17434669 -0.016132396 0.059537593 0.077530675 -0.0028713497 -0.03978923 -0.057684887 -0.23966137
0.04103107 0.02464338 0.20965509 -0.256539 0.08916554 -0.11302227 0.09656552 -0.04279624
0.09800399 0.021555765 0.21898626 0.07428869 0.12825678 0.12266117 0.011743974 -0.17644182
0.16215803 0.17426556 0.18147507 0.07463228 0.19315584 0.16285554 -0.121588 -0.23363946
-0.058090344 -0.041422054 -0.14154303 -0.05697461 0.07426683 -0.041391496 -0.0068995855 -0.2303964
-0.17055787 -0.10925311 0.02036268 -0.22187246 -0.061728995 0.1306182 -0.070045635 0.0965965
0.25351754 0.041390162 -0.088912725 -0.06685344 -0.056733757 0.19413334 0.06228576 0.15834346
-0.051641356 -0.054757927 0.0045389007 0.0015036665 -0.073734 0.16263933 0.1500525 -0.045111038
0.011692296 0.13876761 -0.061364803 0.053317286 0.025099805 0.15971953 0.081841536 0.082889326
0.06640039 -0.11094344 0.017921723 -0.050895464 0.14080417 0.0852737 -0.07856015 -0.14674838
0.08284073 -0.04692291 -0.115871005 -0.052692294 -0.090583704 -0.12871462 0.034798298 -0.018278651
0.044215597 -0.1093566 0.11561101 -0.17756525 -0.013434604 -0.24712664 0.07552623 -0.06105442
0.050835755 -0.041910887 -0.1716129 -0.0037935185 0.039565567 0.10051648 0.07000931 -0.15390451
-0.032956947 0.011306335 -0.035785865 0.018815575 0.026385676 0.01506526 0.04602977 0.011732426
-0.01451777 -0.0037304536 -0.02039258 0.019513914 -0.03635244 -0.0067346646 -0.025430232 -0.031653926
-0.009594643 -0.00922919 -0.022681165 -0.006391272 -0.007638086 -0.01721209 -0.008293304 0.014522683
0.017771134 0.0479085 0.023024723 -0.017144835 0.005666233 -0.035047915 -0.0019784346 -0.033402674
0.007448515 0.019176725 0.049949333 -0.023935387 0.022077126 0.005924711 0.015262372 0.011486862
0.03093427 -0.009871679 0.0074396203 -0.0059464485 -0.008551285 -0.010671708 -0.00048500506 -0.01126763
0.015953582 0.011047298 0.018484626 0.0064414777 0.010904337 0.0077275466 0.0070082606 -0.012808736
0.022536363 -0.0024450424 -0.013261303 -0.010831789 0.035034787 -0.0123407245 0.009527574 -0.015738295
-0.02301266 0.0066911294 0.024224285 -0.028790416 -0.009339782 0.027788036 -0.010487164 0.015000704
0.016989037 0.007246953 0.01747919 0.0017463248 0.0059398655 -0.0043670465 -0.0050787004 -0.008687426
0.013774712 0.007817799 0.011007408 0.010516348 -0.021768281 0.028746655 0.00088784 -0.0049924674
0.0084187025 0.010325749 -0.032894958 -0.006873104 0.01864383 -0.005749678 -0.003650171 -0.0098308725
-0.017952245 -0.0033224882 0.031301938 -0.0135049 0.014821377 -0.010702454 -0.024297021 -0.009354121
0.016277242 -0.0015694317 -0.016350204 0.00011805386 -0.024151025 -0.030534383 0.0019149937 0.0040046694
0.029436948 0.0019297283 0.007036003 -0.021996725 -0.025820065 -0.012479175 0.023214927 -0.032919917
-0.026641633 -0.0014281805 0.0148846125 -0.031447433 0.027037099 -0.023026172 0.017900012 0.01673289
00000000: 5168 9ebd 4458 f7bb 0184 eabd f7a0 d0bd
00000010: accb 79bd 1432 76bd c907 77bd d51c 563c
00000020: ec35 8b3d 5f41 903c e5cd fcbd 3015 f8bc
00000030: 7737 cb3d 4a64 a93d e28b 9dbc f39e 2e3c
00000040: fcfb 09bd 9c5a a0bd d28e 41bc 3d85 86bd
00000050: 8a52 b33d 6661 1abe 44da 05be e766 61bd
00000060: f087 323e 1628 84bc b1dd 733d 67c8 9e3d
00000070: 412d 3cbb 08fa 22bd fd46 6cbd ca69 75be
00000080: 3210 283d eae0 c93c d3af 563e 1459 83be
00000090: 6c9c b63d 3878 e7bd 25c4 c53d 1c4b 2fbd
000000a0: 51b6 c83d b795 b03c ef3d 603e ab24 983d
000000b0: bf55 033e c835 fb3d cc69 403c 2aad 34be
000000c0: c10c 263e ac72 323e 9ad4 393e cfd8 983d
000000d0: a5ca 453e 9ac3 263e 2103 f9bd 2f3f 6fbe
000000e0: 24f0 6dbd 2caa 29bd a8f0 10be 355e 69bd
000000f0: 3519 983d 218a 29bd eb15 e2bb 09ed 6bbe
00000100: b9a6 2ebe 18c0 dfbd a3cf a63c 8932 63be
00000110: 8bd7 7cbd c7c0 053e 1674 8fbd 63d4 c53d
00000120: 0dcd 813e bb88 293d e017 b6bd 75ea 88bd
00000130: a861 68bd e4ca 463e 5a1f 7f3d ca24 223e
00000140: e385 53bd d949 60bd 0fbb 943b ad16 c53a
00000150: da01 97bd ed8a 263e 5da7 193e 5ac6 38bd
00000160: 0b91 3f3c 1919 0e3e a959 7bbd 3a63 5a3d
00000170: 1b9e cd3c 848d 233e 899c a73d e1c1 a93d
00000180: edfc 873d 5036 e3bd 94d0 923c c377 50bd
00000190: f82e 103e faa3 ae3d 25e4 a0bd 3545 16be
000001a0: 67a8 a93d 3d32 40bd c74d edbd e0d3 57bd
000001b0: f383 b9bd c4cd 03be a988 0e3d 1cbd 95bc
000001c0: 6a1b 353d 5af6 dfbd 77c5 ec3d aad3 35be
000001d0: d01c 5cbc c40e 7dbe 7fad 9a3d 3314 7abd
000001e0: 2739 503d c0aa 2bbd 4bbb 2fbe ae9c 78bb
000001f0: 810f 223d 96db cd3d 0b61 8f3d 2599 1dbe
00000200: ddfd 06bd 353e 393c 3394 12bd 1f23 9a3c
00000210: c626 d83c 48d4 763c b689 3c3d 5c39 403c
00000220: f1db 6dbc a07a 74bb 570e a7bc a5db 9f3c
00000230: 4ce6 14bd 76ae dcbb 1053 d0bc 8ca7 01bd
00000240: d932 1dbc 0736 17bc dacd b9bc e06d d1bb
00000250: e948 fabb 5e00 8dbc a3e0 07bc 8cf0 6d3c
00000260: c594 913c b43b 443d 589e bc3c 5373 8cbc
00000270: cfab b93b 678e 0fbd a0a8 01bb 3ed1 08bd
00000280: ac12 f43b 8218 9d3c ac97 4c3d 2514 c4bc
00000290: 17db b43c 1424 c23b 070f 7a3c 6433 3c3c
000002a0: de69 fd3c d3bc 21bc 0fc8 f33b 6dda c2bb
000002b0: b01a 0cbc 63d8 2ebc 4748 feb9 de9b 38bc
000002c0: 16b1 823c baff 343c 126d 973c 0813 d33b
000002d0: 1ba8 323c 5c37 fd3b 8da5 e53b bcdb 51bc
000002e0: 2e9e b83c 013d 20bb f045 59bc d177 31bc
000002f0: a380 0f3d c030 4abc 8b19 1c3c 99ed 80bc
00000300: 0c85 bcbc 4341 db3b 0272 c63c e1d9 ebbc
00000310: e305 19bc bca3 e33c 5bd2 2bbc 83c5 753c
00000320: 982c 8b3c d977 ed3b 8530 8f3c f0e4 e43a
00000330: 34a3 c23b 7119 8fbb 3a6b a6bb b555 0ebc
00000340: 54af 613c 3a16 003c 6a58 343c c34c 2c3c
00000350: 6553 b2bc 1b7e eb3c efbd 683a da97 a3bb
00000360: 99ee 093c 552d 293c ddbc 06bd c637 e1bb
00000370: f2ba 983c cb67 bcbb b537 6fbb ab11 21bc
00000380: 9610 93bc 1abe 59bb 7636 003d a843 5dbc
00000390: 5cd5 723c 5859 2fbc 8c0a c7bc 0742 19bc
000003a0: da57 853c 64b5 cdba ddf0 85bc af93 f738
000003b0: 5fd8 c5bc 3e23 fabc 8700 fb3a 9a39 833b
000003c0: c125 f13c f0ee fc3a 458e e63b 7a32 b4bc
000003d0: 9a84 d3bc 7475 4cbc 3b2d be3c 09d7 06bd
000003e0: 8e3f dabc c931 bbba 97de 733c 06cf 00bd
000003f0: e87c dd3c 62a1 bcbc 0ca3 923c 6a13 893c

transformer.h.0.ln_1.weight f4 [128]
0.99318784 1.0328883 0.94795275 0.9969073 1.0179819 0.9829471 0.9744145 0.98537797
0.962886 0.99634063 0.9123558 0.9851596 0.9436948 0.9618569 0.977314 1.0101314
0.9694928 0.98353475 0.98788375 0.98548305 0.967538 0.97170234 1.0324667 0.97075874
1.0061911 0.97729945 0.91824317 1.0066997 0.9528986 1.0052899 1.0201892 0.97479385
0.97296584 0.9513201 0.95799667 1.0393983 0.9503289 0.9938802 0.94904095 1.0147614
0.9597666 1.0218599 0.9679414 1.0358956 1.0260581 1.0348977 0.9621202 0.97373843
1.0093688 0.9567741 1.0256594 1.0049675 0.9842173 1.0085158 0.9726058 0.97506166
1.0044589 0.9891632 0.98427814 0.96894544 0.98717135 0.9965724 0.9642663 0.9756035
1.0028746 0.9281029 0.9844319 0.95234275 1.0143024 0.97660285 1.0133152 0.99029285
1.0109599 0.96524394 1.0301255 0.983838 0.99748284 1.0000801 1.0205398 1.0274626
0.99241555 1.0071615 1.0160711 0.9976772 0.9982607 0.98290145 0.988583 0.973616
0.9893168 0.998141 0.99019444 0.9623858 1.033354 0.99836993 1.0239751 1.0054245
1.0009016 1.005478 0.95567155 0.9776775 0.93218637 0.96795326 1.0156605 0.9851513
1.0294524 1.0411156 0.99672824 0.9901984 1.002244 0.95198464 1.0405431 1.0206574
0.9603529 0.9665042 1.0039914 0.985247 0.96564543 1.0179641 0.97995865 0.9659223
0.9828402 0.9867498 0.9326078 0.9673538 0.9462511 0.94092476 1.0208502 0.9774836
00000000: 8f41 7e3f af35 843f 08ad 723f 5135 7f3f
00000010: 3b4d 823f 6ca2 7b3f 3b73 793f bb41 7c3f
00000020: b27f 763f 2e10 7f3f 2690 693f 6b33 7c3f
00000030: fb95 713f 413c 763f 4031 7a3f fc4b 813f
00000040: ae30 783f efc8 7b3f f3e5 7c3f 9e48 7c3f
00000050: 92b0 773f 7cc1 783f de27 843f a583 783f
00000060: dfca 803f 4c30 7a3f fc11 6b3f 89db 803f
00000070: 2af1 733f 57ad 803f 8f95 823f 178c 793f
00000080: 4a14 793f b789 733f 453f 753f 010b 853f
00000090: c148 733f ef6e 7e3f 59f4 723f b4e3 813f
000000a0: 44b3 753f 4ecc 823f 02cb 773f 3a98 843f
000000b0: df55 833f 8777 843f 824d 763f ec46 793f
000000c0: ff32 813f 26ef 743f cf48 833f c6a2 803f
000000d0: aaf5 7b3f 0c17 813f b2fc 783f a49d 793f
000000e0: 1c92 803f cd39 7d3f a7f9 7b3f cf0c 783f
000000f0: 43b7 7c3f 5e1f 7f3f 28da 763f 27c1 793f
00000100: 325e 803f 2798 6d3f bb03 7c3f bccc 733f
00000110: a9d4 813f a502 7a3f 50b4 813f d583 7d3f
00000120: 2267 813f 3a1a 773f 27db 833f cfdc 7b3f
00000130: 095b 7f3f a002 803f 0ca1 823f e583 833f
00000140: f20e 7e3f abea 803f 9e0e 823f c667 7f3f
00000150: 038e 7f3f 6e9f 7b3f c713 7d3f e63e 793f
00000160: de43 7d3f 2b86 7f3f 627d 7d3f ea5e 763f
00000170: f244 843f 2c95 7f3f 9e11 833f c0b1 803f
00000180: 8b1d 803f 81b3 803f e4a6 743f 1349 7a3f
00000190: c4a3 6e3f c9cb 773f 2a01 823f e032 7c3f
000001a0: 19c5 833f 4743 853f 9529 7f3f a47d 7d3f
000001b0: 8849 803f 44b5 733f 8430 853f e7a4 823f
000001c0: b0d9 753f d26c 773f ca82 803f 2639 7c3f
000001d0: 8a34 773f a64c 823f 92de 7a3f af46 773f
000001e0: 6a9b 7b3f a39b 7c3f 63bf 6e3f 80a4 773f
000001f0: 833d 723f 72e0 703f 38ab 823f 5d3c 7a3f

transformer.h.0.attn.c_attn.weight f4 [384, 128]
-0.0060104984 0.0014050405 -0.027626693 -0.039925516 -0.04495213 0.02261247 -0.017628932 0.038320035
-0.013123486 -0.042102225 -0.031049851 0.060844578 0.017531123 0.03634746 0.028606901 -0.0069995937
0.0323193 -0.04474094 -0.05067368 -0.0053206603 -0.01442771 0.01414291 0.00022530637 -0.009365828
-0.023936186 -0.034905054 -0.050254706 0.04495951 -0.018102594 0.023728259 -0.005599013 -0.0033520001
-0.04471835 0.017526448 0.015065517 -0.0050395997 -0.045376543 -0.050496705 0.027344605 -0.046648286
0.00568625 0.02228408 0.013797528 0.028108008 0.009681595 0.026235616 0.019890197 -0.05107961
-0.025062524 0.029460697 -0.00063942233 0.0077594253 0.019402537 0.019505365 -0.003626769 -0.0049501993
0.0050153257 -0.039975397 -0.053022504 0.0213454 0.0121609075 -0.0025809335 0.015368961 -0.05108705
0.030410271 -0.02055937 -0.021820812 -0.028872773 0.0031303512 0.031400025 -0.02644792 -0.02275904
0.04376464 0.026600255 -0.03335733 -0.044753928 0.044309553 0.07850789 -0.008433748 0.036097247
0.00948586 -0.015137747 -0.075334065 0.019624699 0.06856906 0.044880975 0.010876505 -0.02530126
0.0305418 -0.016609425 0.027736135 0.047210816 -0.02066027 0.018000994 0.015933491 0.06522282
-0.05060152 0.0016127165 0.00084451603 0.028523646 0.04238647 -0.0038290014 0.001144774 -0.022663603
0.032571543 0.00026448435 0.009939987 -0.060817 -0.0031142877 -0.025595529 0.01391765 0.0016002788
-0.0076487213 -0.024542313 -0.0043152715 -0.04206891 -0.0067905462 -0.054497644 -0.056088626 0.02076581
-0.021238133 0.028492717 -0.047923546 0.016096 0.03407666 -0.04361799 0.043327667 -0.029596034
0.012198625 -0.02260418 -0.020745989 -0.059544425 -0.06668684 0.035585668 -0.034981422 0.012195699
-0.039334886 0.024128376 -0.039321445 -0.021734633 0.032668583 0.024647655 0.013324631 -0.024403362
-0.0051916484 -0.0045331884 0.013157422 -0.014645752 -0.0031543106 0.005187205 -0.02225026 0.023973307
-0.008453872 -0.029042019 -0.02933609 -0.044353317 -0.004809132 0.025778886 -0.034171477 -0.018984387
-0.0119523555 -0.028376086 0.011639014 -0.034842633 -0.033040877 -0.0019223834 0.054914497 -0.028264942
-0.019935982 0.0011847528 0.0426138 0.005482116 -0.048443437 0.031358466 0.042796962 -0.029394405
-0.007060625 -0.0031433674 -0.025328405 0.009871027 0.01008024 -0.00070050376 -0.06933486 0.006827276
-0.018356053 -0.031938467 0.002757162 0.043494795 -0.0013617114 -0.014764266 0.0125796385 -0.024536995
0.046937436 -0.043712817 0.0020318055 -0.062124964 0.026197093 0.07276044 -0.013052334 0.011992408
0.025444089 -0.013498838 -0.016100043 -0.022412876 0.022578865 0.0056828004 0.0053347293 0.03960668
0.028740745 -0.020593366 -0.019084219 -0.00941996 0.056218456 0.04520153 0.032273542 -0.05779523
-0.00322703 -0.010370624 -0.029658163 0.032612137 0.035167024 0.04966043 0.036815498 0.0019987323
-0.056280334 -9.150365e-05 -0.020396112 0.0033306303 0.014155382 0.02615613 -0.026478678 0.060664102
0.060495045 0.05613905 -0.06389261 -0.04973524 -0.022399182 -0.018833745 0.016940206 0.00975554
-0.065075435 -0.023612993 0.03111919 -0.013129895 -0.07598796 -0.0056398455 0.008998949 0.0020517048
-0.040450733 -0.038115982 0.010619943 -0.033367574 0.013592292 -0.05068928 0.0013416223 -0.004972571
00000000: b7f3 c4bb 5629 b83a 6051 e2bc f088 23bd
00000010: ba1f 38bd c93d b93c 8d6a 90bc 78f5 1c3d
00000020: e403 57bc 6273 2cbd 425c febc 2a38 793d
00000030: 6e9d 8f3c 13e1 143d 0559 ea3c d95c e5bb
00000040: 3e61 043d 4742 37bd 348f 4fbd ef58 aebb
00000050: 3462 6cbc aab7 673c 3840 6c39 2173 19bc
00000060: d215 c4bc 9af8 0ebd e1d7 4dbd 7727 383d
00000070: e44b 94bc c461 c23c ed77 b7bb 3bad 5bbb
00000080: 972a 37bd a093 8f3c 5cd5 763c 3a23 a5bb
00000090: c1dc 39bd a2d5 4ebd cb01 e03c 4612 3fbd
000000a0: b953 ba3b 1a8d b63c 070f 623c c442 e63c
000000b0: 8d9f 1e3c 13ec d63c c4f0 a23c da38 51bd
000000c0: ec4f cdbc 8f57 f13c e89e 27ba c742 fe3b
000000d0: 12f2 9e3c b7c9 9f3c 16af 6dbb 4835 a2bb
000000e0: 9a57 a43b 3ebd 23bd 202e 59bd 8cdc ae3c
000000f0: 8b3e 473c e124 29bb 18ce 7b3c a840 51bd
00000100: f61e f93c 206c a8bc 8fc1 b2bc 9886 ecbc
00000110: 9426 4d3b 509d 003d 4fa9 d8bc 2b71 babc
00000120: 8d42 333d c7e8 d93c b2a1 08bd e54f 37bd
00000130: ef7d 353d bfc8 a03d b42d 0abc b5da 133d
00000140: 956a 1b3c 5004 78bc bf48 9abd fac3 a03c
00000150: ef6d 8c3d 1dd5 373d 5e33 323c 9744 cfbc
00000160: cc32 fa3c 7d10 88bc e436 e33c 2160 413d
00000170: ba3f a9bc d276 933c f486 823c 8b93 853d
00000180: 8a43 4fbd c961 d33a 8362 5d3a 6caa e93c
00000190: 6f9d 2d3d fcef 7abb 3e0c 963a 05a9 b9bc
000001a0: bd69 053d 7daa 8a39 54db 223c 3f1b 79bd
000001b0: 1419 4cbb b7ad d1bc db06 643c 72c0 d13a
000001c0: 20a2 fabb f60c c9bc 1f67 8dbb 7350 2cbd
000001d0: 3b83 debb ec38 5fbd 30bd 65bd 0f1d aa3c
000001e0: 98fb adbc 8f69 e93c 7b4b 44bd c2db 833c
000001f0: f893 0b3d c7a8 32bd 5a78 313d 6273 f2bc
00000200: bedc 473c 672c b9bc 7ef3 a9bc dbe4 73bd
00000210: 1c93 88bd 47c2 113d ae48 0fbd 78d0 473c
00000220: 9e1d 21bd dfa8 c53c 860f 21bd d40c b2bc
00000230: 7ecf 053d e1e9 c93c 8e4f 5a3c 8fe9 c7bc
00000240: b41e aabb 248b 94bb 3a92 573c bcf4 6fbc
00000250: 8db8 4ebb 6ef9 a93b 2d46 b6bc ab63 c43c
00000260: 1c82 0abc 87e9 edbc 3d52 f0bc d3ab 35bd
00000270: ec95 9dbb 3e2e d33c 64f7 0bbd 2585 9bbc
00000280: d0d3 43bc f774 e8bc 90b1 3e3c 26b7 0ebd
00000290: df55 07bd 7cf8 fbba 06ee 603d e18b e7bc
000002a0: c950 a3bc b549 9b3a cf8b 2e3d 52a3 b33b
000002b0: a06c 46bd bc71 003d de4b 2f3d 89cc f0bc
000002c0: d15c e7bb f400 4ebb 847d cfbc 17ba 213c
000002d0: 9727 253c 03a2 37ba 6fff 8dbd 58b7 df3b
000002e0: 6f5f 96bc e9d1 02bd 81b1 343b 9927 323d
000002f0: 747b b2ba d2e5 71bc d41a 4e3c cf01 c9bc
00000300: 7841 403d 360c 33bd 0a28 053b bf76 7ebd
00000310: 499b d63c 6d03 953d 75d9 55bc ce7b 443c
00000320: 1f70 d03c 3b2a 5dbc 3de4 83bc 359b b7bc
00000330: 50f7 b83c c936 ba3b f4ce ae3b 9d3a 223d
00000340: b671 eb3c 6bb3 a8bc 8256 9cbc 2d56 1abc
00000350: 5345 663d 3d25 393d 4331 043d b1ba 6cbd
00000360: 947c 53bb 8de9 29bc adf5 f2bc 4e94 053d
00000370: 4c0b 103d bc68 4b3d d9cb 163d 2afd 023b
00000380: 3586 66bd a6e5 bfb8 bf15 a7bc b446 5a3b
00000390: faeb 673c 6145 d63c d0e9 d8bc ec7a 783d
000003a0: a7c9 773d 0ff2 653d 21da 82bd 2eb7 4bbd
000003b0: 7d7e b7bc 3a49 9abc 30c6 8a3c b3d5 1f3c
000003c0: 4546 85bd 0970 c1bc aced fe3c c51e 57bc
000003d0: 939f 9bbd 74ce b8bb 5470 133c e575 063b
000003e0: abaf 25bd 811f 1cbd 45ff 2d3c 70ac 08bd
000003f0: 34b2 5e3c 909f 4fbd 60d9 af3a f3f0 a2bb

transformer.h.0.attn.c_proj.weight f4 [128, 128]
-0.0029559303 -0.009015665 -0.009848198 -0.0007933036 0.024079807 -0.0054739816 -0.028546087 -0.0049327435
-0.026444197 -0.00796459 0.0044692373 0.01651735 0.04760392 0.018080292 0.0043334174 -0.00027164977
-0.026735364 0.013274943 0.008661938 -0.02429961 -0.056636825 -0.007190197 0.050214667 0.020980608
0.0010942933 -0.014373361 -0.05135406 0.016935866 -0.05009152 -0.021627825 0.021172825 -0.02838632
0.007782856 0.004660543 0.0034152605 0.028557036 -0.0385416 0.011764372 0.008108565 0.0097641
-0.011505254 -0.013816076 0.053075444 -0.0029871154 0.07949465 -0.012840336 -0.026903082 -0.023441622
0.044814367 -0.033005927 -0.0008354345 0.040808707 0.032979727 0.015167277 0.0006775627 -0.019779418
-0.0037149298 -0.041085515 0.046841763 -0.0033323201 0.05456705 -0.024909673 0.022099465 0.040905643
0.0028382216 -0.012455428 -0.009467149 -0.009753896 0.018164372 -0.00967376 -0.029825028 0.015858455
-0.017989853 0.040726468 -0.031179272 -0.003650755 0.0541536 0.0040981895 0.013969923 -0.06501519
0.0076877954 0.0025808031 0.018348338 -0.017354606 -0.048117302 0.06222539 -0.021231448 0.0026709684
-0.0069014975 0.039822467 -0.0073726573 0.0014211324 -0.021405745 -0.06558021 -0.03211921 -0.02017114
0.043480527 0.04618566 -0.045726597 0.003593535 -0.008544117 -0.0116192745 0.017256895 -0.06727992
-0.0001836781 0.015595807 0.042228304 0.013688421 0.0594038 0.04281651 -0.03811297 0.052547667
0.030565903 -0.02294629 0.047408443 -0.038326267 -0.014888968 -0.007595372 -0.054835692 0.020333879
0.03371967 -0.025543353 0.0052238037 -0.0030954492 0.0034129438 0.029481357 0.03370878 -0.019817712
0.018629652 -0.0084243445 0.07466919 0.00909111 -0.008745621 -0.0075958683 -0.04117161 -0.015703328
0.0082286885 -0.019653402 -0.015864281 -0.011130516 -0.016418735 0.008752966 0.035804644 0.008181214
0.0015284035 0.046295147 0.038054623 -0.022928812 -0.025337381 0.015894547 -0.0084177395 -0.03233013
-0.013314847 -0.0008244084 -0.036805168 0.037553385 -0.0835626 -0.00029132367 -0.0016070193 -0.0054771905
0.009299962 -0.02823338 -0.0015243008 -0.017361369 0.046684984 0.024973493 0.00017260818 -0.046348207
0.018584073 -5.1696526e-05 0.06941793 -0.024350308 -0.028789695 0.057543315 0.021589708 0.03372832
-0.0009127911 0.018823812 -0.08733221 -0.05488129 0.020135794 -0.036598366 0.025190199 0.012087037
-0.020117316 -0.08355802 0.07976892 -0.018316815 0.00804854 0.0032182613 0.015156224 0.0011824317
-0.006102222 0.008965839 0.01607592 0.0017655153 -0.04957917 0.00079263264 0.008809607 -0.03298008
-0.038171686 -0.019116506 0.05427072 -0.021936378 0.046373148 0.04184208 -0.038683314 0.0029003832
0.050430086 -0.035736125 0.029701376 -0.0069791763 -0.031763554 0.0169074 -0.03275191 -0.0051154816
0.03408283 0.00719395 -0.025399266 0.0033368007 -0.0018661208 0.006154154 -0.03978994 0.004743423
-0.0096179815 0.012072453 -0.0095058745 0.001875477 -0.03202661 0.022594487 0.0022199186 0.060239486
0.034186434 0.03078086 0.0588099 -0.008501459 0.05343741 -0.04778344 0.005126984 -0.0065907757
-0.085092805 -0.009042831 0.0042344574 -0.005464265 0.053098436 0.039704382 0.0071040113 0.03841691
-0.008357582 0.0043390943 -0.03452143 -0.0132259065 -0.003943906 -0.0028355503 -0.020549929 0.015918173
00000000: 48b8 41bb 71b6 13bc 565a 21bc b4f5 4fba
00000010: 0443 c53c 165f b3bb 7cd9 e9bc daa2 a1bb
00000020: 80a1 d8bc e97d 02bc ae72 923b 654f 873c
00000030: 54fc 423d 1f1d 943c 57ff 8d3b 376c 8eb9
00000040: 1f04 dbbc 267f 593c cdea 0d3c fa0f c7bc
00000050: 04fc 67bd be9b ebbb e5ad 4d3d 86df ab3c
00000060: 646e 8f3a 3f7e 6bbc a358 52bd 16bd 8a3c
00000070: c42c 4dbd d62c b1bc a272 ad3c 6e8a e8bc
00000080: 5407 ff3b 78b7 983b 90d2 5f3b 72f0 e93c
00000090: ccdd 1dbd 5abf 403c c9d9 043c 9bf9 1f3c
000000a0: 8880 3cbc d35c 62bc a365 593d 7bc3 43bb
000000b0: 17ce a23d 4660 52bc da63 dcbc a508 c0bc
000000c0: 458f 373d 3931 07bd 0f01 5bba 0827 273d
000000d0: c015 073d 2c80 783c 779e 313a 7208 a2bc
000000e0: 2e76 73bb 4949 28bd 26dd 3f3d 0e63 5abb
000000f0: b381 5f3d 5f0f ccbc f009 b53c ad8c 273d
00000100: 7501 3a3b da11 4cbc 1a1c 1bbc cece 1fbc
00000110: 73cd 943c b17e 1ebc 9e53 f4bc 97e9 813c
00000120: 755f 93bc ccd0 263d ac6b ffbc 8141 6fbb
00000130: 2ad0 5d3d 1b4a 863b 1be2 643c af26 85bd
00000140: e7e9 fb3b b122 293b 414f 963c 3f2b 8ebc
00000150: a616 45bd 0de0 7e3d 93ed adbc 6a0b 2f3b
00000160: f525 e2bb e21c 233d 5596 f1bb 4a45 ba3a
00000170: 1a5b afbc eb4e 86bd 6f8f 03bd f23d a5bc
00000180: a318 323d 2d2d 3d3d d04b 3bbd 8381 6b3b
00000190: a0fc 0bbc c55e 3ebc 555e 8d3c 0eca 89bd
000001a0: b799 40b9 8e85 7f3c 96f7 2c3d 6645 603c
000001b0: 6651 733d 5d60 2f3d 581c 1cbd 393c 573d
000001c0: 5865 fa3c dcf9 bbbc 5b2f 423d 01fc 1cbd
000001d0: dcf0 73bc 99e2 f8bb 649b 60bd 3c93 a63c
000001e0: a31d 0a3d 4b40 d1bc 712c ab3b 05dd 4abb
000001f0: b2ab 5f3b e382 f13c 3812 0a3d c158 a2bc
00000200: 369d 983c 4306 0abc 29ec 983d e1f2 143c
00000210: cb49 0fbc c3e6 f8bb 90a3 28bd 44a4 80bc
00000220: 9fd1 063c 2c00 a1bc cff5 81bc c55c 36bc
00000230: 9580 86bc 9a68 0f3c e4a7 123d 800a 063c
00000240: b654 c83a fb9f 3d3d 2adf 1b3d 34d5 bbbc
00000250: 5790 cfbc 4835 823c 8fea 09bc 996c 04bd
00000260: 8426 5abc 1c1d 58ba 04c1 16bd 94d1 193d
00000270: de22 abbd cdbc 98b9 9fa2 d2ba 017a b3bb
00000280: de5e 183c b049 e7bc 0ccb c7ba 6e39 8ebc
00000290: c138 3f3d 3695 cc3c 28fe 3439 9ed7 3dbd
000002a0: a03d 983c b9d4 58b8 fd2a 8e3d 4c7a c7bc
000002b0: 5ed8 ebbc 8ab2 6b3d e6dc b03c b526 0a3d
000002c0: 6048 6fba 6534 9a3c 3bdb b2bd 34cb 60bd
000002d0: d2f3 a43c 2be8 15bd ad5b ce3c b508 463c
000002e0: 12cd a4bc 7820 abbd e35d a33d 250d 96bc
000002f0: 06de 033c 77e9 523b d051 783c d3fb 9a3a
00000300: 26f5 c7bb 74e5 123c a6b1 833c dd68 e73a
00000310: 8713 4bbd adc8 4f3a 2b56 103c 1f16 07bd
00000320: ea59 1cbd 389a 9cbc f94a 5e3d ebb3 b3bc
00000330: c5f1 3d3d 9a62 2b3d 6572 1ebd 5b14 3e3b
00000340: c78f 4e3d 0b60 12bd 4d50 f33c 93b1 e4bb
00000350: 801a 02bd 6381 8a3c de26 06bd c59f a7bb
00000360: 709a 0b3d 3abb eb3b 1f12 d0bc 3aae 5a3b
00000370: a098 f4ba c9a8 c93b c7fa 22bd b76e 9b3b
00000380: bd94 1dbc 8acb 453c 87be 1bbc 91d2 f53a
00000390: 562e 03bd 1318 b93c 0e7c 113b aebd 763d
000003a0: 1307 0c3d 2428 fc3c a6e2 703d b449 0bbc
000003b0: 30e1 5a3d 92b8 43bd 4200 a83b 6ff7 d7bb
000003c0: 2345 aebd 6228 14bc 34c1 8a3b 940d b3bb
000003d0: bf7d 593d 10a1 223d c4c8 e83b 0d5b 1d3d
000003e0: 3dee 08bc f62e 8e3b 5866 0dbd 79b1 58bc
000003f0: e23b 81bb a4d4 39bb 5358 a8bc d466 823c

transformer.h.0.ln_2.weight f4 [128]
1.2328792 1.2256105 1.2249371 1.2177727 1.1868647 1.2182409 1.2022079 1.2502228
1.1964425 1.2016939 1.2172928 1.191634 1.1824858 1.2414868 1.1972358 1.2284606
1.1933184 1.2155182 1.1976215 1.223278 1.2026774 1.1745712 1.2384888 1.1940323
1.2170641 1.2502481 1.1858902 1.2581067 1.1797562 1.1700512 1.1369904 1.222381
1.198257 1.202188 1.1990865 1.201083 1.2227625 1.196569 1.2037597 1.2103946
1.2190076 1.1990141 1.3017895 1.2258191 1.2061552 1.246171 1.1821527 1.203625
1.2123942 1.2174512 1.2022983 1.2145665 1.204632 1.1926801 1.1936504 1.2575629
1.196761 1.2276552 1.1681355 1.1994845 1.2440012 1.1899534 1.2123471 1.2241998
1.2137756 1.2372438 1.218077 1.2251587 1.2076598 1.2769115 1.2345185 1.1643746
1.235854 1.181197 1.254906 1.2003783 1.212444 1.240796 1.165543 1.196537
1.1881793 1.2169257 1.1990017 1.194525 1.2276306 1.2257829 1.2217864 1.2029611
1.1938105 1.1985415 1.2208743 1.1686393 1.2532699 1.231215 1.2027832 1.2573664
1.2083795 1.243775 1.1839 1.2270039 1.2295649 1.2273531 1.2329584 1.1975569
1.2167476 1.2131909 1.2017791 1.19046 1.1993679 1.2067457 1.2722877 1.2471299
1.191952 1.1660819 1.176047 1.2058222 1.1853353 1.2967504 1.2197735 1.2330174
1.1998125 1.2151694 1.2010307 1.2249056 1.2020664 1.1957067 1.2138195 1.2122302
00000000: fcce 9d3f cee0 9c3f bdca 9c3f fadf 9b3f
00000010: 2feb 973f 51ef 9b3f f3e1 993f 4d07 a03f
00000020: 0725 993f 1bd1 993f 40d0 9b3f 7787 983f
00000030: b25b 973f 0ae9 9e3f 063f 993f 323e 9d3f
00000040: a8be 983f 1a96 9b3f a94b 993f 6094 9c3f
00000050: 55f1 993f 5958 963f cd86 9e3f 0dd6 983f
00000060: c2c8 9b3f 2108 a03f 40cb 973f a409 a13f
00000070: 4002 973f 3dc4 953f e788 913f fb76 9c3f
00000080: 7c60 993f 4ce1 993f ab7b 993f 16bd 993f
00000090: 7b83 9c3f 2c29 993f cc14 9a3f 36ee 9a3f
000000a0: 7108 9c3f 4b79 993f 0aa1 a63f a4e7 9c3f
000000b0: 4b63 9a3f 8882 9f3f c850 973f 6210 9a3f
000000c0: bc2f 9b3f 71d5 9b3f e9e4 993f ea76 9b3f
000000d0: 6231 9a3f bea9 983f 89c9 983f d2f7 a03f
000000e0: 772f 993f ce23 9d3f 7785 953f b588 993f
000000f0: 6e3b 9f3f 6550 983f 312e 9b3f 94b2 9c3f
00000100: 005d 9b3f 015e 9e3f f2e9 9b3f 00d2 9c3f
00000110: 9994 9a3f d671 a33f b404 9e3f 3a0a 953f
00000120: 7730 9e3f 7731 973f c3a0 a03f ffa5 993f
00000130: 5d31 9b3f 67d2 9e3f 8330 953f 2028 993f
00000140: 4216 983f 39c4 9b3f e378 993f 32e6 983f
00000150: 0023 9d3f 74e6 9c3f 7f63 9c3f a1fa 993f
00000160: c8ce 983f cf69 993f 9c45 9c3f f995 953f
00000170: 266b a03f 7498 9d3f cdf4 993f 62f1 a03f
00000180: 2eac 9a3f 0534 9f3f 098a 973f 770e 9d3f
00000190: 6262 9d3f e819 9d3f 95d1 9d3f 8b49 993f
000001a0: 63be 9b3f d749 9b3f e6d3 993f fe60 983f
000001b0: e384 993f a576 9a3f 53da a23f f4a1 9f3f
000001c0: e291 983f 2c42 953f b588 963f 6258 9a3f
000001d0: 11b9 973f ebfb a53f 8a21 9c3f 84d3 9d3f
000001e0: 7593 993f ac8a 9b3f 60bb 993f b5c9 9c3f
000001f0: 50dd 993f eb0c 993f 705e 9b3f 5c2a 9b3f

transformer.h.0.mlp.c_fc.weight f4 [512, 128]
0.09934243 0.05918446 0.055740908 0.039688334 0.06207785 -0.028919177 -0.0443977 -0.048147824
-0.046514597 0.11530306 -0.0075067948 0.12088158 0.015583112 -0.057375543 0.025506368 -0.005691125
0.027996773 0.11869954 0.048478834 0.04522403 -0.1139432 -0.08552386 0.010246434 0.011310003
-0.013642945 0.080287434 -0.004741059 -0.036939014 0.10822615 -0.016662495 0.04847903 0.029662455
0.035617523 -0.022193009 -0.064276226 -0.021471016 0.0098309405 0.094258964 -0.00021346165 0.010107466
-0.034916665 -0.014780586 0.020480707 -0.07483383 -0.037162818 0.056270216 -0.03599972 -0.009826336
0.057173386 -0.056599896 0.053472698 -0.082640745 -0.060367238 0.07993582 0.033675585 0.001743172
-0.009745701 0.031451948 -0.026621101 0.014604859 -0.042733133 -0.06274937 -0.052854553 0.013522
-0.031141594 -0.030170422 -0.0055224523 -0.05544611 -0.010154899 -0.00623802 -0.014415609 0.035001177
0.008667098 0.0033047935 0.038968448 0.035528224 0.0045231674 -0.057094686 -0.015941747 -0.04809608
0.04898284 -0.0025385772 0.014255482 0.014016792 -0.032104775 0.009512636 -0.10683316 -0.029360875
-0.021515964 0.020492101 -0.052685827 -0.07625389 0.049533647 0.0111523215 -0.03872342 0.074134864
-0.039773438 -0.043304905 0.049155734 0.017015249 -0.09319361 -0.003621005 0.008720059 0.056490522
-0.045530796 0.059231833 -0.013609632 0.080625385 0.030469144 0.087879896 -0.1112613 -0.10787882
0.13434398 0.05603616 -0.02814455 0.060192592 -0.030913217 -0.02061463 0.05907144 -0.017785193
-0.049369477 -0.05137163 -0.018339792 0.0041488 -0.011547535 0.00025383724 -0.02674589 0.06698299
0.0854644 0.06775833 -0.024780381 -0.022319539 -0.029068217 -0.046079706 -0.0104519315 -0.048109636
-0.025075663 0.034848493 -0.03609827 -0.015214335 -0.07868829 0.030973943 -0.026604846 0.009234696
0.061997868 0.007884744 0.043977577 0.022394007 -0.03281058 0.059479594 -0.034884214 -0.009940583
0.026877025 -0.005508972 -0.012329296 0.0014416891 -0.034351658 0.004829845 0.013214369 -0.00096851995
0.028421143 0.061721988 0.0048689223 0.093362994 0.10933209 -0.07618078 0.050556675 0.053081334
-0.08274922 -0.10145372 0.022189645 0.021020943 -0.04175687 -0.05060008 -0.05447095 0.0265167
-0.02901728 -0.043302316 -0.091254 0.028833129 0.0025412939 -0.027809387 0.014973493 0.060711958
0.08280718 0.02840873 -0.04700205 0.019871535 -0.028719256 -0.08222137 -0.035233166 -0.037133083
0.027539326 0.037821736 -0.0067148283 -0.005734866 -0.08547891 -0.035907302 -0.050372917 -0.010277534
-0.029410502 0.018916357 0.061746225 -0.005606938 -0.034081955 0.011214367 -0.0334897 -0.0716592
-0.004968439 0.047832955 -0.06446002 -0.03259929 0.034759365 -0.006550126 -0.029380323 0.09285458
-0.007438046 -0.01566604 -0.01933596 -0.01227475 0.011266912 -0.05866171 0.033661462 -0.0920848
0.067551024 0.0060091442 0.009180735 -0.0077314926 0.019467348 -0.070222855 -0.026089244 -0.05592444
0.015766382 -0.007337838 -0.008462908 -0.0015573383 0.104518026 0.00017300417 -0.0012902904 0.005304001
0.079722695 -0.042680155 -0.0153949335 0.014930578 0.0076188524 0.057077583 0.055281226 0.03462292
0.030205047 0.042623974 -0.027051626 -0.066927895 0.05152062 0.028731251 -0.045422137 0.052458636
00000000: 0b74 cb3d 686b 723d 9450 643d 3c90 223d
00000010: 5845 7e3d e9e7 ecbc 5dda 35bd a736 45bd
00000020: 1786 3ebd 0324 ec3d 8ffb f5bb c390 f73d
00000030: 4f50 7f3c 9e02 6bbd bbf2 d03c 9e7c babb
00000040: 7d59 e53c bf18 f33d be91 463d d53c 393d
00000050: 0d5b e9bd 2227 afbd a9e0 273c 974d 393c
00000060: a986 5fbc bd6d a43d e35a 9bbb 5d4d 17bd
00000070: aca5 dd3d c97f 88bc f391 463d adfe f23c
00000080: aee3 113d 1dce b5bc 41a3 83bd fce3 afbc
00000090: f411 213c d80a c13d add4 5fb9 c999 253c
000000a0: c704 0fbd 452a 72bc 28c7 a73c 7b42 99bd
000000b0: 0a38 18bd 997b 663d 7174 13bd a4fe 20bc
000000c0: a42e 6a3d 4bd5 67bd 3006 5b3d 8d3f a9bd
000000d0: a343 77bd 64b5 a33d 69ef 093d 257b e43a
000000e0: 6fac 1fbc c2d3 003d 7f14 dabc 3849 6f3c
000000f0: f008 2fbd be82 80bd 047e 58bd 618b 5d3c
00000100: a81c ffbc f627 f7bc b0f5 b4bb 761b 63bd
00000110: bc60 26bc 4e68 ccbb 722f 6cbc 655d 0f3d
00000120: 7200 0e3c 3c95 583b 619d 1f3d 0b86 113d
00000130: 1437 943b 1edc 69bd 4498 82bc 6500 45bd
00000140: 3ba2 483d 425e 26bb d38f 693c b0a6 653c
00000150: 4c80 03bd e3da 1b3c 58cb dabd 3886 f0bc
00000160: 3f42 b0bc 0ddf a73c 18cd 57bd 002b 9cbd
00000170: cbe3 4a3d 3ab8 363c 739c 1ebd 05d4 973d
00000180: 79e9 22bd 7c60 31bd 8657 493d 9063 8b3c
00000190: 4bdc bebd 624e 6dbb 94de 0e3c 9b62 673d
000001a0: 807e 3abd 149d 723d effa 5ebc ec1e a53d
000001b0: 6d9a f93c 60fa b33d f7dc e3bd 92ef dcbd
000001c0: 7891 093e 2c86 653d 668f e6bc 828c 763d
000001d0: b73d fdbc 03e0 a8bc e5f4 713d 41b2 91bc
000001e0: a637 4abd 0f6b 52bd 553d 96bc a8f2 873b
000001f0: df31 3dbc 7515 8539 321a dbbc 612e 893d
00000200: f607 af3d e1c4 8a3d 3a00 cbbc 77d7 b6bc
00000210: 7820 eebc 13be 3cbd 943e 2bbc 9c0e 45bd
00000220: 7a6b cdbc 4bbd 0e3d c8db 13bd 8c45 79bc
00000230: 5427 a1bd 11bd fd3c 68f2 d9bc 1f4d 173c
00000240: 7af1 7d3d 032f 013c d521 343d a373 b73c
00000250: 6364 06bd e0a0 733d c0e2 0ebd d4dd 22bc
00000260: 352d dc3c 9b84 b4bb d100 4abc 0ff7 bc3a
00000270: 53b4 0cbd ad43 9e3b 1581 583c 46e4 7dba
00000280: 75d3 e83c 32d0 7c3d 7b8b 9f3b 1935 bf3d
00000290: 81e9 df3d ab04 9cbd 8414 4f3d d06b 593d
000002a0: 6c78 a9bd f8c6 cfbd 0fc7 b53c 1d34 ac3c
000002b0: 4009 2bbd 0842 4fbd ee1c 5fbd 8d39 d93c
000002c0: a6b5 edbc c55d 31bd 61e3 babd 7433 ec3c
000002d0: d68b 263b 83d0 e3bc 6253 753c 1aad 783d
000002e0: d096 a93d 6db9 e83c 3985 40bd a1c9 a23c
000002f0: a544 ebbc ad63 a8bd a750 10bd dc18 18bd
00000300: 279a e13c f7ea 1a3d 1008 dcbb 8beb bbbb
00000310: 910f afbd 8913 13bd d553 4ebd 1a63 28bc
00000320: 4bee f0bc 7af6 9a3c 9ce9 7c3d 68ba b7bb
00000330: 8599 0bbd 77bc 373c 7f2c 09bd 0fc2 92bd
00000340: 4ace a2bb 7dec 433d 9d03 84bd d586 05bd
00000350: d65f 0e3d 70a2 d6bb 01af f0bc 8b2a be3d
00000360: daba f3bb 1156 80bc 7266 9ebc 081c 49bc
00000370: db98 383c 4347 70bd 9ae0 093d f596 bcbd
00000380: 3158 8a3d 5be8 c43b cb6a 163c 7658 fdbb
00000390: fd79 9f3c 00d1 8fbd 1cb9 d5bc 0711 65bd
000003a0: 8028 813c 3f72 f0bb 02a8 0abc 9a1f ccba
000003b0: 8c0d d63d 7468 3539 f61e a9ba 2fcd ad3b
000003c0: a745 a33d 63d1 2ebd 083b 7cbc 629f 743c
000003d0: 91a7 f93b 2fca 693d 916e 623d c3d0 0d3d
000003e0: 9370 f73c 7a96 2e3d 5f9b ddbc 7e11 89bd
000003f0: 4907 533d cd5d eb3c 900c 3abd dede 563d

transformer.h.0.mlp.c_proj.weight f4 [128, 512]
0.023183212 -0.05710893 0.015127256 -0.014407778 -0.008416045 0.021334095 -0.0024983475 -0.049175017
0.07179484 -0.048447493 0.00021782784 0.010440249 -0.017179372 0.100726366 -0.009876189 -0.032928478
-0.012234758 -0.0032908276 0.0016308167 0.0075506866 0.00813075 0.07623689 0.023320341 -0.033358417
0.03020895 -0.0183276 -0.0017274731 -0.0368432 -0.033801824 -0.0060949973 -0.004785913 0.0303519
-0.009164295 -0.025585257 -0.034967583 0.030818656 -0.0150644025 -0.021600656 0.010303535 -0.00624282
-0.011847148 0.009029174 -0.017580945 0.03929042 -0.046956 0.00460752 -0.028707905 0.01397904
0.03480953 0.01800075 0.0423267 0.019350296 -0.0062613436 0.04052849 -0.07344679 0.0466904
-0.060900826 -0.03687261 -0.04714982 0.028010393 -0.029006453 -0.06035481 0.01151067 -0.048659407
0.009565814 -0.054405242 -0.034081187 -0.002368383 -0.048483547 -0.021811627 0.05355026 0.0045972527
-0.016769743 -0.03271309 -0.015292067 -0.009819831 0.046402805 -0.025698584 0.009159446 -0.03016877
-0.02917033 0.0049567423 -0.061702244 -0.009268875 0.053380817 0.001240074 -0.07335576 -0.010794882
-0.073467955 -0.03762141 -0.087229885 0.010300124 -0.013200516 0.020243801 -0.05404507 -0.049776755
0.0039041229 0.013654565 -0.030398624 -0.016391175 -0.06996212 0.06493149 -0.030589385 0.0887729
0.021066394 0.040898923 -0.023070652 0.015516489 -0.0136425 -0.044549726 -0.072843686 -0.03348312
0.023685372 -0.003408509 -0.008612924 0.0047143404 0.055634312 -0.015975073 -0.0024216715 0.070416845
-0.005403451 -0.05039735 0.009110754 -0.015039239 -0.036198024 -0.081596464 0.036175847 0.001495333
0.022153065 0.01630269 0.014113833 0.037781317 -0.04781881 0.06275522 -0.0061891847 0.01016197
0.018207405 -0.01015156 -0.011431301 0.035210844 0.051206477 0.03438959 -0.04163446 -0.025182256
0.025375778 0.09147627 0.027080048 0.031059053 0.046573456 0.0038617381 0.052356306 0.048738036
0.052240185 -0.023768106 -0.020835385 -0.019183865 0.027720116 -0.046724442 -0.024454996 -0.014687076
0.042916033 -0.058917534 0.028853057 -0.027297882 -0.0015634996 0.035011087 -0.031064037 0.02259854
0.05091479 -0.014925221 -0.06417933 0.026786301 -0.0024006516 -0.011937093 0.027924525 0.041206587
0.03109771 0.0113078905 -0.03862431 0.07036403 0.036420044 -0.053693514 -0.044857234 0.04494165
0.040822543 -0.030050248 -0.034759864 -0.03968791 -0.045008503 -0.04139885 -0.04356771 0.0040640403
0.004852232 0.0569436 0.06677175 0.039942555 0.019392336 0.006158073 -0.051514 -0.031731207
0.040321488 -0.026795581 0.026612028 0.022467801 0.021373479 0.0063070664 0.01817223 0.00020728444
-0.021447744 0.053479217 -0.041770473 -0.004751038 0.002504509 -0.001505827 -0.06377838 0.003012243
0.01361495 -0.008435922 -0.008190598 0.008650484 -0.0026667325 0.028347028 -0.064026855 0.04318753
-0.05392721 0.004993069 -0.03175303 -0.027445976 0.029454848 0.0073477826 0.02353368 0.076439455
0.018933965 0.011162327 0.05742828 -0.04565185 -0.0080805 0.01614875 -0.015901178 0.042347133
-0.015055498 -0.013413683 -0.027835526 -0.015358135 0.036874697 0.040042467 0.06784084 0.034973927
0.0170153 -0.03764816 -0.0041353884 0.008983915 0.03086664 -0.009737969 -0.01158744 -0.10836115
00000000: b8ea bd3c 0eeb 69bd 4fd8 773c 9a0e 6cbc
00000010: 74e3 09bc d7c4 ae3c 51bb 23bb be6b 49bd
00000020: 2c09 933d e170 46bd b768 6439 940d 2b3c
00000030: c1bb 8cbc a049 ce3d bdcf 21bc 03e0 06bd
00000040: 4b74 48bc edaa 57bb 21c1 d53a c06b f73b
00000050: d636 053c 1622 9c3d 4d0a bf3c d6a2 08bd
00000060: c378 f73c c323 96bc 616c e2ba e5e8 16bd
00000070: c873 0abd 8bb8 c7bb 26d3 9cbb 8ca4 f83c
00000080: d725 16bc 2c98 d1bc 2b3a 0fbd 6877 fc3c
00000090: afd0 76bc dcf3 b0bc 28d0 283c 9290 ccbb
000000a0: 8a1a 42bc 1aef 133c ea05 90bc feee 203d
000000b0: ef54 40bd aefa 963b d72c ebbc 5808 653c
000000c0: 7094 0e3d 4f76 933c c35e 2d3d 8384 9e3c
000000d0: f52b cdbb 3401 263d 456b 96bd 6f3e 3f3d
000000e0: 2573 79bd bc07 17bd 2b20 41bd 0d76 e53c
000000f0: f19e edbc 9b36 77bd 4097 3c3c 164f 47bd
00000100: efb9 1c3c 08d8 5ebd b798 0bbd e036 1bbb
00000110: af96 46bd 4cae b2bc 8457 5b3d 8da4 963b
00000120: b360 89bc 29fe 05bd 948b 7abc 5be3 20bc
00000130: de10 3e3d d685 d2bc 8011 163c 7f24 f7bc
00000140: 9ef6 eebc 2b6c a23b 7ebb 7cbd 7bdc 17bc
00000150: d8a5 5a3d fb89 a23a 8b3b 96bd 04dd 30bc
00000160: 5e76 96bd e818 1abd 95a5 b2bd dac1 283c
00000170: fa46 58bc 54d6 a53c 5d5e 5dbd b6e2 4bbd
00000180: 50dc 7f3b 66b7 5f3c 8906 f9bc c946 86bc
00000190: 4d48 8fbd cdfa 843d 9796 fabc 91ce b53d
000001a0: 6e93 ac3c a185 273d aafe bcbc df38 7e3c
000001b0: cb84 5fbc c679 36bd 122f 95bd 9925 09bd
000001c0: d307 c23c 4b61 5fbb 391d 0dbc c17a 9a3b
000001d0: cee0 633d 28de 82bc e8b4 1ebb b536 903d
000001e0: 6f0f b1bb 746d 4ebd 4645 153c 2467 76bc
000001f0: 6144 14bd 0c1c a7bd 202d 143d 0dff c33a
00000200: 587a b53c 388d 853c b53d 673c 95c0 1a3d
00000210: a8dd 43bd cf85 803d a5ce cabb 647e 263c
00000220: b227 953c bb52 26bc 5a4a 3bbc 3f39 103d
00000230: e2bd 513d 19dc 0c3d e588 2abd 054b cebc
00000240: dde0 cf3c e957 bb3d fad6 dd3c 8e6f fe3c
00000250: cfc3 3e3d 3715 7d3b 9173 563d 89a1 473d
00000260: cef9 553d 55b5 c2bc f8ae aabc 7b27 9dbc
00000270: 4c15 e33c 2162 3fbd d855 c8bc 10a2 70bc
00000280: b9c8 2f3d 8353 71bd 3f5d ec3c cf9f dfbc
00000290: 57ee ccba c967 0f3d 027a febc 9320 b93c
000002a0: 078c 503d ea88 74bc 7470 83bd f26e db3c
000002b0: 4054 1dbb cc93 43bc f9c1 e43c 3dc8 283d
000002c0: a0c0 fe3c bb44 393c 8634 1ebd 041b 903d
000002d0: 2f2d 153d bbed 5bbd 38bc 37bd bc14 383d
000002e0: 8a35 273d f02b f6bc 5c60 0ebd ca8f 22bd
000002f0: d65a 38bd d791 29bd 0e74 32bd a42b 853b
00000300: 79ff 9e3b b13d 693d a1bf 883d ce9a 233d
00000310: addc 9e3c a9c9 c93b 5800 53bd 95f8 01bd
00000320: 2528 253d 6882 dbbc 7801 da3c 650e b83c
00000330: 6f17 af3c 82ab ce3b eedd 943c 7e5a 5939
00000340: 2eb3 afbc 060d 5b3d 8417 2bbd 98ae 9bbb
00000350: b022 243b 2b5f c5ba 3d9e 82bd 0d69 453b
00000360: 3d11 5f3c d236 0abc dc31 06bc c2ba 0d3c
00000370: 59c4 2ebb 0738 e83c 8320 83bd 68e5 303d
00000380: c7e2 5cbd e69c a33b 770f 02bd 62d6 e0bc
00000390: 4b4b f13c abc5 f03b b4c9 c03c 4a8c 9c3d
000003a0: 671b 9b3c 31e2 363c eb39 6b3d 6ffd 3abd
000003b0: 1364 04bc 624a 843c 3043 82bc 3074 2d3d
000003c0: 56ab 76bc 10c5 5bbc 5407 e4bc b0a0 7bbc
000003d0: ec09 173d 9203 243d 23f0 8a3d d240 0f3d
000003e0: ac63 8b3c f534 1abd 2782 87bb 4531 133c
000003f0: 09dc fc3c 018c 1fbc 3fd9 3dbc 73ec ddbd

transformer.ln_f.weight f4 [128]
2.0840857 2.1119294 2.1083567 2.030542 2.1405895 2.0295224 2.109733 2.0726624
2.2088706 2.0916715 2.126037 2.1202788 2.1459246 2.1655111 2.1164849 2.1096053
2.083658 2.0855675 2.0235457 2.0847843 2.1920304 2.129795 2.0946534 2.0967357
2.0487003 2.0675633 2.1436894 2.1361387 2.1176763 2.1168664 2.0855844 2.1665354
2.061051 2.136327 2.0829833 2.0879507 2.114181 2.1140409 2.139842 2.0530221
2.1530435 1.9966722 2.090159 2.013553 1.9357635 1.9804296 2.1116073 2.1904256
2.0254507 2.050681 2.0766916 2.1089087 2.0887232 2.0719705 2.132853 2.1113749
2.0452237 2.0931628 2.0479517 2.1356654 2.0658793 2.1805477 2.0780032 2.0770698
2.1516035 2.1705155 2.144447 2.122353 2.1035962 2.0984013 2.0850573 2.005522
2.0203533 2.0903676 2.1160107 2.0454063 2.0575547 2.0742414 1.9940991 2.1408675
2.0852096 2.06084 2.0411353 2.0573952 2.106963 2.144791 2.1261199 2.1204944
2.0283039 2.0182304 2.1125894 2.1485353 2.091353 2.1135914 2.1489937 2.039381
2.0247145 2.0876372 2.1177201 2.0938761 2.1849606 2.108278 2.063554 2.0963051
2.0438323 1.947869 2.089465 2.0991788 2.0420895 2.1273572 2.0916097 2.0996237
2.110475 2.1852767 2.0661774 2.1770487 2.0916977 1.9981153 2.0987358 2.0698667
2.0961406 2.103894 2.1280377 2.1018326 2.1593587 2.0735075 2.0875125 2.0583565
00000000: a961 0540 da29 0740 51ef 0640 66f4 0140
00000010: 6bff 0840 b2e3 0140 de05 0740 80a6 0440
00000020: 235e 0d40 f2dd 0540 fd10 0840 a6b2 0740
00000030: d456 0940 bc97 0a40 7d74 0740 c603 0740
00000040: a75a 0540 f079 0540 c681 0140 1b6d 0540
00000050: 3a4a 0c40 904e 0840 cd0e 0640 eb30 0640
00000060: e81d 0340 f552 0440 3532 0940 7fb6 0840
00000070: 0288 0740 bd7a 0740 377a 0540 84a8 0a40
00000080: 42e8 0340 95b9 0840 994f 0540 fca0 0540
00000090: be4e 0740 724c 0740 2cf3 0840 b764 0340
000000a0: 77cb 0940 f492 ff3f 2ac5 0540 0dde 0040
000000b0: 19c7 f73f b87e fd3f 9324 0740 ef2f 0c40
000000c0: fca0 0140 5c3e 0340 84e8 0440 5cf8 0640
000000d0: a4ad 0540 2a9b 0440 aa80 0840 c420 0740
000000e0: f2e4 0240 61f6 0540 a411 0340 beae 0840
000000f0: 5e37 0440 188e 0b40 01fe 0440 b6ee 0440
00000100: dfb3 0940 bae9 0a40 9f3e 0940 a2d4 0740
00000110: 52a1 0640 354c 0640 9471 0540 795a 0040
00000120: 784d 0140 95c8 0540 b86c 0740 f0e7 0240
00000130: faae 0340 5fc0 0440 a43e ff3f f903 0940
00000140: 1374 0540 cde4 0340 f6a1 0240 5dac 0340
00000150: 7bd8 0640 4144 0940 5912 0840 2eb6 0740
00000160: bbcf 0140 b02a 0140 aa34 0740 9a81 0940
00000170: bad8 0540 1545 0740 1d89 0940 3885 0240
00000180: ec94 0140 d99b 0540 ba88 0740 1102 0640
00000190: 65d6 0b40 07ee 0640 4511 0440 dd29 0640
000001a0: 26ce 0240 c553 f93f cbb9 0540 f258 0640
000001b0: 98b1 0240 9f26 0840 efdc 0540 3c60 0640
000001c0: 0612 0740 93db 0b40 403c 0440 c454 0b40
000001d0: 60de 0540 3ec2 ff3f b051 0640 b278 0440
000001e0: 2b27 0640 33a6 0640 c531 0840 6d84 0640
000001f0: ef32 0a40 59b4 0440 ce99 0540 1dbc 0340
