grokking_checkpoint/model_epoch150.pt (torch, 900786 bytes, 10 tensors)

transformer.wte.weight f4 [206, 128]
00000000: cebd d03e 9bd6 89bd f79c 493c 7a67 993e
00000010: 213f 07be 24dc 923d cf7d 043c 9415 c9be
00000020: cde9 3cbe 61e1 b6be 0de1 643e 1946 003e
00000030: 8c34 05be 73ba 71bb 5f1a e23c e381 3fbe
00000040: 587a 863e c433 663e 3af0 803e 7daf 593e
00000050: aa9c 4fbe cb42 093e c390 4b3e ff2a 0f3e
00000060: afad 75be b05e f33b 5f31 b4bc 818e adbe
00000070: 01c7 eebd a2fa d13d a9a8 a43e a0d6 ac3e
00000080: c10c 35be 1dcd 613c 7cff bdbe 78a6 173f
00000090: 816d 9fbe dc70 a03e 83a4 88be 457c 6abc
000000a0: d4f5 8fbe 3554 993e 3035 15bf 5870 a0be
000000b0: aaec a4be ad8c 48be 6179 893d 6509 013f
000000c0: 4d1b e2be 8086 9bbe 2e91 b5be bd13 6dbe
000000d0: c5ff d9be 1b8d 37be 7b51 9e3e 3deb b43e
000000e0: db9b 4cbd a227 913d 878c ed3e a4fb 583e
000000f0: ba96 62be 36a9 4c3e 7dc2 10bd d76a 533e
00000100: b10d c83e c7c2 a63e eb1b a23d fff9 cb3e
00000110: 410d 433e 2e17 ffbe 7395 dbbc 460c 653e
00000120: 5b17 efbe 52ed 75be 98b1 ce3e 5edd 933e
00000130: 3b2b 4e3d 79a5 ecbe 2c9a b03e 9d3b fa3d
00000140: d376 ad3d c572 10be 3e93 8d3e 55a3 36be
00000150: 926e 1f3e 2512 b7be d97d c7be efc4 723c
00000160: 2659 543e 08d2 77bd 530f 883e f35b 6fbe
00000170: 6bd1 c9be 404d debe 8729 75be 3b67 bbbe
00000180: 7473 84bd f5e2 b63e daeb ccbd c088 bfbd
00000190: d502 87be 004b 43be 8e8c 783e b94a 683e
000001a0: 28c8 60be b99b 07be 8aed ce3e c511 32be
000001b0: 6f9a 213e 554a ac3e 916f 54be 3991 5cbe
000001c0: fbb8 0d3e 9e87 b73d e159 37be bc6e a83e
000001d0: 58fa 843d 64e4 223f d922 d03d 4d91 c8bd
000001e0: c09a b63c 4479 f63d 54f5 b73e 13e8 89be
000001f0: d1c3 9abe 2281 95be 5b39 ffbd bbf3 943e
00000200: 743f c73e c1e5 6abd 74eb 013d d0e9 963e
00000210: b2d4 19be 3540 703d 4f98 0b3c 8761 c8be
00000220: d6dc 43be 9600 b1be a035 603e d4d7 073e
00000230: b1bf f4bd c495 553c d41e 143d f82c 4dbe
00000240: eb0d 883e d56f 643e a4de 813e d5e9 513e
00000250: 3c11 59be a694 fa3d c84d 543e fdad 093e
00000260: 132e 79be 0591 5abc 7355 15bd e77e b4be
00000270: e9b0 09be a997 e23d 4163 a33e 458f a43e
00000280: b09e 40be 8252 27bb 3fa8 b7be 0451 153f
00000290: 94fc 9fbe eb6d a03e a882 7bbe 458d 353a
000002a0: 5586 93be 6ebe 9b3e 9432 15bf dec2 a2be
000002b0: 211b aebe 31f6 4cbe 5ba5 6c3d 3c47 fd3e
000002c0: 4443 e2be 2003 9cbe d766 b4be 3000 74be
000002d0: db69 e2be 0d66 39be 2461 a33e a597 b73e
000002e0: 0ae0 f3bc a307 a63d 47cf f13e 9446 443e
000002f0: ac7b 57be f84e 4a3e 8e67 cabc 7292 453e
00000300: 1d32 c23e fd11 9f3e eaf9 9f3d 9466 d03e
00000310: 08e5 3d3e d051 04bf a92b 46bc 7080 623e
00000320: 06dd f0be bf8e 6cbe 386b d53e 33b8 8f3e
00000330: 40e6 603d 5d52 e7be c437 af3e 7e6c f33d
00000340: 6891 563d 1f95 18be aefe 8c3e 36ee 3cbe
00000350: 58e0 193e 52ed afbe 3f92 c8be f050 ca3c
00000360: 7a35 5b3e 1d01 59bd ca00 873e 2e89 5ebe
00000370: 9ef5 cdbe 38d6 d3be 8397 69be fe2e c4be
00000380: a75c a2bd 8479 b73e e80e e1bd 1f3d cdbd
00000390: d20f 87be 6cc6 55be 6904 7f3e a90b 7b3e
000003a0: 7d69 4bbe 7a4a 0dbe 091c db3e e29e 43be
000003b0: 4143 223e 13b8 a63e 81ea 5fbe 019c 69be
000003c0: 05db ee3d 4f1e cc3d 2cb3 3fbe f8c5 b23e
000003d0: 338e 913d 884b 273f 38c2 dc3d a09e 98bd
000003e0: 5a4f 7c3b 88ce 113e 594c b73e a467 8cbe
000003f0: af45 9abe 6e36 92be 8efa 0cbe c8bf 983e
0.4076981 -0.06730386 0.01230549 0.2996176 -0.13207676 0.07170895 0.008086636 -0.39274275
-0.18448563 -0.35718825 0.22351475 0.1252674 -0.13008326 -0.0036884814 0.027600465 -0.18701892
0.26265216 0.22480685 0.25183278 0.2125835 -0.20274606 0.13404386 0.19879441 0.13981245
-0.23992036 0.007427059 -0.021996198 -0.33897784 -0.11659051 0.102528825 0.32159927 0.33757496
-0.17680646 0.013781813 -0.37108982 0.59238386 -0.31138232 0.31336105 -0.26688012 -0.014311855
-0.2811724 0.29947057 -0.5828428 -0.3133571 -0.3221181 -0.19584914 0.06712604 0.5040496
-0.44161454 -0.30376053 -0.35462326 -0.23152061 -0.4257795 -0.17924921 0.3092154 0.35335723
-0.049953323 0.070876375 0.46396276 0.21189743 -0.2212781 0.19986424 -0.03534173 0.20646225
0.39072946 0.32570478 0.07915481 0.3983917 0.19048025 -0.49822372 -0.026804661 0.22367963
-0.46697506 -0.24016312 0.40369868 0.28879827 0.050334197 -0.46219996 0.34492624 0.122184016
0.084699295 -0.14106281 0.276514 -0.17835744 0.15569523 -0.3575603 -0.38963202 0.01481746
0.20737132 -0.060503036 0.2657419 -0.2337492 -0.39417586 -0.43418312 -0.23941623 -0.36602196
-0.064673334 0.3572003 -0.100059226 -0.09352255 -0.26369348 -0.19071579 0.24272367 0.22684754
-0.21951354 -0.13242997 0.40415603 -0.17389591 0.15781568 0.3365046 -0.20745684 -0.21539773
0.13840096 0.08961414 -0.1790538 0.32896984 0.06493062 0.63629746 0.10162897 -0.09793339
0.022290587 0.12034848 0.35929358 -0.2693487 -0.3022752 -0.29200083 -0.124621116 0.29092202
0.38915598 -0.057348017 0.031718686 0.2947526 -0.15022543 0.058654983 0.0085202 -0.39136907
-0.19127211 -0.3457076 0.21895456 0.13265926 -0.11950625 0.013036195 0.036162212 -0.20036685
0.2657312 0.22308286 0.25365174 0.20499356 -0.2119798 0.12235384 0.20732796 0.13445278
-0.24333982 -0.013340239 -0.036458444 -0.3525307 -0.13446392 0.11064083 0.31911662 0.32140556
-0.18810534 -0.0025531356 -0.3587055 0.58326745 -0.3124739 0.3133386 -0.2456156 0.0006925653
-0.28813425 0.30418724 -0.582803 -0.31789297 -0.34005073 -0.2001579 0.057774883 0.4946841
-0.44191945 -0.30471134 -0.3523471 -0.23828197 -0.44221386 -0.18105336 0.3191005 0.35857883
-0.029769916 0.08106925 0.47228453 0.19167548 -0.21043271 0.19756687 -0.024707582 0.19294146
0.37928858 0.3106841 0.07811339 0.4070326 0.185444 -0.51687336 -0.01209537 0.22119308
-0.47043628 -0.23101328 0.41683364 0.2807022 0.054907084 -0.45180026 0.34222233 0.118859276
0.052384764 -0.14900635 0.27538055 -0.18450245 0.15026987 -0.3436075 -0.39174077 0.024696797
0.21407118 -0.052979577 0.2636779 -0.21732017 -0.40226454 -0.41374373 -0.22811703 -0.38317102
-0.07927828 0.35834897 -0.10989171 -0.100214235 -0.26379257 -0.20876473 0.24904026 0.24516167
-0.1986446 -0.13797942 0.42794827 -0.19103578 0.15845968 0.32562312 -0.218668 -0.22813417
0.116628684 0.099667184 -0.18720692 0.34916663 0.071072005 0.65349627 0.10779232 -0.0745213
0.0038499446 0.14238942 0.35800436 -0.27422822 -0.3013129 -0.28557152 -0.13767454 0.29833817

transformer.wpe.weight f4 [5, 128]
00000000: 57d8 94bd 0c4b a9bb 0b00 ecbd c49e cebd
00000010: 60e0 75bd 7872 75bd f531 6dbd d88d 063b
00000020: 7bce 7b3d fccd 023b 3092 efbd fce7 33bd
00000030: 660a bf3d a8bd a53d af80 25bc c0f7 a53c
00000040: af0a d7bc 32a6 93bd 021d 3cbb 3313 77bd
00000050: d60f b53d 96e5 1cbe 8219 f4bd cafc 94bd
00000060: 17e6 283e 1a7f aabc b5a5 853d 6101 913d
00000070: 3e4e 5ebc 1c3d 1fbd a45a 52bd 17a4 6dbe
00000080: ceba 143d 7665 963c e123 4e3e 6071 7dbe
00000090: 6b33 ab3d 81dc f3bd c126 aa3d a865 2dbd
000000a0: ad8b ac3d f9b3 043d b481 4c3e 58e7 9d3d
000000b0: fab9 063e d628 f13d bc36 283c b573 23be
000000c0: faca 1a3e 625d 2e3e 7e79 393e 957c ab3d
000000d0: 1e91 3e3e f764 233e d8c2 fbbd aa1c 6cbe
000000e0: 94d9 7abd 502b ebbc 4535 14be 4da1 61bd
000000f0: 4831 8a3d 9243 0ebd 0704 83bc 4d68 76be
00000100: 76d4 2bbe caa9 e2bd d0ce d63c 5485 5bbe
00000110: 3c9f 62bd 2e09 f13d 75cc 97bd 3fed c53d
00000120: bdfd 7a3e 3d53 3c3d f51b a9bd b498 77bd
00000130: 9316 86bd 78cc 3b3e 14ab 953d 4466 1f3e
00000140: 2524 55bd 8078 81bd bfc8 c63b 4b49 0a3a
00000150: e0b4 93bd 3678 293e 75fe 103e fa66 21bd
00000160: bff8 a73c 0e95 0d3e 74ac 49bd a69c 6a3d
00000170: 06ba 8c3c b215 113e 1fe0 b53d 7727 a63d
00000180: 6d79 9a3d 0bf1 cfbd 8924 9a3c ed8b 50bd
00000190: 9ba7 103e c91d ae3d 5929 6ebd cb88 16be
000001a0: f255 9c3d 91ae 41bd e1cf e6bd 6121 4fbd
000001b0: 5307 bdbd 1b09 f7bd 0264 713c d093 87bc
000001c0: 534c 163d 99ed debd 9153 e93d 6430 2abe
000001d0: 9a41 68bc 5daf 6ebe 31b3 c43d 8019 60bd
000001e0: d6e3 543d 0ba7 50bd 80d7 29be 49d5 1ebc
000001f0: bc76 133d 5d66 c83d 50c4 873d 6680 1ebe
00000200: c6a6 20bd 482e 193c 74ef e7bc c9e7 a83c
00000210: ff50 ee3c 7682 4f3c 4dd4 323d dca9 163c
00000220: 4b9f b1bc b30d c4bb d5fd a6bc 00a4 9e3c
00000230: d6b4 14bd 5713 c639 6b5a e1bc 2005 15bd
00000240: 3e96 2abc d200 81bc 642b 90bc d4f1 09bc
00000250: 9f23 00bc 7fae c2bc 86e3 27bc 1c33 753c
00000260: 387e b23c 926e 3f3d 82d0 e03c bcd2 b6bc
00000270: b7a7 e43b 336b 01bd 259c d239 5a0b e3bc
00000280: 2a10 853b da81 853c a33b 493d 68d5 c8bc
00000290: 3612 ac3c e436 4d3c 0282 a23c 1ed6 7e3c
000002a0: 953a ee3c 2c00 95bb 37fb 3b3c ef97 1cbc
000002b0: 75fe 6fbb b033 8aba 31a1 3a3a edd2 89bc
000002c0: 9cf9 5e3c 6cbc 4b3c 4399 6a3c 9642 b23b
000002d0: cba9 6e3c 9389 cf3b 26e4 033c 2fbf 23bc
000002e0: b242 893c 7dc8 21b9 d7fa 4abc e17c 4bbc
000002f0: 2947 043d 270d 34bc 8a7a fb3b e38b 80bc
00000300: 6b12 97bc f59e 633c df65 b53c ba48 e6bc
00000310: a00d abb9 b2c0 e73c c5b8 74bc 21c7 9f3c
00000320: 36a1 873c 2c50 dc3a 0364 703c 04e8 9f3b
00000330: 4e1b f63b eab6 72bb 4a5b a4bb 0e40 dcbb
00000340: 6df8 553c 4b56 8d3b 4428 8d3c d49d b43b
00000350: ad3e 95bc c33e ed3c 3c99 243c 70e1 3fbb
00000360: 1508 273c 792f 803c 5d16 d3bc 0901 3ebc
00000370: 938f ab3c e23a bebb d2f0 95bb 5d2b 35bc
00000380: ef27 94bc 3b9b b03a 1e44 ef3c b9c6 aabc
00000390: 8b09 b23c 3fc8 7bbc afb6 b1bc 0c85 d2bb
000003a0: 8b86 2a3c fb47 db3a 5700 debc 1533 a8b9
000003b0: 8aba c1bc 2b5b f7bc 6031 47ba 5321 613b
000003c0: 786a 003d 2f84 bc3b 08ba 923a 833b b6bc
000003d0: 5a4b 12bd 10ed c0bb 7426 e73c 428d 1abd
000003e0: 1380 ecbc 6ca0 8cbb 0e99 8a3c 80e0 e3bc
000003f0: e706 0f3d 8568 c5bc 6a56 873c 9d15 383c
-0.07267826 -0.005166417 -0.11523446 -0.10088876 -0.060028434 -0.05992362 -0.05790897 0.0020531323
0.061476212 0.0019959202 -0.11697805 -0.04392241 0.09328155 0.08092815 -0.010101481 0.020259738
-0.026250212 -0.072094336 -0.0028703813 -0.060321044 0.08840911 -0.15321955 -0.11918928 -0.07274778
0.16494022 -0.02081256 0.06525747 0.07080341 -0.013568459 -0.038876638 -0.051355973 -0.23207127
0.036310963 0.018358927 0.20130874 -0.2475028 0.083594166 -0.11907292 0.08308173 -0.042333275
0.084250785 0.032398198 0.19971353 0.07710141 0.13156882 0.11775367 0.010266956 -0.15962107
0.15116492 0.1702781 0.18112752 0.083733715 0.18610045 0.15956484 -0.12293023 -0.2305781
-0.061242655 -0.028707176 -0.14473446 -0.05508547 0.06747681 -0.03473241 -0.015993131 -0.24063225
-0.16780266 -0.11067541 0.026221663 -0.2143758 -0.05532764 0.11769329 -0.07412044 0.09664392
0.24510856 0.04597782 -0.082572855 -0.060448363 -0.065472744 0.18339717 0.07308021 0.15566355
-0.052036423 -0.06321812 0.0060664113 0.0005275204 -0.072122335 0.16549763 0.14159568 -0.039404847
0.020504354 0.13826391 -0.04923673 0.057278298 0.017178547 0.14168432 0.08880638 0.08112996
0.075426914 -0.10153397 0.01881625 -0.050914694 0.14126436 0.08501775 -0.0581449 -0.1470062
0.0763358 -0.04728562 -0.112701185 -0.050568942 -0.092299126 -0.120622836 0.014733316 -0.016549975
0.036693882 -0.10885162 0.11392892 -0.16620022 -0.014175797 -0.23309083 0.096044905 -0.05471182
0.051975094 -0.050940555 -0.16586113 -0.009694406 0.036001906 0.09785149 0.066292405 -0.15478668
-0.039221548 0.009349413 -0.028312422 0.020618336 0.029091356 0.012665382 0.043659497 0.009195771
-0.021682402 -0.0059830784 -0.020384708 0.01936531 -0.03630527 0.00037779912 -0.027508935 -0.03638184
-0.010411797 -0.015747461 -0.017598815 -0.008419473 -0.007820993 -0.023764847 -0.010247117 0.014965799
0.021788701 0.046736307 0.027443174 -0.022317283 0.006978001 -0.031596374 0.00040170658 -0.027715374
0.004060765 0.01629727 0.04912914 -0.024515823 0.021004777 0.012525294 0.019837383 0.015553979
0.029080668 -0.0045471396 0.0114734685 -0.009557708 -0.0036620174 -0.0010543969 0.00071193563 -0.01682421
0.013609316 0.01243506 0.014318767 0.0054400666 0.014566849 0.006333539 0.00805 -0.009994312
0.016755436 -0.00015428844 -0.012388906 -0.01241991 0.032294426 -0.010989464 0.00767452 -0.015691703
-0.0184414 0.013892879 0.022143302 -0.02811085 -0.00032625813 0.028290126 -0.014936631 0.019504132
0.016556364 0.0016808561 0.014672282 0.0048799533 0.007510579 -0.0037035295 -0.0050157653 -0.006721503
0.013059718 0.0043132654 0.017231114 0.0055119786 -0.018218363 0.028960591 0.0100463 -0.0029278658
0.010194798 0.015647637 -0.0257675 -0.0115969265 0.020942485 -0.005805359 -0.004575827 -0.011057702
-0.018085448 0.0013473997 0.029207285 -0.020846711 0.021733066 -0.015367567 -0.021693556 -0.006424552
0.010408054 0.0016729826 -0.027099771 -0.00032081516 -0.02364852 -0.03019484 -0.0007598605 0.0034352138
0.031351537 0.005753062 0.0011194358 -0.022245174 -0.035716392 -0.005887635 0.028216578 -0.03773237
-0.028869664 -0.0042915847 0.016918685 -0.02781701 0.034918692 -0.02409769 0.016520698 0.011235622

transformer.h.0.ln_1.weight f4 [128]
00000000: 5726 803f 2373 843f 5745 733f 2b35 7e3f
00000010: e903 823f a810 7c3f 2bdc 7a3f e5f9 7a3f
00000020: b3c8 753f 9777 7f3f 5708 693f 8ab9 7d3f
00000030: 06a2 733f 9318 763f 7f29 7a3f 0b58 813f
00000040: 4674 763f d167 7e3f 3540 7d3f 9f67 7b3f
00000050: 1209 773f 0eb0 7b3f b881 843f e6db 773f
00000060: f7e9 803f 511b 7a3f d33d 6d3f bedf 813f
00000070: eaad 753f 9069 803f 0da8 823f 04ef 783f
00000080: 7edb 773f 54a5 733f 134d 753f ebbc 853f
00000090: 8f8d 733f 244e 7f3f a2f8 743f 4e22 823f
000000a0: 9f9f 763f 8b2b 833f bb0f 793f 97e5 833f
000000b0: f802 833f f15f 843f 5502 783f 64db 793f
000000c0: dee0 803f aab8 733f 1a65 843f b0d4 803f
000000d0: d50b 7e3f c234 803f e294 793f 51e6 783f
000000e0: 9589 803f 2066 7c3f 0b6a 7e3f 6671 773f
000000f0: dc94 7e3f 068e 7e3f 2e8d 793f b48f 7b3f
00000100: caae 7e3f 3eee 6e3f a547 7c3f a93f 753f
00000110: fa83 823f 8c83 7b3f d57e 813f 66f6 7e3f
00000120: 90c7 813f 3ce5 763f 426f 843f 2a65 7b3f
00000130: 3d78 803f 8f0a 803f b8f4 823f 13c4 833f
00000140: c8ab 7e3f cfc9 813f 250b 823f 117c 803f
00000150: ce27 7e3f 5f12 7e3f dcc2 7d3f c622 7a3f
00000160: 91bb 7e3f e9f7 7f3f 95cb 7d3f 543e 7a3f
00000170: c80c 843f 2a38 803f e4f6 833f 6352 803f
00000180: 52e9 7f3f ba32 813f c90f 753f 354d 7c3f
00000190: 65a5 6f3f d0f6 783f 12cf 813f 1f1f 7b3f
000001a0: 2b87 833f 6099 833f e780 803f 8218 7f3f
000001b0: e7a4 7f3f c67b 743f 7559 843f 6030 823f
000001c0: cbef 753f b4fd 773f 37f1 803f d5c2 7f3f
000001d0: 181e 773f 6dd3 823f 6e33 7c3f 07d7 773f
000001e0: d5fe 7c3f 4cee 7b3f 893c 723f 393a 793f
000001f0: 5be9 713f 475a 713f 183a 833f 55f6 7a3f
1.00117 1.0347637 0.9502768 0.9929988 1.0157443 0.98462915 0.979922 0.9803756
0.9600937 0.99791855 0.9102835 0.99111235 0.95169103 0.9613125 0.9771957 1.0104994
0.9627117 0.9937716 0.989261 0.9820499 0.96498215 0.98315513 1.0352087 0.96819913
1.00714 0.9769793 0.9267246 1.0146406 0.95968497 1.0032215 1.0207535 0.9723971
0.96819293 0.95174146 0.9582073 1.0448278 0.95137876 0.9972861 0.95691884 1.0166719
0.9633731 1.0247663 0.9728963 1.030444 1.0235281 1.0341779 0.9687856 0.9760039
1.0068624 0.9520365 1.0343354 1.0064907 0.99236804 1.00161 0.974928 0.97226435
1.0041987 0.9859333 0.9938056 0.9665741 0.9944589 0.9943546 0.9748105 0.9826615
0.99485457 0.9333228 0.9854682 0.9580026 1.0196526 0.982476 1.0116831 0.99594724
1.0139027 0.96443534 1.0346453 0.9820124 1.0036694 1.0003222 1.0230932 1.0294212
0.9948087 1.0139712 1.0159651 1.0037862 0.9927949 0.9924678 0.99125457 0.9770931
0.99504954 0.99987656 0.99138767 0.97751355 1.03164 1.001714 1.030972 1.0025142
0.99965394 1.0093606 0.9572721 0.9855531 0.9361175 0.97251606 1.0141318 0.9809436
1.0275625 1.0281181 1.0039338 0.9964677 0.99860996 0.95501363 1.03398 1.0171013
0.9606902 0.96871495 1.0073613 0.99906665 0.96530294 1.0220772 0.98515975 0.9681248
0.9882634 0.9841049 0.9462362 0.97354466 0.944967 0.9427838 1.0252104 0.9803212

transformer.h.0.attn.c_attn.weight f4 [384, 128]
00000000: 37f6 88bb 17a6 e63b 369d c7bc 6a4e 28bd
00000010: d171 16bd 5de6 cc3c 24d9 6abc 1cea 123d
00000020: b0ae 8ebc 8f74 17bd eeeb e1bc 4a7d 8c3d
00000030: 69b7 8f3c 26c9 033d 6b0e ed3c cc66 59bc
00000040: 9b94 013d 355f 3ebd 1caa 53bd 01fb 3bbb
00000050: 6a77 88bc 6e09 923c 01fc b43b 7ab1 dabb
00000060: a0a2 d2bc 069f 00bd 87bc 4ebd f2e6 353d
00000070: 9a8b 22bc 5956 ed3c be98 9cbb a0b6 22bb
00000080: 9c90 3abd c1d5 3c3c ad44 3e3c 1be4 94bb
00000090: 2852 4bbd 4266 41bd 9da1 e63c 3e18 45bd
000000a0: 1317 77bb 29e6 923c 6742 513c 9169 c43c
000000b0: d56f 133c f063 db3c 1cff 9c3c 36bd 50bd
000000c0: cfb0 c8bc e8a7 e43c eb9b 45bb 06dc 8a3c
000000d0: bd39 bf3c 499d 7d3c 888e 84bb 8e89 98bb
000000e0: 9701 0d3c 4ed3 19bd 8d1b 63bd 65f7 b63c
000000f0: 29f5 843c cc4e 2d3b ce21 933c d023 54bd
00000100: 9d62 033d 415d a9bc fff4 d1bc bbf7 05bd
00000110: 59a2 99bb 086a 063d 5149 afbc b2eb 58bc
00000120: 4a33 323d a658 ab3c af73 05bd 5641 35bd
00000130: 070a 193d 820f a13d 90a5 40bc 3745 0f3d
00000140: 1bcd 553c d0d2 41bc 569f 95bd 11f8 9b3c
00000150: 5201 983d 20ff 293d 6372 fd3b 1a6d b0bc
00000160: 646c e83c 9f83 a2bc ba65 dc3c de79 443d
00000170: 0274 9abc 5a52 9a3c 93c2 a13c 772f 803d
00000180: 2969 61bd 197a 913b 6ca8 1b3b 070f 0c3d
00000190: c6c2 2e3d a7ca 08bc 4bd2 943b 06d8 a9bc
000001a0: 6a27 ff3c 5e13 9c3b 1ab6 3e3c 609e 78bd
000001b0: 26da cabb aa42 d4bc dbd2 1c3c 6fa8 12ba
000001c0: 8b08 dfbb b496 b3bc 603a dfbb 24b3 3abd
000001d0: ab8b c63a 4df9 63bd 5742 62bd fc0c ed3c
000001e0: 023c 96bc 7e38 033d 6624 39bd ce79 563c
000001f0: b9fb 133d 6533 42bd 706d 2a3d f526 ffbc
00000200: 1214 7a3c f790 d3bc f15e 9fbc e013 75bd
00000210: 605f 85bd 79ff 153d c027 0dbd ca28 683c
00000220: a0b5 2dbd e68a 393c 4666 23bd d50e afbc
00000230: 5791 263d 1e5c d13c 5ca6 753c 7441 90bc
00000240: ef63 49bc 9d82 b0bb e8ec 193c 421c 69bc
00000250: 6b1e b2bb 271c 3b3c 0eb6 bcbc f1eb cd3c
00000260: 268c e8bb fe71 d4bc b588 febc 10e2 34bd
00000270: 3e98 a2bb 52c7 fa3c cd82 0dbd afcb cdbc
00000280: 6230 5abc 9427 f5bc 8ab2 5d3c 898a 1dbd
00000290: 5837 05bd 67b2 b5ba bd20 773d 5f02 eebc
000002a0: e30a 88bc 36ef 65ba de5b 363d ab5f 6c3b
000002b0: cb0a 35bd 2e07 123d 1afc 3a3d 3bf7 13bd
000002c0: 1e24 01bb bc4b f1ba 5ae4 d2bc a278 8e3c
000002d0: dd13 423c 2a58 4dbb d6c2 96bd 2df2 bc3b
000002e0: d8a5 a1bc f04e 14bd 16bc b6ba 1b5f 453d
000002f0: 6d54 bf3b f939 a7bc e2d8 863c cae3 d3bc
00000300: 8bbd 3b3d 8ded 32bd 96e1 8fbb 7aab 80bd
00000310: 67d6 e23c db70 923d 9234 63bc ca1d e43c
00000320: 1d77 db3c c2a1 4ebc 7334 97bc 785a dabc
00000330: cb62 ba3c 8708 fc3b 1cb9 dc3b c1e8 373d
00000340: 978c eb3c 6053 a7bc fb6d 86bc 67e7 34bc
00000350: de17 6f3d 77e5 373d 0e74 f93c 3537 74bd
00000360: c89c fb3a c22a e0bb 8a6f eebc 69df 093d
00000370: d42a 103d 3924 553d 292d 353d 716b b93a
00000380: 7a0e 63bd 2e9b 81b8 3451 9ebc 8ce5 753c
00000390: 070e 773c f74f de3c b94d e7bc fbb4 813d
000003a0: 1a6c 743d d28f 703d e492 89bd b120 5cbd
000003b0: 3dd8 e0bc f1da 87bc b8fc 893c a15f 633c
000003c0: bbe5 86bd 908d a8bc 9ebe f33c 8dbf 86bc
000003d0: 9dfa 9abd cead 5cbc 318f 723b b91d 933c
000003e0: 0dc7 2ebd e851 d5bc 744d 553c 513b 12bd
000003f0: 8e9e 823c 3861 4cbd be5d ab3b 5562 36bc
-0.0041797417 0.0070388424 -0.024366956 -0.041090406 -0.036729638 0.02501219 -0.014333997 0.035867795
-0.017417282 -0.036976393 -0.02757832 0.068598345 0.017543511 0.032174252 0.02893754 -0.013269138
0.03163586 -0.046477515 -0.0516759 -0.0028683546 -0.016658504 0.017826762 0.0055232053 -0.006673989
-0.025712311 -0.031401657 -0.050472762 0.0444097 -0.009920979 0.028971838 -0.0047789505 -0.0024828091
-0.045548066 0.011525572 0.011613053 -0.004543794 -0.049638897 -0.04721666 0.028153235 -0.048118822
-0.0037702962 0.017932015 0.012772179 0.02397612 0.008998831 0.026781052 0.019164614 -0.050961696
-0.024498371 0.027912095 -0.0030152749 0.016950618 0.023342961 0.015479394 -0.0040453114 -0.0046550697
0.008606336 -0.03755503 -0.055446196 0.022334764 0.016230183 0.0026444672 0.017960455 -0.051791966
0.032076467 -0.02067435 -0.025629519 -0.032706957 -0.004688543 0.032815963 -0.021397265 -0.013239788
0.043505944 0.020916294 -0.032581028 -0.044251762 0.03736308 0.07864286 -0.011758223 0.034978118
0.013049389 -0.011830047 -0.073057815 0.019039186 0.07422127 0.04150307 0.007734583 -0.021536399
0.028371997 -0.019838152 0.026903976 0.047967784 -0.018854145 0.018838096 0.0197461 0.06259053
-0.05503193 0.004439604 0.002375151 0.03419402 0.04266622 -0.008349097 0.0045416704 -0.02073289
0.031146724 0.004763051 0.011640096 -0.060697913 -0.006190556 -0.025910694 0.009571756 -0.00055945566
-0.0068064383 -0.021922447 -0.0068123788 -0.045580998 0.0015147825 -0.055657674 -0.055239048 0.028936855
-0.01833916 0.032036297 -0.045200728 0.013090564 0.036128733 -0.047412295 0.041608274 -0.031146506
0.015263574 -0.02582596 -0.019454451 -0.059833407 -0.06512332 0.03662059 -0.034461737 0.014169881
-0.04240954 0.01132462 -0.039892457 -0.021369377 0.04066595 0.02555662 0.014993276 -0.017609335
-0.012291892 -0.005386664 0.009394862 -0.014227929 -0.005435755 0.011420286 -0.02303603 0.02513692
-0.007096785 -0.025933262 -0.031071046 -0.044160903 -0.0049619963 0.030612621 -0.03454857 -0.025121538
-0.013317199 -0.029926099 0.013531337 -0.038462196 -0.032523483 -0.0013862372 0.060333956 -0.029053865
-0.016606754 -0.0008771302 0.044521205 0.0036067765 -0.044199746 0.03565138 0.04565058 -0.03612445
-0.0019705365 -0.0018409411 -0.025743652 0.017391507 0.011845556 -0.0031333067 -0.07361381 0.0057661743
-0.0197324 -0.036208093 -0.0013941552 0.048186403 0.0058389218 -0.020413386 0.01646084 -0.025865454
0.04583506 -0.043683577 -0.0043909056 -0.062827066 0.027690126 0.07150432 -0.013867514 0.027846236
0.026790196 -0.012611808 -0.018457627 -0.026654467 0.022752186 0.007691446 0.006735934 0.044899706
0.028753562 -0.020425498 -0.016409865 -0.011041499 0.05837237 0.04489657 0.030450847 -0.059622962
0.0019196505 -0.0068410346 -0.02910592 0.033660326 0.035197094 0.052036498 0.04423252 0.00141464
-0.055433728 -6.180104e-05 -0.01932583 0.0150083415 0.015079028 0.02713774 -0.028235303 0.063333474
0.059673406 0.058730908 -0.0671747 -0.053742114 -0.02744686 -0.016583892 0.016844139 0.01387778
-0.06586786 -0.020575315 0.02975398 -0.01644876 -0.07567332 -0.013469173 0.0037011618 0.017958509
-0.0426703 -0.026040033 0.013018955 -0.0357011 0.015944745 -0.049897403 0.005229681 -0.011131843

transformer.h.0.attn.c_proj.weight f4 [128, 128]
00000000: 7c73 1dbc 2ca8 4cbc 772c d4bb ec22 033b
00000010: 904f ce3c 3635 91bb 7274 e0bc aeac 89ba
00000020: 894b 11bd 8b5b 743a ad88 be3a 75e6 6f3c
00000030: 82dc 263d 45c9 913c 24c0 ff3b 1ad5 65bb
00000040: 32b0 ffbc 3e2d cc3b d9d6 3a3c 4657 cebc
00000050: 72b6 72bd 6c2d f6ba 014b 493d 1a61 8a3c
00000060: 37d2 e6ba d707 8abc 0cb0 60bd 4fd6 623c
00000070: 66d4 52bd 7eb4 89bc a4dd 4b3c 9667 10bd
00000080: 680d 843c 4601 ae3b cbdc 70bb bfca 063d
00000090: 3b2e e7bc 81b1 233c 2b3f b83a 8577 013c
000000a0: d5f1 edbb ac85 6abc 15fe 693d 3023 0ebc
000000b0: 58bb 983d 183d 4ebc 5457 bbbc 0182 d3bc
000000c0: e4ef 173d 3c40 18bd 5c8e d6b9 ddce 073d
000000d0: d546 1f3d a015 0f3c 9ece 20bb edcb 76bc
000000e0: e056 bfbb 33d2 1abd ec65 213d a546 083c
000000f0: c77a 4b3d 368f d1bc 1129 bb3c 0b1d 453d
00000100: be21 d83b e77f 6fbc aaa7 9dbc d039 f2bb
00000110: 2237 bd3c ef39 7ebc 49f4 a0bc 708a 853c
00000120: b56d 54bc 717e 2b3d edf5 22bd 7cba 12bb
00000130: bbd5 4f3d afb5 0bbb 439e 303c f50b 68bd
00000140: 5b8e 1a3c ef81 af3b c45c a23c 5da7 17bc
00000150: 5360 36bd bc59 723d 2e44 a8bc 6d27 0f3c
00000160: c358 d83a 7af8 ea3c caba 8bbc 4dc5 8abb
00000170: a1d4 a2bc 0ed3 8ebd 5dc1 08bd d0d2 9fbc
00000180: 1fc5 2c3d 747a 3d3d 43bd 2fbd 6f48 9dbb
00000190: 9cee 30bc 45aa 85bc 1a30 933c 0207 8fbd
000001a0: 5dbb 06bc 0e96 5b3c b5ee 1d3d bc55 383c
000001b0: 6590 6f3d bb6a 313d 00d7 0dbd a495 723d
000001c0: 3faf ef3c 6f7a c4bc 586f 503d 29c7 1ebd
000001d0: f985 abbc 3796 10bc 4b3b 44bd f6df 793c
000001e0: f2cb df3c 2cff 03bd 6da0 363c 7994 05bc
000001f0: 6451 ef3b 4ed0 f33c 7a72 f53c 0474 5abc
00000200: 3e89 a33c 2199 aebc 35a4 9f3d 70ce 0d3b
00000210: 9f85 00bc 5ddc e0bb 5006 26bd d670 19bc
00000220: e379 253c 55e9 95bc c92c 41bc c7b8 40bc
00000230: d6f9 b8bc e7a4 753c f592 0f3d fa19 103c
00000240: ea05 f7ba dea7 393d b9e6 2d3d 13b1 c0bc
00000250: e2e4 7dbc 6f72 093c d5a7 423b 585e 03bd
00000260: 0272 30bc 6e64 dd39 7de6 eebc 0875 013d
00000270: 62f1 b7bd f795 b13b 9e7d 2bba 38eb db38
00000280: e6b1 033c 22e5 98bc 3e8c 593b ed61 8cbc
00000290: 2c8c 493d 3c88 993c c546 27bc 56a9 40bd
000002a0: 8063 9f3c 97aa 4f3a b6cc 843d acec 77bc
000002b0: 697d dabc eeff 813d 460c a13c e35b d13c
000002c0: c6a1 133b ec8f 593c bfab bbbd 4c56 50bd
000002d0: a1bc 503c fcf9 05bd bf23 ed3c 155c 8d3c
000002e0: caa8 80bc 5303 9fbd 9876 b13d 446c 9bbc
000002f0: 00dd 5d3c 7a5b 6c3c faeb 563c e606 933b
00000300: 90d3 28bc 6049 483c c422 793c 2d55 193c
00000310: 2954 4cbd 2ebe e838 f288 043c 93f7 09bd
00000320: b8ec 29bd b7fa 9bbc dae9 4b3d 8fb7 c4bc
00000330: e9ed 493d e8b9 153d e4a3 2fbd 91f3 2d3b
00000340: ef0e 223d 0e75 e6bc 90e0 043d d464 7bbc
00000350: d9c0 0fbd 8354 ac3c d62e 1abd 8056 c3bb
00000360: 669c e93c 8838 113b 2a4a f7bc fa07 163c
00000370: bd3c 2d3b 3343 603c b685 32bd 7165 fc3a
00000380: 97ba 04bc 1edf 833c cea0 57bc dee1 d8bb
00000390: 9f4f 30bd 2644 9e3c e793 19ba 029d 7a3d
000003a0: 478e 013d 7a2a e33c eaca 8e3d 06d4 15bc
000003b0: 9128 7a3d 5a24 3dbd 5c44 4b3c ccd6 1fbb
000003c0: 536c a6bd 48a3 edbb f0ec 413c fdda 5abc
000003d0: 6c25 693d ade6 273d 63a0 cf3b afc3 353d
000003e0: e897 85bc dec1 473b c07c 03bd 1aa7 87bc
000003f0: 4a4c dbba f740 86bb 4f73 b0bc cfec bb3c
-0.009610053 -0.012491267 -0.006475027 0.0020009829 0.025184423 -0.004431392 -0.027399275 -0.0010503733
-0.035472427 0.00093215023 0.0014536582 0.014642348 0.040737636 0.017796168 0.0078048874 -0.0035069645
-0.031211946 0.006230979 0.011403763 -0.0251881 -0.059256025 -0.0018781847 0.049143795 0.016892005
-0.0017610256 -0.016849441 -0.05485539 0.01384504 -0.05147209 -0.016809698 0.01244298 -0.035255037
0.016119674 0.0053102104 -0.0036752697 0.032908197 -0.028220287 0.009991051 0.0014056911 0.007902031
-0.0072614946 -0.014314096 0.057127077 -0.008675382 0.07457608 -0.012587808 -0.02286879 -0.025818827
0.037094012 -0.037170634 -0.00040923327 0.033156265 0.03888591 0.008733183 -0.0024537216 -0.015063268
-0.0058392137 -0.037798118 0.03940384 0.008317624 0.049677636 -0.025580984 0.02284673 0.0481234
0.0065958193 -0.014617897 -0.019244988 -0.0073921457 0.023097578 -0.015516742 -0.019647734 0.016301364
-0.012965609 0.04186863 -0.039785314 -0.0022388985 0.05074094 -0.0021318009 0.01077992 -0.056652028
0.009433354 0.0053560655 0.019819625 -0.009256211 -0.044525456 0.05916761 -0.020540323 0.008737427
0.0016505945 0.028682936 -0.017056841 -0.004234946 -0.01987678 -0.06973849 -0.03338753 -0.019509703
0.042180177 0.04625936 -0.042905103 -0.0047998945 -0.010799076 -0.016316542 0.017967273 -0.069837585
-0.008223382 0.013402475 0.038557727 0.011250909 0.058487315 0.043314677 -0.034628868 0.05922474
0.029258369 -0.023984162 0.050887436 -0.038764153 -0.020937907 -0.0088248765 -0.04790811 0.01525115
0.027318928 -0.032225773 0.011146647 -0.008153074 0.0073034037 0.029762413 0.029961813 -0.013333324
0.019962903 -0.021313252 0.07794992 0.002163794 -0.007844358 -0.006862207 -0.040533364 -0.009365281
0.010099861 -0.018299738 -0.011790463 -0.011762804 -0.022580069 0.014992929 0.03505226 0.008795256
-0.0018846367 0.045326106 0.042456362 -0.023521936 -0.015496464 0.0083890995 0.0029702086 -0.032072395
-0.010769369 0.0004222723 -0.02916264 0.03160575 -0.08981587 0.0054194885 -0.0006541851 0.00010486547
0.00803802 -0.018663947 0.0033195163 -0.017136538 0.049205944 0.01874172 -0.010209744 -0.04703649
0.019456625 0.0007921843 0.06484358 -0.015132111 -0.026671128 0.06347643 0.019659173 0.02555651
0.0022526844 0.013278943 -0.09163617 -0.05086355 0.012740285 -0.032709107 0.02894771 0.017255822
-0.015705485 -0.07764306 0.08665198 -0.018972524 0.01354146 0.014426107 0.013117785 0.0044869063
-0.010304347 0.012224525 0.015206043 0.009358686 -0.04988495 0.00011098046 0.008089291 -0.03368337
-0.04148552 -0.019040449 0.049783565 -0.024013309 0.049299154 0.036554247 -0.042880908 0.0026542882
0.039565023 -0.028131988 0.032440722 -0.0153438635 -0.035096023 0.021036392 -0.037642322 -0.0059612393
0.02851696 0.002215894 -0.030186731 0.009157175 0.0026433908 0.013687897 -0.043584548 0.0019256306
-0.008101127 0.016097602 -0.013160897 -0.0066187223 -0.043044683 0.019319605 -0.0005858526 0.06118489
0.031629827 0.027730215 0.069722965 -0.009144789 0.061073843 -0.046177246 0.012406435 -0.0024389504
-0.0812613 -0.0072521307 0.011836275 -0.013357875 0.056920454 0.040991474 0.0063362583 0.04437607
-0.016307786 0.0030480544 -0.032101393 -0.016559172 -0.001673111 -0.0040971 -0.021539358 0.022940068

transformer.h.0.ln_2.weight f4 [128]
00000000: 52eb 9b3f 332c 9c3f 8c80 9b3f e3dc 9a3f
00000010: 0c64 963f 0e19 9b3f eb38 983f f86c 9d3f
00000020: 65b2 983f 6517 983f 45ec 993f f4dd 963f
00000030: e5e3 943f dffa 9b3f 60f7 973f bc48 9b3f
00000040: cca5 973f f166 9a3f bd16 983f 6919 9c3f
00000050: afb5 983f a411 953f 8b99 9c3f a65f 973f
00000060: 1da5 993f 89b0 9e3f 98ed 953f e58b 9f3f
00000070: 9a61 953f 223b 943f 96fd 8f3f 50a1 9b3f
00000080: fd77 973f 0b0c 983f 52b0 973f 45a4 973f
00000090: a817 9b3f 3dfe 973f c0c5 993f 323b 993f
000000a0: ba5a 9a3f 5c2e 983f 745f a53f 42a2 993f
000000b0: edd6 983f e2c5 9d3f bf54 973f 9f59 993f
000000c0: ef8b 9a3f 3c84 9a3f c9de 983f 3522 9a3f
000000d0: 35ae 983f a6ac 973f 1124 993f 5c4f 9f3f
000000e0: efa2 983f 8fdd 9b3f 20a0 933f 00bb 973f
000000f0: 23b1 9d3f 1969 963f 9ba4 9a3f a7ad 9b3f
00000100: 3fff 993f 37ec 9c3f b191 993f 5338 9b3f
00000110: 1c2d 983f 0d58 a13f 0ffa 9b3f 8565 933f
00000120: 8946 9c3f f386 963f 567c 9e3f 58f8 973f
00000130: 510e 9b3f 3d57 9d3f ba70 933f 5e08 973f
00000140: 0515 973f e491 9a3f 8613 983f 7ff2 973f
00000150: e0ea 9b3f 2260 9b3f dc9b 9a3f ae61 9a3f
00000160: 1757 973f 46b8 983f 9935 9b3f 92c4 943f
00000170: f9cd 9f3f cb23 9c3f 340b 993f 9ec0 9e3f
00000180: ad53 9a3f 021e 9e3f baad 953f ed95 9b3f
00000190: ec40 9b3f daad 9a3f 3ad1 9b3f 5655 973f
000001a0: 7bbe 9a3f 4d58 9a3f 0a1e 993f afdc 963f
000001b0: 3e75 973f 48db 983f 448a a03f 3bf4 9d3f
000001c0: 062c 983f d7f1 933f a8d4 953f 11bf 983f
000001d0: 5e15 973f f606 a53f a201 9b3f a8d1 9b3f
000001e0: 277c 983f dece 993f 4827 983f bc67 9b3f
000001f0: 4caf 973f c739 973f d645 993f dee3 983f
1.2181189 1.2200989 1.2148604 1.2098659 1.1749282 1.2117021 1.189237 1.229888
1.1929442 1.188214 1.2025229 1.1786485 1.1632048 1.2185935 1.1872368 1.2131572
1.1847472 1.2062665 1.1881939 1.2195255 1.1930445 1.1646008 1.2234358 1.1826065
1.2003514 1.2397624 1.1713133 1.2464567 1.1670411 1.1580546 1.1249263 1.2158604
1.1833493 1.1878675 1.1850684 1.1847006 1.2116594 1.1874462 1.2013474 1.197119
1.2058938 1.1889148 1.2919755 1.2002642 1.194059 1.2326014 1.1822737 1.1980475
1.2073954 1.2071605 1.1942989 1.2041689 1.1928164 1.1849563 1.1964132 1.2446094
1.1924723 1.2176989 1.1533241 1.1853943 1.2319683 1.1750823 1.2081484 1.216237
1.203102 1.2259587 1.1997586 1.2126564 1.1888766 1.2604996 1.2185687 1.1515356
1.2209026 1.1759933 1.2381694 1.1872663 1.2113744 1.2292248 1.1518776 1.1799428
1.180329 1.2075772 1.1880958 1.1870879 1.2181053 1.2138712 1.2078815 1.206106
1.1823453 1.1931236 1.2125732 1.1622488 1.2484733 1.2198423 1.1956544 1.2402532
1.2056786 1.2352908 1.1693642 1.2155129 1.2129188 1.2084305 1.2173226 1.1822917
1.208938 1.2058197 1.1962292 1.1786097 1.1832654 1.1941919 1.2542195 1.2340158
1.1888435 1.1558179 1.1705523 1.1933309 1.1803396 1.2892749 1.2109873 1.2173357
1.1912888 1.2016256 1.1886988 1.2141032 1.1850371 1.1814507 1.1974437 1.194454

transformer.h.0.mlp.c_fc.weight f4 [512, 128]
00000000: e6ae d33d b7ee 833d c61e 383d 6d92 323d
00000010: 26e7 933d 9c04 1dbd 2ff5 09bd 0b07 4dbd
00000020: c171 31bd a345 e63d bfdb 3fbc dfdb e13d
00000030: 181e 983c 8e12 73bd 7ca1 f33c 8814 cebb
00000040: 6c3c b43c 6c69 eb3d 3c76 433d 9c7b 2e3d
00000050: 0a0b dfbd e461 a2bd 3a9f 4a3b 537a 603c
00000060: 72f2 c03b c251 a93d 4f15 013b 6a65 16bd
00000070: 9e3e db3d b3fd d3bc 837a 4a3d 0816 063d
00000080: 60af 113d d126 0cbc e68f 87bd 76c8 b8bc
00000090: 878b d33b f7f4 cc3d 3f76 76bb 5f39 3b3c
000000a0: a82a 19bd d463 a0bc ec96 a33c d5d8 9cbd
000000b0: b1f7 15bd e6bf 4c3d 999f e7bc 9012 13bc
000000c0: 7183 713d b6ea 79bd 2907 233d f247 9ebd
000000d0: 867d 89bd 0a33 a33d acff 373d 7c43 9f3b
000000e0: fe35 41bc e05d f13c 77e1 d2bc 26db 183c
000000f0: 27eb 22bd 659e 82bd 5b84 15bd ac62 623c
00000100: cd23 e3bc f3ca babc ae20 a23b cb88 57bd
00000110: 0c9b 34bc ba45 9bbb c26b 83bc e583 133d
00000120: a57f 153c 98ac 55b8 1c2f 1b3d 6ce9 173d
00000130: 41fb 8dbb 8324 53bd d837 b6bc a225 50bd
00000140: ab41 493d 029e 4ebb 2f9a 323c 6db7 ad3c
00000150: c74c e4bc b8ed d93b f1ef e1bd 9730 c2bc
00000160: 65ce 6dbc f30d dd3c b585 3cbd ecb6 9fbd
00000170: b15a 3b3d fb30 843b 6be5 3ebd cf02 8b3d
00000180: 4b74 19bd f80a 31bd 92e8 5c3d da4e 4c3c
00000190: 70de b5bd 7f26 2ebc 60cc c23b 1fa8 4d3d
000001a0: 6dd1 45bd 98fc 4a3d 86c1 8cbc 86b1 903d
000001b0: a6b8 133d 45d6 a53d 071a e9bd 4351 d4bd
000001c0: 8cd2 083e 104b 4c3d 52cc d5bc 394f 7f3d
000001d0: 6fa8 f6bc 85b4 92bc f8dd 813d f68a 23bc
000001e0: b764 24bd 99b1 56bd 5995 4ebc 5288 7c3b
000001f0: 07a6 58bc 6bb7 b03b 0d21 76bc 59f8 803d
00000200: c180 b13d 718b 7e3d 763f 92bc 6f48 dabc
00000210: 482d d5bc 9e3a 3abd 13af 03bc 8911 5abd
00000220: 4034 cabc 81f2 2d3d 88f1 0bbd fab0 96bc
00000230: 4ab2 9fbd 3420 a63c 34d4 c4bc 0a4e 653c
00000240: 752c 813d ec8a 0c3c 1156 413d fe7b 9c3c
00000250: fee0 04bd b0e7 653d 1dc2 03bd f094 c0bb
00000260: 7ca1 103d d392 24bc 7bf3 b5bc e8ec 4339
00000270: b451 07bd 4c0a 353c 4b97 393c 532c f3ba
00000280: 8af1 113d 1de8 713d c5f7 23bb 8a8d ba3d
00000290: b12a e43d 70d8 96bd b579 603d d56c 183d
000002a0: 055d 9cbd a914 d4bd b429 aa3c 3f62 c73c
000002b0: 6667 26bd 4445 3cbd f11e 5bbd ab69 d93c
000002c0: 5969 c0bc 50f5 49bd c904 c3bd 30b6 d53c
000002d0: a256 bf3b 8951 d7bc 3555 7e3c d250 853d
000002e0: 82e8 b73d fe16 dd3c a016 66bd d532 f13c
000002f0: 3b1c febc ff41 a6bd a2e9 14bd 48ea 27bd
00000300: 5ba2 ee3c d7a2 1c3d ae48 89bb 80b5 ffbb
00000310: a494 95bd 10fc d6bc c5d2 56bd 2678 00bc
00000320: f57a cabc 58ee a13c bf1b 883d c88c c3bb
00000330: 0586 0fbd 4398 f93b 4af0 debc 310e 8dbd
00000340: 4b7d b2b9 608e 313d 17dd 8abd 1124 1dbd
00000350: bff3 023d 7d3b e439 aa08 babc 204f ac3d
00000360: e649 c0bb a80e f9bb 86cb 89bc 56a2 04bc
00000370: d6b1 173c 8379 70bd ed3e 193d 8a76 b1bd
00000380: 5225 913d a795 9fba 0c92 0b3c f45d f2bb
00000390: 043d 8b3c 6512 92bd 4c9b 02bd e20e 58bd
000003a0: fb60 3d3c 998f 2abc a3f5 68bc 243c 34bc
000003b0: a4ee d13d 7f79 0cbb ed4e 66bb 78f0 e33b
000003c0: 79f9 b03d 8c2e 52bd e33d c4bc de97 773c
000003d0: a14b 3c3c d9ad 643d f3b1 5e3d 2f38 ed3c
000003e0: aeb7 8d3c 8cb5 1d3d b326 0abd 13df 78bd
000003f0: b250 7a3d 71ad 163d 0e49 47bd a666 463d
0.103360936 0.064420156 0.044951223 0.043596674 0.072218224 -0.038334474 -0.03368109 -0.050055545
-0.043321375 0.11243751 -0.011710106 0.11028265 0.018569037 -0.059343867 0.029740088 -0.0062890686
0.022001468 0.11494717 0.04772018 0.04259835 -0.108907774 -0.079288274 0.003091766 0.013701039
0.0058882767 0.08267547 0.0019696539 -0.03671781 0.10705303 -0.02587781 0.049433243 0.032735854
0.03556764 -0.008554176 -0.06619243 -0.022556525 0.006455842 0.10007661 -0.0037607101 0.011427253
-0.037394196 -0.019578852 0.019969426 -0.07658545 -0.03661317 0.049987696 -0.028274344 -0.008976594
0.058963243 -0.061014853 0.03980175 -0.07728566 -0.06713395 0.07968719 0.044921562 0.0048603397
-0.011792658 0.029463708 -0.025742276 0.009329593 -0.03977504 -0.063778676 -0.036503177 0.0138174705
-0.027727032 -0.022801852 0.0049477434 -0.05262069 -0.011023294 -0.0047385367 -0.016042594 0.036014456
0.009124671 -5.0943898e-05 0.037886724 0.037087843 -0.0043329303 -0.051548492 -0.022243425 -0.05081714
0.04913489 -0.0031527285 0.010901018 0.021205628 -0.027868642 0.0066506527 -0.11032093 -0.02370481
-0.01451454 0.02698419 -0.04602595 -0.077985615 0.045740787 0.0040341592 -0.04660551 0.06787645
-0.03746442 -0.04322335 0.053932734 0.012469972 -0.08880317 -0.010629295 0.0059447736 0.05020916
-0.048295427 0.0495573 -0.017182123 0.0706511 0.036064766 0.08097509 -0.113819174 -0.10367062
0.13361567 0.049876273 -0.026098404 0.062331412 -0.030109612 -0.017908344 0.06341165 -0.009981861
-0.04013511 -0.052415464 -0.012608849 0.0038533402 -0.013223178 0.005392959 -0.015022528 0.062973686
0.08667136 0.0621447 -0.017852526 -0.026645867 -0.026022568 -0.045466058 -0.008037346 -0.05323938
-0.024683118 0.042467598 -0.03416589 -0.018394936 -0.07797678 0.020279028 -0.024026968 0.013995657
0.06307308 0.008578043 0.04720122 0.019102093 -0.03244113 0.056129158 -0.032167543 -0.0058771297
0.035310254 -0.010044771 -0.022210827 0.00018684904 -0.033036903 0.011049818 0.011327575 -0.0018552638
0.03563074 0.05905925 -0.0025019508 0.09109028 0.11140955 -0.07365501 0.05480357 0.037213165
-0.076349296 -0.10355503 0.020771839 0.02433884 -0.040625952 -0.045964494 -0.053496305 0.026539644
-0.023487734 -0.049306214 -0.09522397 0.02608785 0.005839185 -0.026283996 0.015523245 0.06509556
0.08979894 0.026988503 -0.05617392 0.029443184 -0.03101932 -0.081180565 -0.036355622 -0.040994912
0.029130151 0.038241234 -0.0041895723 -0.007803619 -0.073037416 -0.02624324 -0.0524471 -0.007841146
-0.024716834 0.019766971 0.06645917 -0.00596771 -0.03503992 0.007617028 -0.027214188 -0.068874724
-0.00034044156 0.04334867 -0.06780451 -0.038364474 0.031970736 0.0004353187 -0.02270921 0.084135294
-0.0058681844 -0.007600624 -0.01682068 -0.0080953445 0.009258708 -0.058709633 0.037413526 -0.08665188
0.070871964 -0.0012175337 0.008518707 -0.007396454 0.016996868 -0.07132415 -0.031886384 -0.05274857
0.0115587665 -0.010410213 -0.014218721 -0.011000667 0.10250595 -0.0021434722 -0.0035142258 0.0069561563
0.08641333 -0.05131392 -0.023955291 0.015111892 0.011492641 0.055829857 0.054368924 0.028957454
0.0172995 0.038503215 -0.033728313 -0.060759615 0.061112113 0.0367865 -0.048653655 0.048437737

transformer.h.0.mlp.c_proj.weight f4 [128, 512]
00000000: 104e c73c 387b 58bd 4180 b23c 3e66 b2bc
00000010: 2eaa 8dba 51ac 4a3c 5065 343c c0d4 4dbd
00000020: 19eb 923d f46f 30bd 94b8 c23a 5b86 b83c
00000030: 65d6 a0bc 9c46 c03d 5cd7 35bc 0fe6 eabc
00000040: ccd2 04bc 5b0c 0abb 13a5 3d3c e6ce f33a
00000050: c1b5 7e3c e66f 953d 2c03 923c 4276 07bd
00000060: 2e18 033d b97b 3ebc 26e3 493b b07b 08bd
00000070: 1756 e0bc 2ec5 9f3b bb77 713a 7412 ff3c
00000080: 13a5 b3bb 19f6 c8bc ee4a 0ebd 11ad 2f3d
00000090: 7629 5abb 1f82 f4bc f99d 1c3c 1c3b 58bb
000000a0: 1f04 99bc 9515 2f3c 4c46 70bc 7c14 1a3d
000000b0: 34bd 25bd b95b 6c3c b684 fcbc 16cb 603c
000000c0: 5b0e 0c3d dc0a 703c 1edd 413d 0b9f b23c
000000d0: 2b42 14bc 7d2a 203d aa2b 9dbd 72a2 1f3d
000000e0: 9595 73bd 565d 09bd f06c 3fbd 7d47 8c3c
000000f0: 0c2c d8bc 3bcf 5fbd 82db 1d3c d88a 47bd
00000100: 22e2 783c b9d9 64bd 8d20 0abd 3f78 3c3b
00000110: efc7 3ebd 7019 b8bc 439c 383d ed94 b33b
00000120: 57d5 bfbc 79e3 e6bc d312 cbbb c9fc 573c
00000130: 475c 0f3d 0793 abbc 8fd9 623c 089b d8bc
00000140: 1597 9abc 8117 2f3b 59c3 62bd c1a5 20bc
00000150: 787a 3f3d 18af 313a 325a 8cbd b21a 87bb
00000160: 1b1e acbd 913c 1ebd 153e 96bd 245c 8f3c
00000170: a7e6 1cbc 2582 ed3c 9a0e 24bd 8f6f 37bd
00000180: d94e eeba 89e5 3d3c 85ca e9bc ebf0 36bc
00000190: a2c2 53bd b0c8 723d 4ac5 04bd 1c53 bd3d
000001a0: b172 dd3c d8e4 1a3d 405d 93bc 0d8b bc3c
000001b0: 9a6e 00bc bd00 35bd eed6 80bd c116 01bd
000001c0: 50f9 d53c a600 42bc 3b54 483a 915a dc39
000001d0: b85b 463d 207d b4bc 4aea 0fb9 43f7 883d
000001e0: 51bf 56bc 1fb7 62bd 2913 813c 1210 02bc
000001f0: 233d 33bd a86e 86bd d1b6 0e3d 4618 09b9
00000200: 234c ac3c 9b42 6f3c d878 933c fa89 f43c
00000210: 6ff9 2cbd 9df4 593d be1d 9abb bcb8 3d3c
00000220: 6139 bd3c 139d 493b 97ae 2fbc 370e 263d
00000230: bd49 4d3d 9073 053d f0e9 2fbd ee7b 9fbc
00000240: 4f3f a93c 44a3 b43d cc98 843c 2b93 c63c
00000250: 08b1 203d 4847 ac3b d192 453d 12a1 363d
00000260: a802 553d 760a 9bbc 422f 85bc 362b 8dbc
00000270: 9554 873c 3955 2cbd c065 08bd 68bb 75bc
00000280: 4aca 2a3d 59e8 61bd b38b 073d e4e2 dbbc
00000290: 7e3a 89ba 045f 843c e288 9dbc 9e05 733c
000002a0: 2e03 703d fb49 b9bb 14fb 78bd 21e6 c53c
000002b0: 284c 42bb dd5c 84b7 b1fa b83c 1f3d 1b3d
000002c0: b7e4 f33c 15a6 ae3c a0b8 14bd fa67 843d
000002d0: cc89 003d bac5 3fbd ebde 16bd a095 4a3d
000002e0: 3fa3 1e3d 829c c5bc 8308 16bd 3956 fcbc
000002f0: 1216 1bbd c3f0 01bd ff59 34bd 98a2 0e3c
00000300: 4a22 133b 37a4 6c3d 9b1b 803d 554a 163d
00000310: 0d89 9f3c 7be5 813c 6fb7 4abd 3329 bcbc
00000320: e882 3a3d f9c8 7dbc 8f37 803c 895e e23c
00000330: 9ad5 a03c 0c42 f93b 5f3c e43c 78ac 073c
00000340: 977f cebc 32a1 563d 9604 1fbd fee3 e4b9
00000350: 3b61 c93a 708c fd3b c1c9 8abd d181 953b
00000360: d400 0c3c 99d0 35bc 74b5 12bc 117f 263c
00000370: 8b65 6c3a f858 c73c cf68 36bd e11e 2f3d
00000380: 8a5e 3dbd c08c 943b a2cc 0ebd abb3 92bc
00000390: 6805 ea3c a578 473c 1008 d33b 0957 893d
000003a0: 07a8 523c 1c3d a13c f772 473d 3ad0 24bd
000003b0: 8a0d 32bc a32a b03c 0292 64bc 39fc 393d
000003c0: dbdb 80bc bd56 1dbc aab0 a0bc 3111 fabb
000003d0: 398e 1e3d 9c88 113d 9149 8e3d 4563 033d
000003e0: 3ec6 8d3c 2515 1ebd bf7c 24bc f2a0 093c
000003f0: 8eac dc3c 0bab 2dbc 5e63 4a3b 4b51 c8bd
0.024329215 -0.052851886 0.021789672 -0.021777268 -0.0010808164 0.012370185 0.011010483 -0.050251722
0.071737476 -0.043075517 0.0014856034 0.022525003 -0.019633481 0.09388468 -0.011098709 -0.028674154
-0.0081068985 -0.0021064493 0.011575001 0.0018601089 0.015546263 0.072967336 0.017823778 -0.033071764
0.03200548 -0.0116261775 0.0030805557 -0.033321083 -0.0273848 0.0048758006 0.00092112616 0.031136729
-0.005482325 -0.024531411 -0.034739427 0.04288966 -0.0033288873 -0.029847203 0.009559148 -0.0032994216
-0.018678723 0.010686298 -0.014665198 0.03761719 -0.04046364 0.014426165 -0.030825 0.013720294
0.034193378 0.014651027 0.047330014 0.021804353 -0.009048979 0.03910302 -0.07674344 0.03897328
-0.059468824 -0.033536278 -0.04673475 0.017123932 -0.02638819 -0.05464099 0.009634854 -0.048716396
0.015190633 -0.0558717 -0.03372245 0.0028758196 -0.04657739 -0.022473067 0.045070898 0.0054804
-0.023417158 -0.02818464 -0.0061973124 0.013182827 0.035000112 -0.020944132 0.013845815 -0.026441112
-0.01887087 0.002671689 -0.05536208 -0.009805144 0.046747655 0.0006778105 -0.06853141 -0.0041230554
-0.0840418 -0.03863198 -0.0733606 0.01749999 -0.009576476 0.028992722 -0.040052988 -0.044784125
-0.0018181457 0.01159037 -0.028538952 -0.011165838 -0.05169929 0.05927342 -0.032414712 0.092443675
0.027032228 0.0378159 -0.017988801 0.023015523 -0.0078388695 -0.044190157 -0.062909946 -0.03151584
0.026119858 -0.011840975 0.0007641946 0.00042029147 0.048427314 -0.02203232 -0.00013724822 0.066877864
-0.013107137 -0.05535042 0.015756207 -0.007938402 -0.043759476 -0.06564075 0.034842316 -0.0001307438
0.021032399 0.014603282 0.018001959 0.029850949 -0.042230066 0.053211797 -0.0047032526 0.011579689
0.02309865 0.003076379 -0.010722778 0.0405409 0.05011915 0.032580912 -0.04294771 -0.019468274
0.02066007 0.08820203 0.01618614 0.024240097 0.03923133 0.005257521 0.04823572 0.044587202
0.052004486 -0.018925887 -0.016257886 -0.017232519 0.016519824 -0.042073462 -0.03330016 -0.014998294
0.041696824 -0.055153225 0.033092212 -0.026841588 -0.0010469703 0.016158588 -0.01923031 0.014832882
0.058596782 -0.005654571 -0.06078632 0.024157586 -0.0029647443 -1.5778869e-05 0.022580476 0.037900086
0.029772146 0.021319428 -0.036308885 0.064651445 0.031381413 -0.046819426 -0.036833685 0.0494591
0.038729902 -0.02412248 -0.03662921 -0.030802833 -0.037862845 -0.03172375 -0.04403114 0.008705758
0.0022450858 0.057773795 0.06255265 0.036691982 0.01947453 0.015856495 -0.049491342 -0.022968864
0.045535 -0.01548981 0.015651492 0.027632969 0.019633103 0.0076067504 0.027860818 0.008280866
-0.025207324 0.05239982 -0.038822733 -0.00043657416 0.001536406 0.0077376887 -0.06776763 0.0045625945
0.008545119 -0.011097097 -0.008954395 0.010162131 0.00090178166 0.024334416 -0.044533547 0.042754058
-0.046232738 0.0045333803 -0.03486312 -0.017907938 0.028567031 0.01217476 0.00644017 0.06706054
0.012857444 0.01968246 0.048693623 -0.040237643 -0.010867486 0.021504706 -0.013950827 0.045406554
-0.015729835 -0.0096032 -0.01961549 -0.007631444 0.038709853 0.03553067 0.069476254 0.032077093
0.017306443 -0.038594384 -0.010039507 0.008400189 0.02693775 -0.010599862 0.0030881981 -0.097811304

transformer.ln_f.weight f4 [128]
00000000: 290a 0140 88de 0240 9a6d 0340 71f0 fb3f
00000010: 71f0 0340 98d6 fb3f 73fa 0240 7686 0040
00000020: ea1c 0840 1642 0140 2501 0440 2620 0340
00000030: 2440 0540 ee04 0640 5722 0340 1122 0340
00000040: 0741 0140 6db6 0140 081c fb3f 6433 0140
00000050: 69d0 0740 3ad0 0340 e9a8 0140 aa1e 0140
00000060: 41e6 fc3f 9b2d 0040 8bdd 0440 3823 0440
00000070: 6c41 0340 dac6 0240 6b99 0140 e5a8 0540
00000080: ac9d fd3f 9688 0440 3f59 0140 f720 0140
00000090: c432 0340 6208 0340 9faf 0440 310f fe3f
000000a0: 3cef 0440 77c4 f73f 85d5 0140 0ec1 f83f
000000b0: 1884 f13f 60b8 f53f e690 0240 3f63 0740
000000c0: e67f fb3f 6571 fe3f 6ba0 0040 af93 0240
000000d0: 60e7 0040 4e71 0040 bd5b 0440 75fc 0240
000000e0: 4dbf fd3f e653 0240 20ae fd3f ee34 0440
000000f0: a9f7 ff3f cf9a 0640 e3d0 0040 d5db fe3f
00000100: eda3 0540 826b 0640 2674 0540 86bb 0340
00000110: 2945 0240 8c10 0140 15f6 0040 30a3 f73f
00000120: 6bbc f93f b514 0140 1038 0340 aa6c fd3f
00000130: 5c6a fe3f d496 0040 9d91 f83f 9c49 0440
00000140: 4514 0140 910a ff3f 342a fd3f ab40 ff3f
00000150: 70f4 0140 d8b2 0440 ed8b 0340 03ba 0240
00000160: e67e fb3f b464 fb3f f6ad 0240 eb33 0540
00000170: dd8a 0140 c077 0240 17c8 0440 3ea2 fd3f
00000180: a1a1 fa3f ec3e 0140 e776 0240 ea45 0140
00000190: 3718 0740 44cf 0240 e4c2 fe3f 6552 0140
000001a0: cf40 fc3f 9f04 f23f 835c 0140 34fb 0140
000001b0: c158 fd3f 71f4 0240 0818 0240 04c8 0140
000001c0: 2081 0240 931f 0740 2621 0040 7758 0740
000001d0: 94a6 0140 99e2 f73f 2421 0240 9835 0140
000001e0: a1ee 0140 b846 0240 5867 0340 f33a 0140
000001f0: d291 0540 de6b 0040 c292 0140 e483 fe3f
2.0162451 2.0448322 2.0535645 1.9682752 2.0615504 1.9674864 2.0465362 2.0082068
2.1267648 2.0196586 2.0625699 2.0488372 2.0820398 2.094051 2.048971 2.0489542
2.019594 2.0267594 1.961793 2.0187616 2.1220953 2.0595841 2.0259345 2.0174966
1.9757768 2.0027835 2.076022 2.0646496 2.050868 2.043387 2.024989 2.0884335
1.9813743 2.0708365 2.0210721 2.017637 2.0499735 2.0473866 2.073219 1.9848386
2.0771017 1.9356831 2.0286572 1.9433916 1.8868437 1.9196892 2.040094 2.1154325
1.9648407 1.9878355 2.0097911 2.040264 2.014122 2.0069156 2.0680993 2.0466588
1.9824005 2.0363708 1.9818764 2.0657306 1.9997455 2.1031988 2.0127494 1.9910837
2.0881302 2.1003118 2.0852141 2.0583205 2.0354712 2.016635 2.0150197 1.9346676
1.9510626 2.0168889 2.0502968 1.9798787 1.9876208 2.0092058 1.9419438 2.0669928
2.0168622 1.99251 1.9778504 1.994161 2.0305443 2.0734158 2.0554154 2.0426033
1.9648101 1.9640107 2.0418677 2.0812938 2.0241005 2.038559 2.0747125 1.9815137
1.9580575 2.0194654 2.0385072 2.0198922 2.110853 2.0439005 1.9903226 2.020654
1.9707278 1.890766 2.0212715 2.0309572 1.979271 2.0461695 2.0327168 2.027833
2.0391312 2.1113021 2.0020232 2.1147745 2.0257921 1.9366027 2.0332727 2.018896
2.0301898 2.0355663 2.0531826 2.019223 2.0870252 2.0065837 2.0245824 1.9884
