grokking_checkpoint/model_epoch250.pt (torch, 900786 bytes, 10 tensors)

transformer.wte.weight f4 [206, 128]
0	0x3ecfb866	0.40570372
1	0xbd87b777	-0.0662679
2	0xbd0dd4b3	-0.034626674
3	0x3e91a6e6	0.28447646
4	0xbde4f4b4	-0.11179486
5	0x3d923207	0.07138448
6	0x3cfdf5b9	0.031000959
7	0xbec11048	-0.37707734
8	0xbe3246d5	-0.17409833
9	0xbeabc96f	-0.3355212
10	0x3e3a70ff	0.18207167
11	0x3e14cb2b	0.14530627
12	0xbe184476	-0.14869866
13	0xbd03c70f	-0.03217226
14	0x3accee91	0.0015635063
15	0xbe543e10	-0.207268
16	0x3e66a5f5	0.22524245
17	0x3e6352e4	0.22199589
18	0x3e870d1a	0.26377183
19	0x3e4dcdf3	0.20098095
20	0xbe5711e8	-0.21002924
21	0x3dbb6157	0.091494255
22	0x3e459048	0.1929332
23	0x3e0eb222	0.1393514
24	0xbe8471a7	-0.2586796
25	0x3bb62e96	0.0055597527
26	0x3b614158	0.0034371223
27	0xbeaf45cc	-0.34232938
28	0xbdb92fc1	-0.090423115
29	0x3dbf7562	0.09348561
30	0x3ea9450a	0.33060485
31	0x3eb4ebf1	0.3533626
32	0xbe192427	-0.14955197
33	0x3c10be7c	0.0088344775
34	0xbebf98a0	-0.3742113
35	0x3f1bfc41	0.60931784
36	0xbea03a3f	-0.31294438
37	0x3ea4c1f7	0.32179233
38	0xbe873abd	-0.26412
39	0x3cefcfbd	0.029273862
40	0xbe83eb33	-0.2576538
41	0x3ea8ab17	0.3294303
42	0xbf173398	-0.590631
43	0xbe9d4bc5	-0.3072187
44	0xbe9868f5	-0.29767576
45	0xbe3f498d	-0.18680401
46	0x3d700d5b	0.058606487
47	0x3f03d157	0.514913
48	0xbefa34eb	-0.48868498
49	0xbe9a59e1	-0.30146697
50	0xbec04dda	-0.37559396
51	0xbe5a0d9a	-0.21294251
52	0xbef1106b	-0.47082838
53	0xbe546dd4	-0.20745021
54	0x3ea60b70	0.324306
55	0x3eb5aab5	0.35481802
56	0xbd5338d5	-0.05156787
57	0x3dd43651	0.103619225
58	0x3f014393	0.50493735
59	0x3e4260ea	0.18982282
60	0xbe424556	-0.18971762
61	0x3e4e7486	0.20161638
62	0xbd83a10b	-0.06427201
63	0x3e42290d	0.18960972
64	0x3ece4163	0.4028426
65	0x3ead4b10	0.3384633
66	0x3ded4266	0.1158493
67	0x3ecde48b	0.40213427
68	0x3e1f4911	0.15555216
69	0xbeff2ea4	-0.4984027
70	0xbd490fcc	-0.04908733
71	0x3e7460be	0.23865029
72	0xbef785c5	-0.48344246
73	0xbe8267cd	-0.2546982
74	0x3ed7a299	0.4211624
75	0x3e9e8a9b	0.30965123
76	0x3d93d574	0.07218447
77	0xbeefa526	-0.46805686
78	0x3ebc9b3f	0.36837193
79	0x3e02085f	0.12698506
80	0x3dbdd2d5	0.09268729
81	0xbe197221	-0.14984943
82	0x3e92b27e	0.28651804
83	0xbe2ae744	-0.16689783
84	0x3e0b492f	0.13602136
85	0xbebb0ca3	-0.3653308
86	0xbecf7345	-0.4051763
87	0x3d02883e	0.031868212
88	0x3e427154	0.18988544
89	0xbc99296b	-0.018696507
90	0x3e81b100	0.25330353
91	0xbe799521	-0.24373294
92	0xbebe170a	-0.37126952
93	0xbee7c0e9	-0.45264366
94	0xbe6e0154	-0.23242694
95	0xbec29b42	-0.38009077
96	0xbd1d0347	-0.038333204
97	0x3eb3bc20	0.35104465
98	0xbdba46b0	-0.09095514
99	0xbdd6363b	-0.104595624
100	0xbe965f85	-0.2936975
101	0xbe27a093	-0.16369848
102	0x3e7467c6	0.23867711
103	0x3e726e28	0.23674834
104	0xbe5a514d	-0.21320076
105	0xbe0a6860	-0.13516378
106	0x3ed991a5	0.4249393
107	0xbe280113	-0.1640666
108	0x3e1bdf76	0.15221962
109	0x3ea355c2	0.31901366
110	0xbe611647	-0.21981154
111	0xbe83893e	-0.25690645
112	0x3df445fd	0.11927412
113	0x3d9983cd	0.07495842
114	0xbe3da3d0	-0.18519521
115	0x3ea9e5b5	0.33183065
116	0x3d9a899f	0.075457804
117	0x3f26d31e	0.6516589
118	0x3e1b16f3	0.15145473
119	0xbe0e29de	-0.13883159
120	0x3cad6f84	0.021171339
121	0x3dde71f0	0.108615756
122	0x3ea9b579	0.33146265
123	0xbe858635	-0.26078954
124	0xbeaa053e	-0.33207124
125	0xbe911a19	-0.28340223
126	0xbe12bcc2	-0.14329818
127	0x3ea32225	0.31861988
128	0x3ec65c78	0.38742423
129	0xbd68a0b2	-0.056793876
130	0xbc884d5f	-0.016638456
131	0x3e8e3e26	0.2778179
132	0xbe0286f8	-0.12746799
133	0x3d7688ec	0.060189173
134	0x3cfbae3d	0.030722732
135	0xbec15da4	-0.37766755
136	0xbe38ad67	-0.18034898
137	0xbea68764	-0.3252517
138	0x3e35ef28	0.17767012
139	0x3e1b324f	0.1515591
140	0xbe0d91e0	-0.13825178
141	0xbc90d391	-0.017679008
142	0x3c1d5314	0.009602327
143	0xbe60da60	-0.21958303
144	0x3e6b35ce	0.22969744
145	0x3e60c153	0.21948747
146	0x3e886f47	0.26647398
147	0x3e46c2ed	0.19410296
148	0xbe5fe16f	-0.2186334
149	0x3da3b0b8	0.07992691
150	0x3e4d3f2c	0.2004363
151	0x3e08c14a	0.13354984
152	0xbe85e221	-0.26149085
153	0xbc6336dd	-0.013868061
154	0xbc072a6e	-0.008249862
155	0xbeb5b707	-0.354912
156	0xbddc6eb7	-0.10763305
157	0x3dd2b740	0.102888584
158	0x3ea8232b	0.3283933
159	0x3eacbd68	0.33738256
160	0xbe238111	-0.15967204
161	0xbbbe234a	-0.0058025466
162	0xbeba2d63	-0.36362752
163	0x3f19c5b9	0.60067326
164	0xbea0b3cb	-0.3138717
165	0x3ea41087	0.3204386
166	0xbe7ae20a	-0.2450029
167	0x3d348f24	0.044081822
168	0xbe87c49e	-0.26517195
169	0x3eaa916e	0.3331408
170	0xbf17401e	-0.5908221
171	0xbe9f0c6f	-0.31064174
172	0xbea08300	-0.31349945
173	0xbe437424	-0.19087273
174	0x3d504933	0.05085106
175	0x3f01c2ce	0.50687873
176	0xbef9d392	-0.48794228
177	0xbe9aa6aa	-0.3020528
178	0xbebfe15d	-0.37476626
179	0xbe61a128	-0.22034132
180	0xbef92567	-0.48661348
181	0xbe578cc9	-0.21049799
182	0x3eab0fdf	0.33410546
183	0x3eb849f0	0.3599391
184	0xbd07b5fb	-0.033132534
185	0x3de53326	0.111913964
186	0x3f03c4b9	0.5147205
187	0x3e2ed9e1	0.17075302
188	0xbe37b71a	-0.17940941
189	0x3e4c67fc	0.19961542
190	0xbd6743fb	-0.056461316
191	0x3e34ef1a	0.17669335
192	0x3ec7d5d2	0.3903032
193	0x3ea66403	0.32498178
194	0x3decef36	0.11569063
195	0x3ed23f38	0.41063857
196	0x3e1a7b3a	0.1508607
197	0xbf03f199	-0.51540524
198	0xbd148b9d	-0.036265958
199	0x3e72fec1	0.23729993
200	0xbef9278c	-0.48662984
201	0xbe7d44aa	-0.24733225
202	0x3eddb261	0.43300155
203	0x3e9ada49	0.30244663
204	0x3d99e92d	0.07515178
205	0xbeea9804	-0.45819104
206	0x3ebb7a64	0.36616814
207	0x3e0092f6	0.12556061
208	0x3d8196bd	0.06327579
209	0xbe1f43b5	-0.15553172
210	0x3e92497f	0.28571698
211	0xbe30e3fd	-0.1727447
212	0x3e04af92	0.129576
213	0xbeb4b859	-0.35296896
214	0xbed0b7de	-0.4076528
215	0x3d1e292d	0.038613487
216	0x3e4a74fa	0.19771186
217	0xbc407693	-0.01174702
218	0x3e809a8a	0.25117904
219	0xbe69ca4f	-0.22831081
220	0xbec23f12	-0.37938744
221	0xbede9a4c	-0.43477094
222	0xbe633f56	-0.2219213
223	0xbec9d82c	-0.3942274
224	0xbd4fa4ff	-0.050694462
225	0x3eb4910b	0.3526691
226	0xbdc9ef73	-0.098601244
227	0xbde16fd8	-0.110076606
228	0xbe967199	-0.29383543
229	0xbe3616cd	-0.17782135
230	0x3e78c166	0.24292526
231	0x3e81265e	0.25224584
232	0xbe48547a	-0.19563475
233	0xbe101fe3	-0.14074664
234	0x3ee482da	0.44631082
235	0xbe37b483	-0.17939954
236	0x3e1ca223	0.15296225
237	0x3e9da18e	0.3078732
238	0xbe6bb1e1	-0.23017074
239	0xbe89ca5d	-0.26912203
240	0x3dc9d843	0.09855702
241	0x3daf1bf3	0.08550253
242	0xbe44ef90	-0.19232011
243	0x3eb3033a	0.349634
244	0x3da5ab50	0.08089316
245	0x3f2b2dc3	0.668667
246	0x3e20563b	0.15657894
247	0xbdf3bca9	-0.119012184
248	0x3bb5b5fe	0.005545377
249	0x3e02b964	0.12766033
250	0x3ea93a39	0.33052233
251	0xbe883f0e	-0.26610607
252	0xbea998cc	-0.33124387
253	0xbe8dcedc	-0.27696884
254	0xbe201a20	-0.15634966
255	0x3ea65a1b	0.3249062

transformer.wpe.weight f4 [5, 128]
0	0xbd9dd9de	-0.077075705
1	0xbbf75fd4	-0.0075492654
2	0xbdec2fdd	-0.11532567
3	0xbdd15d4c	-0.10222873
4	0xbd7a6781	-0.061133865
5	0xbd789c04	-0.060695663
6	0xbd7879ee	-0.060663156
7	0x3c41f33e	0.011837779
8	0x3d89f981	0.06737042
9	0x3c89c1eb	0.0168161
10	0xbdfd122a	-0.1235698
11	0xbcf9c375	-0.030488709
12	0x3dcb9cce	0.099420175
13	0x3daa217a	0.083071664
14	0xbc9c4c79	-0.019079434
15	0x3c349266	0.011021232
16	0xbd0acc5c	-0.0338863
17	0xbda16bf2	-0.07881917
18	0xbc32a7a2	-0.010904225
19	0xbd863cd2	-0.06554569
20	0x3db3cbe8	0.087791264
21	0xbe1b21d5	-0.15149625
22	0xbe051567	-0.12996446
23	0xbd636987	-0.05552056
24	0x3e32d8c4	0.17465502
25	0xbc862b96	-0.016378205
26	0x3d746454	0.059665993
27	0x3d9f1f6a	0.07769664
28	0xbb4d3972	-0.0031314758
29	0xbd24ba9b	-0.040217023
30	0xbd6b4d7d	-0.057446945
31	0xbe75415b	-0.23950712
32	0x3d266fa8	0.040633827
33	0x3cc4fde5	0.024046848
34	0x3e55bddd	0.20873208
35	0xbe82f176	-0.25574845
36	0x3db6d11d	0.08926604
37	0xbde7ac98	-0.113122165
38	0x3dc74e83	0.09731772
39	0xbd2ece2f	-0.0426771
40	0x3dc90327	0.098150544
41	0x3cae26a3	0.021258658
42	0x3e602fb0	0.21893191
43	0x3d97fcce	0.074212655
44	0x3e034a40	0.12821293
45	0x3dfb5fe0	0.12274146
46	0x3c4fe403	0.01268864
47	0xbe348dd3	-0.17632227
48	0x3e25a880	0.16177559
49	0x3e3203bb	0.17384236
50	0x3e39af43	0.18133263
51	0x3d9a2643	0.07526829
52	0x3e4660cd	0.19372864
53	0x3e2715c0	0.1631689
54	0xbdf8975a	-0.12138243
55	0xbe7006ba	-0.23440066
56	0xbd6e7ca8	-0.05822435
57	0xbd2a689f	-0.04160368
58	0xbe1107b6	-0.14163098
59	0xbd6b5fbe	-0.057464354
60	0x3d982ffa	0.07431026
61	0xbd24a1a8	-0.04019323
62	0xbbe200be	-0.006897061
63	0xbe6d9278	-0.23200405
64	0xbe2e5a51	-0.1702664
65	0xbddf502d	-0.10903964
66	0x3ca5a887	0.020221962
67	0xbe63a0f9	-0.22229375
68	0xbd7c2de7	-0.061567213
69	0x3e051c1a	0.12999001
70	0xbd8f3b70	-0.06993759
71	0x3dc60d37	0.09670489
72	0x3e819306	0.25307482
73	0x3d29e977	0.041482415
74	0xbdb53367	-0.08847695
75	0xbd86952f	-0.06571423
76	0xbd66f384	-0.05638458
77	0x3e467758	0.19381464
78	0x3d802a97	0.06258123
79	0x3e224d2e	0.15849754
80	0xbd51578d	-0.051108886
81	0xbd621d39	-0.05520365
82	0x3b844d9e	0.004037573
83	0x3ae21b9a	0.0017250658
84	0xbd96b461	-0.07358623
85	0x3e26421e	0.16236159
86	0x3e194ab3	0.14969902
87	0xbd3a45f4	-0.04547687
88	0x3c41f043	0.011837068
89	0x3e0e4daf	0.13896821
90	0xbd765138	-0.06013605
91	0x3d5b4aa7	0.05353799
92	0x3ccf9959	0.025341677
93	0x3e243905	0.16037376
94	0x3da85dc0	0.082210064
95	0x3da94a8d	0.082661726
96	0x3d88328b	0.06650265
97	0xbde37b48	-0.111074984
98	0x3c8b0199	0.016968535
99	0xbd52f895	-0.051506598
100	0x3e0fb69d	0.14034505
101	0x3dae6c5a	0.0851676
102	0xbd9fc118	-0.078005016
103	0xbe15ca7a	-0.1462802
104	0x3da9d1f5	0.08291999
105	0xbd3f7769	-0.046744738
106	0xbdec8dbe	-0.11550473
107	0xbd59e7b5	-0.05319949
108	0xbdb9a619	-0.09064884
109	0xbe039bb0	-0.12852359
110	0x3d0d6e36	0.034528933
111	0xbc8f718b	-0.017510196
112	0x3d34f858	0.04418215
113	0xbdde5864	-0.10856703
114	0x3decd25d	0.11563561
115	0xbe357f53	-0.17724352
116	0xbc5a1d47	-0.013312644
117	0xbe7c5255	-0.24640782
118	0x3d9c22ac	0.07623801
119	0xbd7c165e	-0.06154477
120	0x3d50bc6a	0.050960936
121	0xbd2c66b8	-0.042090148
122	0xbe30d86b	-0.17270057
123	0xbb838b1e	-0.004014387
124	0x3d24ae11	0.040205065
125	0x3dcc9673	0.099896334
126	0x3d90339f	0.07041096
127	0xbe1dc6c5	-0.15407856
128	0xbd071b7c	-0.032985196
129	0x3c2e0cb6	0.010623148
130	0xbd116900	-0.035500526
131	0x3c9d7d6b	0.019224843
132	0x3cd7793c	0.026302926
133	0x3c7b7533	0.015347767
134	0x3d3a8bc9	0.045543466
135	0x3c4519f7	0.012030116
136	0xbc71857a	-0.014741296
137	0xbb7c78ce	-0.0038524154
138	0xbcaed852	-0.021343384
139	0x3ca0c091	0.019623073
140	0xbd16b6d8	-0.036795467
141	0xbbc5a3bd	-0.006031482
142	0xbccab4dc	-0.024744444
143	0xbd015432	-0.031574436
144	0xbc11a44b	-0.008889268
145	0xbc2079e9	-0.009794691
146	0xbcb53690	-0.022120744
147	0xbbd333fa	-0.006445405
148	0xbbf6b193	-0.0075284927
149	0xbc8e5ee2	-0.017379228
150	0xbc15712c	-0.009121221
151	0x3c70c3e2	0.01469514
152	0x3c974443	0.018465167
153	0x3d460570	0.04834503
154	0x3cb81651	0.022471579
155	0xbc8fd955	-0.017559687
156	0x3bb872bb	0.0056289113
157	0xbd0f7a96	-0.035029016
158	0xbb1be23a	-0.0023785965
159	0xbd07bc8b	-0.033138793
160	0x3bebec5f	0.0071998085
161	0x3c99a766	0.01875658
162	0x3d4be2aa	0.04977671
163	0xbcc6db82	-0.024274591
164	0x3cb7f296	0.022454541
165	0x3bac547e	0.0052590957
166	0x3c800fa8	0.015632465
167	0x3c46bda9	0.012130179
168	0x3cfb95b7	0.030711038
169	0xbc18684a	-0.009302208
170	0x3be298d3	0.0069151907
171	0xbbcefbd1	-0.00631664
172	0xbc1051f0	-0.008808598
173	0xbc2aba91	-0.010420457
174	0x3927a8ad	0.00015989198
175	0xbc2fc862	-0.010728927
176	0x3c804940	0.015659928
177	0x3c2abd58	0.01042112
178	0x3c950768	0.018192008
179	0x3bc591ef	0.0060293595
180	0x3c325b53	0.010886031
181	0x3bff2ba1	0.0077871834
182	0x3beee128	0.0072900243
183	0xbc549e8c	-0.012977254
184	0x3cb98a6e	0.022649016
185	0xbb38f0f2	-0.0028219786
186	0xbc5ea186	-0.013588315
187	0xbc222e15	-0.009898682
188	0x3d0c70fa	0.03428743
189	0xbc422d26	-0.011851585
190	0x3c1566ec	0.009118777
191	0xbc8125da	-0.01576512
192	0xbcbdf7cc	-0.023189448
193	0x3bd84d65	0.006601023
194	0x3cc988ae	0.024601307
195	0xbcef8dc4	-0.029242404
196	0xbc17dcf7	-0.009268991
197	0x3cde4a5a	0.027135063
198	0xbc360c46	-0.011111325
199	0x3c771c3e	0.015082417
200	0x3c8e3875	0.017360905
201	0x3bdc03a9	0.0067143035
202	0x3c9044f4	0.017611004
203	0x3b03ce1c	0.0020111864
204	0x3bc909ab	0.0061351857
205	0xbb8ce44c	-0.004299676
206	0xbbc80e30	-0.006105207
207	0xbc11b268	-0.008892633
208	0x3c57c039	0.013168388
209	0x3bfa68c5	0.007641884
210	0x3c2aa416	0.010415098
211	0x3c26c494	0.010178704
212	0xbcb58b57	-0.022161169
213	0x3ce7657e	0.028246637
214	0x3ab43742	0.0013749378
215	0xbbbc3ef0	-0.0057448074
216	0x3c0cef93	0.008602041
217	0x3c28c89e	0.010301737
218	0xbd08094b	-0.033211987
219	0xbbe5afdb	-0.007009489
220	0x3c976527	0.01848085
221	0xbbc7f7a2	-0.006102518
222	0xbb52bd29	-0.0032156205
223	0xbc1e4302	-0.009659531
224	0xbc93a8df	-0.01802486
225	0xbb5cf170	-0.0033713244
226	0x3d01be73	0.031675767
227	0xbc5f4b98	-0.013628863
228	0x3c7d318e	0.015453709
229	0xbc2261ad	-0.009910983
230	0xbcc3a5d5	-0.023882786
231	0xbc1b38a2	-0.0094739515
232	0x3c77be69	0.015121081
233	0xbad4abf9	-0.0016225568
234	0xbc7f9c48	-0.015601225
235	0x3935eff5	0.00017350896
236	0xbcc76190	-0.024338514
237	0xbcfa2fe5	-0.030540416
238	0x3af994c9	0.0019041534
239	0x3b89a2ee	0.004200331
240	0x3cf0a22a	0.0293742
241	0x3b3e65de	0.0029052417
242	0x3bfb5cc6	0.0076709716
243	0xbcb5845b	-0.022157839
244	0xbcd4e4cc	-0.025988005
245	0xbc5aefba	-0.013362819
246	0x3cbe5e64	0.023238368
247	0xbd051275	-0.032488305
248	0xbcde6dd6	-0.027151983
249	0xba86e6e2	-0.0010292197
250	0x3c7165fd	0.014733789
251	0xbd007a5e	-0.0313667
252	0x3cdd8269	0.027039723
253	0xbcb5be93	-0.0221856
254	0x3c916360	0.017747581
255	0x3c884cd1	0.016638191

transformer.h.0.ln_1.weight f4 [128]
0	0x3f7e5f88	0.9936452
1	0x3f842f15	1.0326868
2	0x3f7296f0	0.9476156
3	0x3f7f2860	0.9967098
4	0x3f824df1	1.0180036
5	0x3f7b9793	0.9827816
6	0x3f798a5e	0.97476757
7	0x3f7c5b5f	0.9857692
8	0x3f76b1e7	0.9636521
9	0x3f7f2b47	0.9967541
10	0x3f696d63	0.91182536
11	0x3f7c1c85	0.9848102
12	0x3f718d8d	0.94356614
13	0x3f764a93	0.9620754
14	0x3f7a4988	0.9776845
15	0x3f814d40	1.01017
16	0x3f783763	0.96959513
17	0x3f7bbe7f	0.9833755
18	0x3f7d13cc	0.9885833
19	0x3f7c31b8	0.98513365
20	0x3f77b99a	0.9676758
21	0x3f78d0ed	0.97193795
22	0x3f84341e	1.0328405
23	0x3f78bf5b	0.97166985
24	0x3f80bbb7	1.0057286
25	0x3f7a57f6	0.9779047
26	0x3f6b76dc	0.9197824
27	0x3f80d6c7	1.0065545
28	0x3f73c3eb	0.9522082
29	0x3f80b2c6	1.0054557
30	0x3f82a846	1.0207603
31	0x3f798d9b	0.974817
32	0x3f7926ad	0.9732464
33	0x3f73a77c	0.95177436
34	0x3f753118	0.95778036
35	0x3f84f27f	1.0386504
36	0x3f732c69	0.9498964
37	0x3f7e39e4	0.99307084
38	0x3f730e73	0.9494392
39	0x3f81fb9d	1.0154911
40	0x3f75b2f6	0.959762
41	0x3f82c798	1.0217161
42	0x3f77ac6e	0.9674748
43	0x3f8499b3	1.0359405
44	0x3f8357bc	1.026115
45	0x3f847c11	1.0350362
46	0x3f763880	0.9617996
47	0x3f794da6	0.9738411
48	0x3f81077b	1.0080408
49	0x3f74f15a	0.95680773
50	0x3f8341df	1.0254477
51	0x3f80a22d	1.0049492
52	0x3f7be531	0.98396593
53	0x3f8113fe	1.0084226
54	0x3f790daa	0.97286475
55	0x3f79b53a	0.97542155
56	0x3f808f62	1.0043757
57	0x3f7d3953	0.98915595
58	0x3f7c11b9	0.9846454
59	0x3f783042	0.96948636
60	0x3f7cc578	0.98738813
61	0x3f7f050f	0.99617094
62	0x3f76d401	0.9641724
63	0x3f79e004	0.97607446
64	0x3f80709e	1.0034368
65	0x3f6db1e4	0.92849565
66	0x3f7c4169	0.9853731
67	0x3f73cc3c	0.9523351
68	0x3f81f10b	1.0151685
69	0x3f7a049f	0.976633
70	0x3f81ad9c	1.0131106
71	0x3f7d648b	0.9898154
72	0x3f817563	1.0113949
73	0x3f77279f	0.9654483
74	0x3f83c43b	1.029426
75	0x3f7bdc22	0.9838277
76	0x3f7f3818	0.9969497
77	0x3f8000fa	1.0000298
78	0x3f82958f	1.0201892
79	0x3f8384e4	1.027493
80	0x3f7db5cd	0.9910553
81	0x3f80dbd0	1.0067081
82	0x3f820ee4	1.0160794
83	0x3f7f684e	0.9976853
84	0x3f7f9823	0.9984152
85	0x3f7b799f	0.98232454
86	0x3f7cf847	0.9881634
87	0x3f794635	0.9737275
88	0x3f7d2569	0.9888521
89	0x3f7f8fdd	0.9982889
90	0x3f7da2c3	0.9907648
91	0x3f766368	0.9624543
92	0x3f845fbe	1.0341718
93	0x3f7f935e	0.9983424
94	0x3f831725	1.0241438
95	0x3f80b1c2	1.0054247
96	0x3f804320	1.0020485
97	0x3f80db18	1.0066862
98	0x3f74b09b	0.9558198
99	0x3f7a3633	0.9773895
100	0x3f6e8c02	0.93182385
101	0x3f77bdcd	0.9677399
102	0x3f821265	1.0161864
103	0x3f7c10f3	0.9846336
104	0x3f83cbe3	1.0296596
105	0x3f8554af	1.0416468
106	0x3f7f20ac	0.9965923
107	0x3f7d4d9e	0.9894656
108	0x3f8058a8	1.0027056
109	0x3f73b64d	0.95200044
110	0x3f854cb5	1.0414034
111	0x3f82abd7	1.0208691
112	0x3f760950	0.9610796
113	0x3f776fc7	0.96654934
114	0x3f808786	1.0041358
115	0x3f7c0dd7	0.9845862
116	0x3f77441c	0.965883
117	0x3f823e21	1.017521
118	0x3f7ae156	0.98000085
119	0x3f770264	0.9648802
120	0x3f7ba701	0.983017
121	0x3f7cb532	0.9871398
122	0x3f6f0b3f	0.93376535
123	0x3f779cf2	0.96723855
124	0x3f72553f	0.94661325
125	0x3f70f965	0.94130546
126	0x3f82a49a	1.0206482
127	0x3f7a396f	0.97743887

transformer.h.0.attn.c_attn.weight f4 [384, 128]
0	0xbbbb2c8e	-0.0057120984
1	0x3a6714c0	0.00088150427
2	0xbcdf9228	-0.027291372
3	0xbd238c19	-0.03992853
4	0xbd379c46	-0.04482677
5	0x3cbf11a2	0.023323838
6	0xbc8d0ca2	-0.017217938
7	0x3d1ce104	0.03830053
8	0xbc609075	-0.013706316
9	0xbd2d171f	-0.042258378
10	0xbcfb185b	-0.030651262
11	0x3d76edc8	0.06028536
12	0x3c8a1ed8	0.01686041
13	0x3d1188d1	0.03553087
14	0x3cecdbf0	0.028913468
15	0xbbf669e0	-0.0075199455
16	0x3d06dd24	0.03292574
17	0xbd360022	-0.04443372
18	0xbd4f4b6a	-0.05060903
19	0xbba2661e	-0.004956021
20	0xbc746287	-0.014916069
21	0x3c6e634a	0.01455004
22	0x3a852c75	0.0010160344
23	0xbc15eee0	-0.0091511905
24	0xbcc78aff	-0.02435827
25	0xbd0c8ade	-0.03431212
26	0xbd4f9704	-0.05068113
27	0x3d379960	0.044824004
28	0xbc94c62c	-0.018160902
29	0x3cc5878b	0.024112483
30	0xbbbd2f28	-0.0057734437
31	0xbb47b5bf	-0.003047332
32	0xbd348b40	-0.04407811
33	0x3c8b4fd4	0.017005838
34	0x3c6f8da9	0.014621177
35	0xbb9cf642	-0.0047900984
36	0xbd3b6a3c	-0.04575561
37	0xbd4d5662	-0.05013121
38	0x3cde6b30	0.02715072
39	0xbd3e4cab	-0.046459835
40	0x3bb8ae00	0.005635977
41	0x3cb53816	0.02212147
42	0x3c61c216	0.013779184
43	0x3ce48495	0.027895251
44	0x3c15f320	0.009152204
45	0x3cd24327	0.025666786
46	0x3c9ff01d	0.019523675
47	0xbd50080b	-0.05078892
48	0xbcd1286d	-0.025531972
49	0x3ced0765	0.02893419
50	0xba869f4c	-0.0010270863
51	0x3bf38596	0.007431696
52	0x3c9edc1b	0.019392064
53	0x3c9d2ce6	0.019186448
54	0xbb677509	-0.003531756
55	0xbb9b9b19	-0.0047487137
56	0x3bb1247f	0.005405962
57	0xbd220f7c	-0.03956555
58	0xbd576475	-0.052586038
59	0x3cad14ec	0.02112814
60	0x3c44b04d	0.012004924
61	0xbb53f20f	-0.0032340323
62	0x3c758677	0.014985672
63	0xbd506916	-0.050881468
64	0x3cfd7aec	0.030942403
65	0xbca4a87e	-0.020099875
66	0xbcb0465e	-0.021517929
67	0xbceb59b3	-0.028729295
68	0x3b337cc0	0.002738759
69	0x3cffbb2c	0.03121718
70	0xbcd58aa3	-0.026067084
71	0xbcbf16ce	-0.023326304
72	0x3d32d5c0	0.04366088
73	0x3cda2e8c	0.026633523
74	0xbd068fd4	-0.03285201
75	0xbd3543e8	-0.044254214
76	0x3d32c3c8	0.043643743
77	0x3da058e1	0.07829452
78	0xbc0e286c	-0.0086766295
79	0x3d125d97	0.035733785
80	0x3c1ff0ce	0.009762002
81	0xbc6e6b19	-0.014551901
82	0xbd9ae709	-0.07563598
83	0x3ca1e3ac	0.019761883
84	0x3d8bd869	0.06828386
85	0x3d3669eb	0.044534605
86	0x3c2c105e	0.010501949
87	0xbccacbe4	-0.024755426
88	0x3cf85c91	0.030317577
89	0xbc8a4df2	-0.01688287
90	0x3ce1a2d4	0.027543463
91	0x3d411418	0.047138304
92	0xbcab130b	-0.020883104
93	0x3c905d13	0.017622506
94	0x3c858031	0.016296478
95	0x3d8505ee	0.064952716
96	0xbd52351d	-0.051320184
97	0x3af8afd7	0.0018973303
98	0x3a1c1959	0.0005954705
99	0x3ce52d85	0.027975807
100	0x3d2cec9e	0.042217843
101	0xbb8a0932	-0.004212522
102	0x3a93bd48	0.001127162
103	0xbcb9181c	-0.022594504
104	0x3d03ec12	0.032207556
105	0x3a4d95d6	0.00078424567
106	0x3c2f178e	0.010686768
107	0xbd7918e2	-0.060814746
108	0xbb43be92	-0.0029868227
109	0xbccf4ed6	-0.025306147
110	0x3c6180fa	0.013763661
111	0x3aba17af	0.0014197732
112	0xbbeed57a	-0.007288632
113	0xbcc75d47	-0.02433647
114	0xbb98fda2	-0.0046689073
115	0xbd2a40e2	-0.041565783
116	0xbbddfd5d	-0.006774588
117	0xbd5e1db8	-0.05422756
118	0xbd6707d2	-0.056403942
119	0x3ca955f6	0.020670872
120	0xbcad97dd	-0.021190578
121	0x3ce5c964	0.028050132
122	0xbd4485db	-0.047979217
123	0x3c84d9e2	0.016217176
124	0x3d0d4bb8	0.03449604
125	0xbd346be2	-0.044048198
126	0x3d2f0e32	0.042738147
127	0xbcefcbbd	-0.029271955
128	0x3c4f445c	0.0126505755
129	0xbcb8f346	-0.02257694
130	0xbca89f08	-0.020583645
131	0xbd740605	-0.059576053
132	0xbd87fb20	-0.06639695
133	0x3d1422cc	0.036165997
134	0xbd0e46d4	-0.034735516
135	0x3c47e922	0.012201579
136	0xbd21bb3e	-0.03948521
137	0x3cc9e820	0.024646819
138	0xbd2021ca	-0.039094724
139	0xbcb3c660	-0.021945179
140	0x3d0553be	0.032550566
141	0x3cc742a9	0.024323778
142	0x3c5a8e9e	0.013339667
143	0xbcc97618	-0.024592444
144	0xbba3f8b0	-0.005004011
145	0xbb98c4cc	-0.004662132
146	0x3c5c8769	0.013460019
147	0xbc6b5ca1	-0.014365346
148	0xbb4fb883	-0.003169567
149	0x3ba8e9f0	0.0051548406
150	0xbcb49f71	-0.022048684
151	0x3cc3ec8b	0.023916503
152	0xbc11c169	-0.00889621
153	0xbceb17c2	-0.028697852
154	0xbcf1c5c5	-0.02951325
155	0xbd35395f	-0.044244166
156	0xbb9ce81c	-0.004788412
157	0x3cd3d34f	0.025857596
158	0xbd0c8072	-0.034302182
159	0xbc9c0bdc	-0.019048624
160	0xbc40f93e	-0.011778174
161	0xbceb3507	-0.028711809
162	0x3c398b8c	0.0113247745
163	0xbd0cae85	-0.034346122
164	0xbd073e7f	-0.033018585
165	0xbafaced7	-0.0019135129
166	0x3d60cf6f	0.054885324
167	0xbce6dad6	-0.028180521
168	0xbca19e26	-0.019728731
169	0x3a90a5a6	0.0011035695
170	0x3d2db549	0.042409215
171	0x3bb2643d	0.0054440782
172	0xbd4723c4	-0.048618093
173	0x3cfe511e	0.031044539
174	0x3d2f6d8b	0.042829078
175	0xbcf038b3	-0.029323911
176	0xbbe8985c	-0.007098241
177	0xbb66b77d	-0.0035204582
178	0xbcd0b2b6	-0.025475841
179	0x3c299fbf	0.010353028
180	0x3c27de2d	0.010245842
181	0xba7121a9	-0.0009198436
182	0xbd8e171f	-0.06938004
183	0x3bdc0d4e	0.006715453
184	0xbc94aadb	-0.018147876
185	0xbd01f856	-0.031730972
186	0x3b4893dd	0.0030605712
187	0x3d31da7d	0.043421257
188	0xbaa115f6	-0.001228987
189	0xbc726941	-0.014795602
190	0x3c4aa586	0.012368565
191	0xbcc9674f	-0.024585394
192	0x3d4182a0	0.047243714
193	0xbd315fec	-0.04330437
194	0x3b01846c	0.0019762767
195	0xbd7de7c1	-0.061988596
196	0x3cd4901c	0.025947623
197	0x3d9447a8	0.0724023
198	0xbc581448	-0.013188429
199	0x3c497f59	0.012298428
200	0x3cd15e44	0.025557645
201	0xbc60d0ac	-0.013721626
202	0xbc848e64	-0.016181178
203	0xbcb57a7f	-0.022153137
204	0x3cb8fba5	0.022580931
205	0x3bb8122f	0.005617402
206	0x3bb64986	0.005562964
207	0x3d226797	0.039649572
208	0x3cec9726	0.028880667
209	0xbca76aac	-0.020436607
210	0xbc9db0d1	-0.019249352
211	0xbc1c2b4a	-0.009531805
212	0x3d676e4d	0.056501675
213	0x3d395407	0.04524615
214	0x3d036a6d	0.032083917
215	0xbd6c7b4e	-0.05773478
216	0xbb56a1c4	-0.0032750228
217	0xbc2b353d	-0.010449705
218	0xbcefa588	-0.029253736
219	0x3d053ce0	0.032528758
220	0x3d0fc4a7	0.03509965
221	0x3d4ab282	0.049486645
222	0x3d18ac52	0.037273712
223	0x3ae8651f	0.0017730332
224	0xbd67f96e	-0.05663436
225	0x3900b1fb	0.00012273334
226	0xbca5d33b	-0.020242324
227	0x3b4f1551	0.00315984
228	0x3c6d39a5	0.014479076
229	0x3cd66d07	0.026175035
230	0xbcd8ba3c	-0.026455991
231	0x3d78123d	0.06056427
232	0x3d7633e3	0.060108077
233	0x3d66cb9c	0.05634652
234	0xbd829f32	-0.0637802
235	0xbd4c3c45	-0.049862165
236	0xbcb8c0dd	-0.022552902
237	0xbc9ca043	-0.019119387
238	0x3c8aa41c	0.016923957
239	0x3c1ef701	0.009702445
240	0xbd8506a7	-0.064954095
241	0xbcc2cb58	-0.023778602
242	0x3cfca448	0.030840054
243	0xbc57ca76	-0.013170829
244	0xbd9af09d	-0.075654246
245	0xbbb9a5c5	-0.005665513
246	0x3c1bc5b3	0.009507584
247	0x3b18bd16	0.0023306063
248	0xbd260078	-0.04052779
249	0xbd1b9132	-0.037980266
250	0x3c2d4132	0.010574626
251	0xbd07bfdf	-0.033141967
252	0x3c5e6cdc	0.013575759
253	0xbd4f9623	-0.05068029
254	0x3aab0777	0.0013048489
255	0xbba4bcc1	-0.005027384

transformer.h.0.attn.c_proj.weight f4 [128, 128]
0	0xbb47408c	-0.0030403463
1	0xbc1548a6	-0.009111559
2	0xbc25cec1	-0.010120095
3	0xba051e13	-0.0005078029
4	0x3cc2d9eb	0.023785552
5	0xbbca1114	-0.0061665867
6	0xbced4f48	-0.028968468
7	0xbb88f966	-0.0041801212
8	0xbcd382f1	-0.025819274
9	0xbc033c80	-0.00801003
10	0x3b8595c6	0.0040766923
11	0x3c880439	0.016603576
12	0x3d42f941	0.04760099
13	0x3c99fce7	0.018797351
14	0x3b5dab8d	0.0033824176
15	0xb9cebac0	-0.0003943052
16	0xbcda5566	-0.02665205
17	0x3c62c59f	0.013841062
18	0x3c164d99	0.009173774
19	0xbcc9150b	-0.024546167
20	0xbd6a6df3	-0.057233762
21	0xbbfa1b84	-0.0076326746
22	0x3d4b537f	0.049640175
23	0x3ca89e24	0.02058322
24	0x3929bc34	0.00016187207
25	0xbc649f28	-0.013953961
26	0xbd542b5e	-0.05179917
27	0x3c8d12c9	0.017220872
28	0xbd4e3e7b	-0.050352555
29	0xbcadb419	-0.021204041
30	0x3caf8936	0.021427732
31	0xbcf181d9	-0.029480861
32	0x3c01fd37	0.007933906
33	0x3b8c45b1	0.004280769
34	0x3b80d519	0.003931653
35	0x3cec0f32	0.02881584
36	0xbd1f9210	-0.038957655
37	0x3c3b479d	0.011430648
38	0x3c08d9d7	0.008352718
39	0x3c1734dd	0.009228912
40	0xbc3db77a	-0.011579389
41	0xbc589909	-0.01322008
42	0x3d5aa9a3	0.053384434
43	0xbb4208d9	-0.0029607324
44	0x3da28e7d	0.07937334
45	0xbc4a5ccd	-0.012351227
46	0xbcdc9476	-0.02692626
47	0xbcbb45cb	-0.022860428
48	0x3d35c1ad	0.044374157
49	0xbd0693ae	-0.032855682
50	0xba73fd02	-0.00093074155
51	0x3d27f300	0.041003227
52	0x3d0694e3	0.032856833
53	0x3c7e7fec	0.015533429
54	0x3a0dba69	0.00054065004
55	0xbca32a4d	-0.019917632
56	0xbb86c29c	-0.0041125547
57	0xbd270e2e	-0.040785007
58	0x3d40b006	0.04704287
59	0xbb33c943	-0.0027433194
60	0x3d60f57b	0.05492161
61	0xbcc7742d	-0.02434739
62	0x3cb038f1	0.021511527
63	0x3d2946d3	0.04132731
64	0x3b59c1d8	0.0033227112
65	0xbc541199	-0.012943649
66	0xbc26fc56	-0.0101919975
67	0xbc1a1d5f	-0.009406417
68	0x3c90035a	0.017579723
69	0xbc1de68a	-0.009637484
70	0xbcf2b632	-0.029627893
71	0x3c85e5b1	0.016344877
72	0xbc9027a5	-0.017597029
73	0x3d28dabb	0.041224223
74	0xbd02dbc0	-0.03194785
75	0xbb6c374e	-0.0036043706
76	0x3d5ee2b4	0.05441542
77	0x3b85ee37	0.0040872353
78	0x3c68faea	0.014219979
79	0xbd851ef5	-0.06500045
80	0x3bf08cbb	0.007340995
81	0x3b1f7ece	0.0024337056
82	0x3c92e838	0.017932996
83	0xbc8cc65b	-0.017184427
84	0xbd43253c	-0.04764293
85	0x3d7fef4d	0.062484074
86	0xbcb12361	-0.021623315
87	0x3b25686a	0.0025239238
88	0xbbe4b074	-0.0069790427
89	0x3d21e180	0.039521694
90	0xbbef46de	-0.007302149
91	0x3b0294ea	0.0019925185
92	0xbcb5fb2d	-0.022214497
93	0xbd86c903	-0.06581309
94	0xbd01a01b	-0.03164683
95	0xbca81e7a	-0.020522345
96	0x3d346952	0.044045754
97	0x3d40c3eb	0.047061842
98	0xbd3b6570	-0.045751035
99	0x3b5196a4	0.0031980658
100	0xbc14629d	-0.009056714
101	0xbc383b15	-0.011244555
102	0x3c8f4d0b	0.017492792
103	0xbd89dbcc	-0.06731376
104	0xba49dc1b	-0.000770034
105	0x3c84d420	0.01621443
106	0x3d2ca226	0.042146824
107	0x3c5245b6	0.012834003
108	0x3d7522b2	0.05984754
109	0x3d30b460	0.04314077
110	0xbd1b7742	-0.03795553
111	0x3d58d9c2	0.052942045
112	0x3cf9d6ce	0.030497935
113	0xbcbcde34	-0.023055173
114	0x3d446b8d	0.04795413
115	0xbd1d4cb4	-0.038403228
116	0xbc7239fc	-0.014784332
117	0xbbec458f	-0.0072104405
118	0xbd61a2f0	-0.05508703
119	0x3ca7870f	0.020450143
120	0x3d0bdb92	0.034144945
121	0xbcd0ef1f	-0.025504647
122	0x3ba2d611	0.0049693664
123	0xbb7c6b3e	-0.003851607
124	0x3b8047f1	0.003914826
125	0x3cf1bb70	0.029508322
126	0x3d081c60	0.033230186
127	0xbc9a9c86	-0.018873464
128	0x3c9b8222	0.01898295
129	0xbc1c8b31	-0.00955467
130	0x3d99453a	0.07483907
131	0x3c125fc8	0.008933969
132	0xbc0e2b99	-0.008677387
133	0xbc0a0d88	-0.008426078
134	0xbd2be512	-0.041966505
135	0xbc7dc87e	-0.015489696
136	0x3bfd51e1	0.007730708
137	0xbc9a6073	-0.018844819
138	0xbc83bbc1	-0.016080739
139	0xbc38836e	-0.011261804
140	0xbc8a32e6	-0.016869973
141	0x3c0a7143	0.008449855
142	0x3d124576	0.035710774
143	0x3c04264d	0.008065772
144	0x3ac1de81	0.0014791043
145	0x3d3ca284	0.046053424
146	0x3d1ba72d	0.038001228
147	0xbcbabc7b	-0.022794953
148	0xbcd7c188	-0.0263374
149	0x3c7d5c23	0.015463862
150	0xbbe6e036	-0.007045771
151	0xbd04c076	-0.032410108
152	0xbc5a2119	-0.013313555
153	0xba4160ce	-0.0007376791
154	0xbd159104	-0.03651525
155	0x3d1e1337	0.038592543
156	0xbdaa8a80	-0.08327198
157	0xba85b51e	-0.0010201072
158	0xba90e875	-0.0011055606
159	0xbbc128ec	-0.005894771
160	0x3c0f1997	0.008734128
161	0xbcdd0c02	-0.026983265
162	0xbaeece50	-0.0018219445
163	0xbc8e4f3d	-0.017371768
164	0x3d3fa23b	0.046785574
165	0x3cc9d5a4	0.024638005
166	0xba6c1768	-0.00090061733
167	0xbd37937c	-0.044818386
168	0x3c92812f	0.017883865
169	0xb8d92abd	-0.00010355327
170	0x3d8de145	0.069277324
171	0xbcc30b6b	-0.023809155
172	0xbcec1722	-0.028819624
173	0x3d6d6f7b	0.057967644
174	0x3cb443c8	0.022004977
175	0x3d0ac8e2	0.033882983
176	0xba05ce93	-0.00051043293
177	0x3c9ae31e	0.018907126
178	0xbdb28fc1	-0.08718825
179	0xbd632f5e	-0.055465095
180	0x3cab42dc	0.020905904
181	0xbd137ef6	-0.03600975
182	0x3ccbd4e2	0.024881784
183	0x3c5123f4	0.01276492
184	0xbc9ea4f7	-0.01936577
185	0xbda95b01	-0.08269311
186	0x3da3b193	0.07992854
187	0xbc927c70	-0.017881602
188	0x3c02a20a	0.007973203
189	0x3b182941	0.0023217949
190	0x3c86b425	0.016443321
191	0x3ab58506	0.0013848848
192	0xbbbf834c	-0.005844509
193	0x3c129b83	0.00894821
194	0x3c70b6ca	0.014692018
195	0x3afca499	0.0019275128
196	0xbd50b26f	-0.050951418
197	0x3af074bd	0.0018345338
198	0x3c055ec7	0.008140272
199	0xbd0657fc	-0.032798752
200	0xbd193478	-0.037403554
201	0xbc93a512	-0.018023048
202	0x3d606ce2	0.05479134
203	0xbcb2d39a	-0.021829415
204	0x3d3adbdc	0.04561983
205	0x3d2b092d	0.041756798
206	0xbd1eaa8d	-0.03873687
207	0x3b1c386b	0.0023837339
208	0x3d4dad02	0.05021382
209	0xbd17629e	-0.036959283
210	0x3cf92eac	0.030417763
211	0xbbdc99d8	-0.006732207
212	0xbd047ee4	-0.032347575
213	0x3c8217a2	0.01588041
214	0xbd05e3e1	-0.032688025
215	0xbb8eec03	-0.004361631
216	0x3d0bbce1	0.034115676
217	0x3bbedc0a	0.0058245705
218	0xbcce9bbb	-0.025220742
219	0x3b4c3619	0.0031160174
220	0xbb34a424	-0.0027563656
221	0x3bf5a4f2	0.0074964697
222	0xbd1f1d05	-0.038846035
223	0x3b965719	0.0045880196
224	0xbc18dc8c	-0.009329926
225	0x3c44a881	0.012003065
226	0xbc22205c	-0.00989541
227	0x3b04b48f	0.0020249223
228	0xbd06a736	-0.03287431
229	0x3cbed31d	0.023294026
230	0x3aea684f	0.001788387
231	0x3d755209	0.059892688
232	0x3d09c1bd	0.03363203
233	0x3cf49dcd	0.029860402
234	0x3d72cb3c	0.05927585
235	0xbc14b53b	-0.009076412
236	0x3d5bf6ee	0.053702287
237	0xbd417486	-0.047230266
238	0x3b9525f9	0.004551646
239	0xbbb6feb2	-0.0055845613
240	0xbdad799a	-0.08470459
241	0xbc140ba8	-0.009035982
242	0x3b99251f	0.0046736146
243	0xbbb5088b	-0.0055247
244	0x3d5cb98e	0.053887896
245	0x3d227fee	0.039672785
246	0x3bd21fad	0.0064124675
247	0x3d19d40a	0.03755573
248	0xbc0cfc23	-0.008605036
249	0x3b93619f	0.0044977213
250	0xbd0ebb85	-0.0348468
251	0xbc52df7c	-0.012870666
252	0xbb9dc103	-0.0048142686
253	0xbb507b88	-0.0031811912
254	0xbca4498e	-0.020054605
255	0x3c7f5168	0.015583374

transformer.h.0.ln_2.weight f4 [128]
0	0x3f9de725	1.2336165
1	0x3f9cbe97	1.2245663
2	0x3f9ccad8	1.2249403
3	0x3f9bde03	1.2177128
4	0x3f980be0	1.1878624
5	0x3f9c0da6	1.2191665
6	0x3f99f229	1.2027026
7	0x3f9fedb3	1.2494415
8	0x3f9924eb	1.1964391
9	0x3f99c3a7	1.2012833
10	0x3f9bbb53	1.2166542
11	0x3f988502	1.1915591
12	0x3f976113	1.18265
13	0x3f9ebe7c	1.2401881
14	0x3f995646	1.1979454
15	0x3f9d2d00	1.2279358
16	0x3f98b68c	1.1930709
17	0x3f9b9637	1.2155217
18	0x3f9938dc	1.1970477
19	0x3f9c72f0	1.2222576
20	0x3f99e450	1.20228
21	0x3f9642a0	1.1739082
22	0x3f9e5212	1.2368796
23	0x3f98bcc5	1.1932608
24	0x3f9bcbba	1.2171547
25	0x3f9fe899	1.2492858
26	0x3f97d5d6	1.1862133
27	0x3fa10c86	1.2581947
28	0x3f96d299	1.1783019
29	0x3f95aa87	1.1692666
30	0x3f9183b0	1.1368313
31	0x3f9c8921	1.2229348
32	0x3f992d7f	1.1967009
33	0x3f99bd18	1.2010832
34	0x3f9970ad	1.1987511
35	0x3f99aeef	1.200651
36	0x3f9c8ce5	1.2230498
37	0x3f9929a2	1.196583
38	0x3f99f561	1.2028009
39	0x3f9aee5b	1.210399
40	0x3f9bfecd	1.2187134
41	0x3f997e87	1.1991738
42	0x3fa67980	1.3005829
43	0x3f9cc81d	1.224857
44	0x3f9a4d0a	1.205476
45	0x3f9f6721	1.2453347
46	0x3f9727c4	1.180901
47	0x3f99f529	1.2027942
48	0x3f9b1458	1.2115583
49	0x3f9bcb87	1.2171487
50	0x3f99e3a6	1.2022598
51	0x3f9b6ffe	1.2143552
52	0x3f9a61a8	1.2061052
53	0x3f98c7fb	1.1936029
54	0x3f98c42b	1.1934866
55	0x3fa0fd07	1.2577218
56	0x3f992728	1.1965075
57	0x3f9d20ce	1.2275636
58	0x3f95647c	1.167129
59	0x3f997e58	1.1991682
60	0x3f9f3916	1.2439296
61	0x3f983c28	1.1893358
62	0x3f9b31d4	1.2124581
63	0x3f9cc74e	1.2248323
64	0x3f9b4fe3	1.2133754
65	0x3f9e4e00	1.2367554
66	0x3f9befb0	1.2182522
67	0x3f9ccc78	1.2249899
68	0x3f9a754f	1.206705
69	0x3fa34273	1.2754654
70	0x3f9e11b4	1.2349153
71	0x3f94e286	1.163163
72	0x3f9e1ff7	1.2353505
73	0x3f9714dd	1.1803242
74	0x3fa09a11	1.2547017
75	0x3f999280	1.1997833
76	0x3f9b3afe	1.2127378
77	0x3f9ebbe0	1.2401085
78	0x3f9525d4	1.1652169
79	0x3f993ae0	1.1971092
80	0x3f9822e2	1.1885645
81	0x3f9bbf18	1.2167692
82	0x3f995a9e	1.1980779
83	0x3f98e2ea	1.1944249
84	0x3f9d1489	1.2271892
85	0x3f9cd4b0	1.2252407
86	0x3f9c493d	1.220985
87	0x3f99e022	1.2021525
88	0x3f98c2dd	1.1934468
89	0x3f997deb	1.1991552
90	0x3f9c113a	1.2192757
91	0x3f95b056	1.1694438
92	0x3fa063dd	1.2530476
93	0x3f9d960f	1.2311419
94	0x3f99ded2	1.2021124
95	0x3fa0fc24	1.2576947
96	0x3f9abea8	1.2089434
97	0x3f9f1a8d	1.2429978
98	0x3f978cdd	1.1839863
99	0x3f9d1528	1.2272081
100	0x3f9d5cb2	1.2293913
101	0x3f9d20a8	1.2275591
102	0x3f9de1f7	1.2334584
103	0x3f993837	1.197028
104	0x3f9bbf88	1.2167826
105	0x3f9b522f	1.2134455
106	0x3f99c8de	1.2014425
107	0x3f984be2	1.1898158
108	0x3f997e3b	1.1991647
109	0x3f9a6ce4	1.2064481
110	0x3fa2c9aa	1.2717793
111	0x3f9f9931	1.2468625
112	0x3f9890e0	1.1919212
113	0x3f9533fa	1.1656487
114	0x3f9687ec	1.176023
115	0x3f9a59a4	1.2058606
116	0x3f97a6ea	1.1847813
117	0x3fa5da0d	1.2957169
118	0x3f9c1df5	1.2196642
119	0x3f9dcce6	1.2328155
120	0x3f9985bf	1.1993941
121	0x3f9b63ac	1.2139792
122	0x3f99bf5a	1.2011521
123	0x3f9cbf74	1.2245927
124	0x3f99c158	1.2012129
125	0x3f98e8ce	1.1946046
126	0x3f9b36d1	1.2126104
127	0x3f9b2dea	1.2123387

transformer.h.0.mlp.c_fc.weight f4 [512, 128]
0	0x3dcc78cd	0.099839784
1	0x3d71706b	0.0589451
2	0x3d63054d	0.055424977
3	0x3d21cc39	0.039501403
4	0x3d80b530	0.06284559
5	0xbce8bd69	-0.02841063
6	0xbd32271b	-0.043494325
7	0xbd449d9a	-0.048001863
8	0xbd39c0dc	-0.04534994
9	0x3de8c49d	0.11365626
10	0xbbe1562e	-0.0068767285
11	0x3df5c13a	0.11999746
12	0x3c7ec6e0	0.015550345
13	0xbd6bcd78	-0.057568997
14	0x3cd08d10	0.025457889
15	0xbbb64ff6	-0.0055637313
16	0x3ce55e0a	0.027998943
17	0x3df288c0	0.11842489
18	0x3d443015	0.047897417
19	0x3d39c36e	0.045352392
20	0xbdeb4d52	-0.11489357
21	0xbdac799d	-0.084216334
22	0x3c267c4e	0.0101614725
23	0x3c3fba4f	0.011702134
24	0xbc53d8c6	-0.012930101
25	0x3da4d392	0.08048166
26	0xbb86d57b	-0.0041148043
27	0xbd18bfe1	-0.037292365
28	0x3ddcc784	0.10780242
29	0xbc837487	-0.016046776
30	0x3d46d200	0.048540115
31	0x3cf4164e	0.029795792
32	0x3d12c907	0.035836246
33	0xbcb3b9df	-0.021939216
34	0xbd82e3d4	-0.06391111
35	0xbca7d01e	-0.02048498
36	0x3c19d3f7	0.009388915
37	0x3dc27da5	0.09496621
38	0xba63e6bf	-0.00086937466
39	0x3c271ac1	0.01019925
40	0xbd0e4879	-0.034737084
41	0xbc7a45b6	-0.015275409
42	0x3c9c9f4a	0.019118924
43	0xbd9a3d9a	-0.07531281
44	0xbd1be95d	-0.03806435
45	0x3d62c6f8	0.055365533
46	0xbd138187	-0.0360122
47	0xbc24bdbc	-0.010055002
48	0x3d673942	0.05645109
49	0xbd69f4c1	-0.05711818
50	0x3d59f0ea	0.05320827
51	0xbda77a32	-0.08177604
52	0xbd77b5fa	-0.06047628
53	0x3da451c7	0.0802341
54	0x3d0c103e	0.034195177
55	0x3b30b48c	0.0026963083
56	0xbc0ace86	-0.008472091
57	0x3d04e6b3	0.032446574
58	0xbce07d1f	-0.027403412
59	0x3c692368	0.014229633
60	0xbd2c9fd4	-0.04214461
61	0xbd80861b	-0.062755786
62	0xbd588a1b	-0.052866083
63	0x3c5689b3	0.0130943535
64	0xbcf8881a	-0.030338336
65	0xbcf683e0	-0.03009218
66	0xbba769ff	-0.0051090713
67	0xbd5de1d4	-0.054170445
68	0xbc19238d	-0.009346855
69	0xbbd8599b	-0.0066024787
70	0xbc690d3b	-0.014224346
71	0x3d0cace0	0.034344554
72	0x3c070cbc	0.008242782
73	0x3b823e34	0.0039747003
74	0x3d226430	0.039646327
75	0x3d11615b	0.035493236
76	0x3ba01a61	0.004885957
77	0xbd6e4794	-0.05817373
78	0xbc7fd0ff	-0.015613793
79	0xbd4881ca	-0.0489519
80	0x3d48b6b1	0.049002353
81	0xbb43a1a8	-0.0029850993
82	0x3c677d7d	0.01412904
83	0x3c71e317	0.014763615
84	0xbd052f1f	-0.03251564
85	0x3c08e80c	0.008356106
86	0xbdd9e2bf	-0.106389515
87	0xbce624ba	-0.028093684
88	0xbcb1f2ed	-0.021722281
89	0x3ca93f16	0.020659965
90	0xbd5800af	-0.052735027
91	0xbd9c9616	-0.07645814
92	0x3d48f3f5	0.04906078
93	0x3c380da0	0.011233717
94	0xbd216525	-0.0394031
95	0x3d95c4e5	0.07312945
96	0xbd21f076	-0.039535962
97	0xbd2d6055	-0.042328198
98	0x3d49fa5e	0.049311034
99	0x3c8643b8	0.016389713
100	0xbdbf7388	-0.09348208
101	0xbb92dbba	-0.00448176
102	0x3c0bd159	0.008533799
103	0x3d64a368	0.0558199
104	0xbd3a3078	-0.04545638
105	0x3d752ffb	0.05986021
106	0xbc586238	-0.013207011
107	0x3da3744e	0.07981168
108	0x3cf8e32d	0.030381763
109	0x3db23b19	0.08702678
110	0xbde1829e	-0.110112414
111	0xbddb7b18	-0.10716838
112	0x3e09add9	0.13445224
113	0x3d6191c7	0.055070665
114	0xbcedb69b	-0.029017737
115	0x3d75eed7	0.06004223
116	0xbcf9a65e	-0.030474838
117	0xbc9febe0	-0.019521654
118	0x3d718065	0.058960337
119	0xbc943371	-0.018090935
120	0xbd483171	-0.048875276
121	0xbd4da4ce	-0.050205998
122	0xbc8dc158	-0.017304108
123	0x3b8d25f7	0.0043075043
124	0xbc3d2daa	-0.011546532
125	0x3974e19c	0.000233537
126	0xbcd928e4	-0.026508756
127	0x3d8a6b2c	0.06758723
128	0x3dae2de0	0.08504844
129	0x3d8971a3	0.067111276
130	0xbccb8397	-0.02484302
131	0xbcbd6323	-0.023118561
132	0xbcf0193a	-0.029308904
133	0xbd3dbe53	-0.046324085
134	0xbc310b5d	-0.010805932
135	0xbd443e60	-0.047911048
136	0xbcce5933	-0.025189018
137	0x3d0d5871	0.034508172
138	0xbd149143	-0.036271345
139	0xbc809579	-0.015696274
140	0xbda06c45	-0.07833151
141	0x3cff5bd2	0.031171713
142	0xbcd7947a	-0.026315916
143	0x3c164f5f	0.009174197
144	0x3d7dee9c	0.061995134
145	0x3c02c344	0.007981125
146	0x3d2c6bfb	0.042095166
147	0x3cb46e5e	0.022025283
148	0xbd0820c9	-0.03323439
149	0x3d7999c7	0.06093767
150	0xbd0f44b7	-0.03497764
151	0xbc2fc3d8	-0.010727845
152	0x3cdd8f40	0.027045846
153	0xbb9c6fb8	-0.00477406
154	0xbc3b37bb	-0.011426861
155	0x3a20ab06	0.0006129
156	0xbd0daed9	-0.034590576
157	0x3bbb4ccf	0.0057159434
158	0x3c5da088	0.013527043
159	0xba211be7	-0.00061458204
160	0x3cef13e7	0.029184295
161	0x3d7a3bf1	0.06109232
162	0x3ba0e35f	0.0049099172
163	0x3dbf6311	0.09345067
164	0x3ddfa498	0.10920066
165	0xbd9a5fc4	-0.07537797
166	0x3d4bea18	0.049783796
167	0x3d587504	0.05284597
168	0xbda9dc4c	-0.082939714
169	0xbdd044c8	-0.10169369
170	0x3cb5cc0e	0.022192027
171	0x3ca7e003	0.02049256
172	0xbd2cebd7	-0.042217102
173	0xbd528038	-0.05139181
174	0xbd5d4bf2	-0.054027505
175	0x3cd31cc0	0.025770545
176	0xbced35eb	-0.028956374
177	0xbd323102	-0.04350377
178	0xbdbb770f	-0.09153568
179	0x3cebfd11	0.028807195
180	0x3b20b8cf	0.0024524217
181	0xbcda2f19	-0.026633786
182	0x3c84c1fb	0.016205778
183	0x3d7b4a91	0.06135041
184	0x3da91e74	0.082577616
185	0x3cea9044	0.028633244
186	0xbd440511	-0.047856394
187	0x3ca44a69	0.020055013
188	0xbcf403d0	-0.029786974
189	0xbda632b5	-0.0811514
190	0xbd13a380	-0.036044598
191	0xbd19eb2c	-0.037577793
192	0x3ce82962	0.028340045
193	0x3d1f7d96	0.038938127
194	0xbbe28158	-0.0069123916
195	0xbbb45281	-0.0055029993
196	0xbdad4074	-0.08459559
197	0xbd18305c	-0.037155494
198	0xbd51d893	-0.051231932
199	0xbc3943d9	-0.01130768
200	0xbced09c0	-0.028935313
201	0x3c98de82	0.018660787
202	0x3d7bba95	0.061457235
203	0xbba44ccb	-0.0050140372
204	0xbd0d5867	-0.034508135
205	0x3c39c83c	0.0113392435
206	0xbd081930	-0.033227146
207	0xbd919a13	-0.071094655
208	0xbbb0c140	-0.005394131
209	0x3d420c60	0.047375083
210	0xbd837810	-0.064193845
211	0xbd06a30e	-0.032870345
212	0x3d0d19a2	0.034448273
213	0xbbdc0997	-0.0067150104
214	0xbcf5f287	-0.030022873
215	0x3dbcbc01	0.092155464
216	0xbbe3b4a7	-0.0069490257
217	0xbc7398dc	-0.0148679875
218	0xbc9759c1	-0.018475415
219	0xbc5883e3	-0.013215038
220	0x3c2f7b37	0.010710529
221	0xbd6fc2d6	-0.05853542
222	0x3d0ae4f1	0.03390974
223	0xbdbd730e	-0.092504606
224	0x3d8b9973	0.068163775
225	0x3bbcf2a1	0.0057662283
226	0x3c1aa621	0.009439022
227	0xbc072ae7	-0.008249975
228	0x3c9e0f84	0.019294508
229	0xbd930f22	-0.07180621
230	0xbccfdd59	-0.025374101
231	0xbd5e966f	-0.054342683
232	0x3c866978	0.016407713
233	0xbbbe5ccf	-0.0058094035
234	0xbbebb6b9	-0.007193413
235	0xbaf62e1d	-0.0018782053
236	0x3dd5b597	0.10435026
237	0x3a1e1761	0.00060307054
238	0xbac7c4ef	-0.0015241186
239	0x3bc47e8b	0.0059965304
240	0x3da14d5e	0.07876085
241	0xbd2f3670	-0.042776525
242	0xbc818cb0	-0.015814155
243	0x3c7e1c99	0.015509748
244	0x3c00d0fa	0.007862324
245	0x3d6a755f	0.05724084
246	0x3d659e37	0.05605909
247	0x3d0dc43e	0.03461098
248	0x3cfb3912	0.030666862
249	0x3d31972a	0.043357052
250	0xbce2b1f1	-0.02767274
251	0xbd8aea3c	-0.06782958
252	0x3d5641ce	0.05230885
253	0x3ce7e9ed	0.028309787
254	0xbd3a362a	-0.04546181
255	0x3d53cf36	0.051711284

transformer.h.0.mlp.c_proj.weight f4 [128, 512]
0	0x3cc192d5	0.023629585
1	0xbd694f53	-0.056960415
2	0x3c81d687	0.015849365
3	0xbc78dfde	-0.015190093
4	0xbbfbf875	-0.0076895305
5	0x3cafb4b4	0.02144847
6	0xbada1d2e	-0.0016640776
7	0xbd481479	-0.04884765
8	0x3d93c8f2	0.07216062
9	0xbd4624f7	-0.048375096
10	0x3a8897ea	0.001042125
11	0x3c354237	0.01106315
12	0xbc93ba13	-0.018033063
13	0x3dcd9d0c	0.1003972
14	0xbc27ad50	-0.010234192
15	0xbd067687	-0.03282788
16	0xbc4b4350	-0.012406185
17	0xbb53a98a	-0.0032297098
18	0x3ad3a22d	0.0016146355
19	0x3c020b78	0.007937305
20	0x3c0aec69	0.008479216
21	0x3d9b6433	0.07587471
22	0x3cbe0406	0.023195278
23	0xbd06e8b6	-0.032936774
24	0x3cfa0de4	0.030524202
25	0xbc953b16	-0.018216651
26	0xbb0efc25	-0.002181777
27	0xbd174805	-0.036933918
28	0xbd0e1e66	-0.03469696
29	0xbbcf77d6	-0.006331424
30	0xbb9ccb9b	-0.004785014
31	0x3cfd1968	0.030895904
32	0xbc04e395	-0.0081109
33	0xbcd1ed31	-0.025625797
34	0xbd0da5d2	-0.034581967
35	0x3d01a0db	0.031647544
36	0xbc6ad6b9	-0.01433342
37	0xbcaca510	-0.021074802
38	0x3c27b78c	0.010236632
39	0xbbd06211	-0.0063593467
40	0xbc4fc77a	-0.012681836
41	0x3c195493	0.009358543
42	0xbc8a1ff4	-0.01686094
43	0x3d21184d	0.039329816
44	0xbd4021ad	-0.046907116
45	0x3b8eb899	0.004355502
46	0xbcea3846	-0.028591286
47	0x3c74992d	0.014929098
48	0x3d1116ea	0.035422243
49	0x3c97b8f8	0.018520817
50	0x3d31b7d2	0.043388195
51	0x3ca56fe3	0.020194953
52	0xbbd53131	-0.006506108
53	0x3d260a2a	0.040537037
54	0xbd973ce1	-0.073846586
55	0x3d433b5d	0.047664035
56	0xbd7b81b6	-0.061403
57	0xbd166086	-0.036713146
58	0xbd41b481	-0.047291283
59	0x3ce6015e	0.028076824
60	0xbceba5b0	-0.02876553
61	0xbd786bb8	-0.060649604
62	0x3c3ba2da	0.011452401
63	0xbd44c2d7	-0.048037376
64	0x3c21a8cf	0.009866907
65	0xbd620af2	-0.05518622
66	0xbd0cc273	-0.03436513
67	0xbb22eb8d	-0.0024859637
68	0xbd4344c0	-0.047672987
69	0xbcaf7d3b	-0.02142202
70	0x3d5f998a	0.054589786
71	0x3b9e7d4e	0.004836715
72	0xbc8ad562	-0.016947452
73	0xbd04e096	-0.032440744
74	0xbc6ec690	-0.014573708
75	0xbc245a70	-0.010031328
76	0x3d3d9524	0.04628481
77	0xbcd99bda	-0.026563574
78	0x3c194fee	0.009357436
79	0xbcf49907	-0.029858125
80	0xbceec528	-0.029146746
81	0x3b9f5f73	0.0048636734
82	0xbd7ed7cb	-0.062217515
83	0xbc0d8f3f	-0.00864011
84	0x3d5e3661	0.05425108
85	0x3aee2c67	0.0018171192
86	0xbd9553a9	-0.072913475
87	0xbc2d8c76	-0.0105925705
88	0xbd97ea95	-0.0741779
89	0xbd189ec8	-0.0372608
90	0xbdb21962	-0.08696248
91	0x3c2d61bf	0.0105823865
92	0xbc575e40	-0.01314503
93	0x3cac676f	0.021045415
94	0xbd5d6e9d	-0.054060567
95	0xbd4defb9	-0.050277445
96	0x3b868db3	0.0041062473
97	0x3c63926e	0.013889892
98	0xbcf920f7	-0.030411227
99	0xbc82f8e9	-0.01598783
100	0xbd8d9fb8	-0.069152296
101	0x3d83cce9	0.06435568
102	0xbcfa09c1	-0.03052223
103	0x3db639f8	0.088977754
104	0x3cb06519	0.021532582
105	0x3d26099c	0.040536508
106	0xbcb8b657	-0.022547884
107	0x3c80242c	0.015642248
108	0xbc59e4ad	-0.013299149
109	0xbd35e62e	-0.04440897
110	0xbd940345	-0.07227186
111	0xbd08be7e	-0.033384793
112	0x3cc21cb7	0.023695333
113	0xbb5baf89	-0.0033521375
114	0xbc0a89e6	-0.008455729
115	0x3b8b521e	0.0042517325
116	0x3d6247dc	0.05524431
117	0xbc8282f1	-0.015931578
118	0xbb2730be	-0.002551123
119	0x3d915682	0.07096578
120	0xbbc0688d	-0.0058718384
121	0xbd4d72e0	-0.05015838
122	0x3c1b39f6	0.009474268
123	0xbc744494	-0.014908928
124	0xbd171f3e	-0.03689503
125	0xbda62a9d	-0.081135966
126	0x3d147807	0.03624728
127	0x3a9e6756	0.001208524
128	0x3cb7194e	0.022350933
129	0x3c8538d2	0.016262446
130	0x3c5f092c	0.013613027
131	0x3d1acdff	0.03779411
132	0xbd416fea	-0.04722587
133	0x3d81e7c6	0.063430354
134	0xbbd4b95e	-0.006491824
135	0x3c2d53e0	0.010579079
136	0x3c92d1cf	0.01792231
137	0xbc1b8bde	-0.009493796
138	0xbc3d2333	-0.011544037
139	0x3d12cf2d	0.03584211
140	0x3d4ed53d	0.05049633
141	0x3d0a4ed8	0.033766598
142	0xbd29d6fb	-0.041464787
143	0xbccf2b44	-0.025289185
144	0x3ccbd6ba	0.024882663
145	0x3dbb8303	0.09155848
146	0x3cdeacd8	0.027182028
147	0x3cfd474d	0.030917788
148	0x3d4472ea	0.047961153
149	0x3b64553a	0.0034840838
150	0x3d54bded	0.05193894
151	0x3d48297a	0.04886768
152	0x3d55d954	0.052209213
153	0xbcc36e37	-0.023856265
154	0xbcb40d7d	-0.021979088
155	0xbc9eb5c2	-0.019373778
156	0x3cdfa1a0	0.027298748
157	0xbd3f454d	-0.04669695
158	0xbcc1a26c	-0.02363702
159	0xbc6793d4	-0.014134366
160	0x3d30110c	0.042985007
161	0xbd73bcb7	-0.059506144
162	0x3cea09ab	0.028569063
163	0xbcdd9a0f	-0.027051
164	0xba9e3a7d	-0.0012071874
165	0x3d1066d8	0.03525433
166	0xbd021474	-0.031757787
167	0x3cb85381	0.022500755
168	0x3d55c958	0.05219397
169	0xbc72c052	-0.014816361
170	0xbd81da45	-0.0634046
171	0x3cd9ad1e	0.026571807
172	0xbb05c90b	-0.002041402
173	0xbc3f5229	-0.011677303
174	0x3cdc3a78	0.026883349
175	0x3d262f11	0.04057223
176	0x3d015f09	0.031584773
177	0x3c426a0c	0.011866104
178	0xbd1d23a2	-0.03836406
179	0x3d907774	0.07054034
180	0x3d1505ed	0.036382604
181	0xbd56ce30	-0.05244273
182	0xbd35f770	-0.044425428
183	0x3d362cec	0.044476435
184	0x3d26b643	0.040701162
185	0xbcf4857e	-0.02984881
186	0xbd10900a	-0.035293616
187	0xbd22c175	-0.039735276
188	0xbd3916a4	-0.045187607
189	0xbd2b5c7d	-0.04183625
190	0xbd31e34a	-0.04342965
191	0x3ba948a6	0.005166131
192	0x3bacf650	0.005278386
193	0x3d6f128b	0.058367293
194	0x3d8a623e	0.067570195
195	0x3d239234	0.039934352
196	0x3c9ea2b8	0.0193647
197	0x3bcf0a09	0.006318335
198	0xbd537c0a	-0.051631965
199	0xbd0239db	-0.031793457
200	0x3d265529	0.04060856
201	0xbcda2df5	-0.026633242
202	0x3ce25dab	0.027632555
203	0x3cb6652b	0.022265038
204	0x3cafda19	0.021466302
205	0x3bd46aa5	0.0064824396
206	0x3c97689c	0.018482499
207	0x3a1afa32	0.0005911916
208	0xbcad281d	-0.021137292
209	0x3d5bdf98	0.053680032
210	0xbd2c1f5e	-0.0420221
211	0xbb8e5d0c	-0.004344588
212	0x3afe2978	0.0019391021
213	0xba940e8b	-0.0011295838
214	0xbd818f12	-0.063261166
215	0x3b6560c2	0.00350003
216	0x3c60a0de	0.013710229
217	0xbc0936e8	-0.008374907
218	0xbc027a31	-0.007963703
219	0x3c14f7f3	0.009092319
220	0xbb0f2d75	-0.0021847163
221	0x3ce554fc	0.027994625
222	0xbd830153	-0.06396737
223	0x3d319a56	0.043360077
224	0xbd5b4c94	-0.053539827
225	0x3b99e098	0.004695963
226	0xbd0496b6	-0.03237029
227	0xbce2cde9	-0.027686076
228	0x3cf58778	0.029971823
229	0x3bf9f09b	0.0076275594
230	0x3cc1f9b4	0.023678638
231	0x3d9c13fc	0.07620999
232	0x3c9b9d3f	0.01899588
233	0x3c2e3a06	0.010633951
234	0x3d6c4a0f	0.057687815
235	0xbd3942bf	-0.04522967
236	0xbc001017	-0.007816336
237	0x3c83dbad	0.01609596
238	0xbc818913	-0.015812432
239	0x3d2fd611	0.04292876
240	0xbc7745c0	-0.015092313
241	0xbc6330a6	-0.013866579
242	0xbcde694b	-0.027149817
243	0xbc77a70b	-0.01511551
244	0x3d18b3be	0.03728079
245	0x3d273148	0.040818483
246	0x3d8ba1e7	0.0681799
247	0x3d0d1bc3	0.034450304
248	0x3c914eaa	0.017737705
249	0xbd1a6de5	-0.03770246
250	0xbb672fef	-0.0035276373
251	0x3c15bdfd	0.009139535
252	0x3cfbcaaa	0.030736286
253	0xbc24ccc6	-0.010058587
254	0xbc27c012	-0.010238664
255	0xbddd3d9b	-0.10802766
