ablation_0.1_ckpt/model_final.pt (torch, 900741 bytes, 10 tensors)

transformer.wte.weight f4 [206, 128]
0.42045027 -0.02130059 0.14754927 0.21486124 -0.26306272 0.18648174 -0.043703258 -0.26745623
-0.16625525 -0.28178212 -0.12169253 0.30181232 -0.3569648 0.20988882 0.09170427 -0.013586968
0.3278662 0.08326021 0.293962 0.066208534 0.046771724 -0.037833657 0.33816305 0.100756586
-0.17824641 0.2698007 0.0059937024 -0.38618618 0.11695003 -0.22940053 0.25441572 0.21802422
0.21671097 -0.1314392 -0.23566517 0.36141136 -0.23563382 0.14416055 0.1274076 -0.20294453
-0.20352124 0.2704373 -0.49657783 -0.37149504 0.28531417 -0.16922012 0.103651226 0.33430853
-0.120688505 -0.28792143 -0.3293433 -0.21543947 -0.24038354 -0.35939607 0.3694856 0.41486534
-0.14640902 -0.057468377 -0.3461784 0.003744644 -0.24390042 0.12686479 -0.35579586 -0.013061258
0.015248997 0.30765346 0.21724695 0.28641865 0.122658975 -0.1573786 0.07684736 -0.037093937
-0.347362 -0.21193011 0.28660825 0.23683056 0.10356221 -0.31350157 -0.2629043 -0.27377588
0.2052859 0.23260397 0.10306653 -0.06541492 0.21294549 -0.19726104 0.11680818 0.2789807
0.14547628 -0.15118797 -0.00449214 -0.10292057 -0.102093056 -0.31547716 -0.20049775 -0.25227416
-0.073613994 0.21700023 -0.11658452 -0.27190688 -0.1299565 -0.2049844 0.14761838 0.23256469
0.36107123 -0.19784628 0.29807678 -0.21379338 0.17868109 0.20831302 0.108803466 -0.019989492
-0.090577185 0.20764084 -0.2460029 0.43554637 -0.18983579 0.33782253 0.17142479 -0.31388324
0.24284957 -0.08719514 0.16826344 -0.17509545 -0.18828826 -0.21974109 -0.22451663 0.22073777
0.40963295 -0.022326915 0.14847367 0.22121947 -0.27051654 0.16861059 -0.037527286 -0.25629961
-0.17397831 -0.27766204 -0.12415515 0.30250555 -0.35400945 0.21832976 0.103048846 -0.013031799
0.32133988 0.075627595 0.28814366 0.062938325 0.04463772 -0.048577964 0.346855 0.09877622
-0.17321308 0.25306472 0.009018937 -0.39302066 0.11225984 -0.22079673 0.24051623 0.20712091
0.21998931 -0.13655876 -0.23421012 0.35194334 -0.23272114 0.13617025 0.14417216 -0.18757564
-0.21281338 0.26879156 -0.5011042 -0.3633733 0.2730723 -0.17747645 0.10433843 0.32554898
-0.13348629 -0.29229614 -0.33248863 -0.21826722 -0.2562653 -0.35624218 0.37022457 0.41649824
-0.14018853 -0.060340524 -0.34204036 -0.004384377 -0.23702884 0.11743833 -0.3496571 -0.01413975
0.00726443 0.3005252 0.22378927 0.28514203 0.11786619 -0.16507822 0.083833925 -0.04105564
-0.34829444 -0.20696299 0.2863487 0.23608042 0.09778144 -0.2999563 -0.268449 -0.27684546
0.18451063 0.22832954 0.100051716 -0.066705555 0.2149206 -0.19645382 0.10682106 0.28279904
0.15346308 -0.1489726 -0.008985531 -0.091164954 -0.09883688 -0.2981381 -0.18883441 -0.25739667
-0.07705681 0.2119807 -0.123025455 -0.27047712 -0.12711066 -0.21560843 0.15365681 0.24048783
0.3687275 -0.19444643 0.30842066 -0.22634971 0.18026851 0.19506274 0.105950356 -0.028218292
-0.105226524 0.21027578 -0.25568664 0.43843126 -0.18544722 0.3469738 0.17977118 -0.30556569
0.23850194 -0.07991219 0.15959585 -0.18170665 -0.18981528 -0.21790358 -0.2329693 0.21776354
00000000: 4245 d73e 937e aebc 2817 173e 9604 5c3e
00000010: 28b0 86be 12f5 3e3e 3002 33bd 06f0 88be
00000020: d13e 2abe bf45 90be ef39 f9bd 2587 9a3e
00000030: 17c4 b6be 18ed 563e 73cf bb3d e09b 5ebc
00000040: 14de a73e 5484 aa3d 3082 963e 5798 873d
00000050: b593 3f3d 77f7 1abd b523 ad3e 7859 ce3d
00000060: 3a86 36be 5123 8a3e d266 c43b 32ba c5be
00000070: 7f83 ef3d f9e7 6abe c742 823e be41 5f3e
00000080: 7be9 5d3e ff97 06be 3652 71be e90a b93e
00000090: fe49 71be d39e 133e 2377 023e b1d0 4fbe
000000a0: df67 50be c276 8a3e 733f febe 9934 bebe
000000b0: b314 923e 0a48 2dbe 1847 d43d 7d2a ab3e
000000c0: 892b f7bd 706a 93be af9f a8be 2a9c 5cbe
000000d0: 1a27 76be c302 b8be 372d bd3e 3b69 d43e
000000e0: 3fec 15be f663 6bbd 4c3e b1be b468 753b
000000f0: 08c1 79be d8e8 013e e02a b6be e3fe 55bc
00000100: eed6 793c c184 9d3e fc75 5e3e 77a5 923e
00000110: a134 fb3d db27 21be 2662 9d3d d0ef 17bd
00000120: 6fd9 b1be 3504 59be 51be 923e b683 723e
00000130: 6d18 d43d 4783 a0be 649b 86be 5a2c 8cbe
00000140: 7836 523e bc2f 6e3e 8b14 d33d 42f8 85bd
00000150: 620e 5a3e ccfe 49be 2139 ef3d 8fd6 8e3e
00000160: bcf7 143e 05d1 1abe cd32 93bb 05c8 d2bd
00000170: 2a16 d1bd 3986 a1be 484f 4dbe 142a 81be
00000180: efc2 96bd 4f35 5e3e ddc3 eebd 6137 8bbe
00000190: 5113 05be 6ee7 51be 4629 173e 7025 6e3e
000001a0: 54de b83e 3798 4abe 859d 983e a7ec 5abe
000001b0: 2df8 363e 0250 553e 5ad4 de3d 01c1 a3bc
000001c0: 8880 b9bd cd9f 543e 2fe8 7bbe efff de3e
000001d0: 5064 42be 13f7 ac3e fb89 2f3e 4eb5 a0be
000001e0: 8fad 783e 5e93 b2bd 404d 2c3e 394c 33be
000001f0: a3ce 40be cf03 61be b0e7 65be 1509 623e
00000200: 69bb d13e efe6 b6bc 7b09 183e 5b87 623e
00000210: 2581 8abe 41a8 2c3e 36b6 19bd b439 83be
00000220: 5f27 32be b829 8ebe 0e45 febd 02e2 9a3e
00000230: ba40 b5be d691 5f3e 460b d33d 5483 55bc
00000240: a986 a43e a4e2 9a3d 9187 933e cfe5 803d
00000250: 0bd6 363d b0f9 46bd fb96 b13e 304b ca3d
00000260: c55e 31be b391 813e 2ac4 133c 013a c9be
00000270: 7de8 e53d 8a18 62be e349 763e 8117 543e
00000280: e144 613e 0fd6 0bbe c7d4 6fbe eb31 b43e
00000290: 734e 6ebe 3770 0b3e dea1 133e d413 40be
000002a0: c0eb 59be 0c9f 893e 5d48 00bf 110c babe
000002b0: 22d0 8b3e 63bc 35be 63af d53d 5bae a63e
000002c0: a1b0 08be d7a7 95be f33b aabe 7181 5fbe
000002d0: 3535 83be 6065 b6be 138e bd3e 423f d53e
000002e0: 958d 0fbe a027 77bd ea1f afbe d2aa 8fbb
000002f0: b0b7 72be 8283 f03d 4106 b3be 69aa 67bc
00000300: 750a ee3b 70de 993e 0429 653e 23fe 913e
00000310: d463 f13d 440a 29be 1fb1 ab3d f529 28bd
00000320: a653 b2be 1bee 53be 4c9c 923e 11bf 713e
00000330: a341 c83d df93 99be 2672 89be b0be 8dbe
00000340: 5bf0 3c3e 38cf 693e eae7 cc3d ec9c 88bd
00000350: 2514 5c3e 312b 49be 00c5 da3d 09cb 903e
00000360: 6d25 1d3e 468c 18be 0c38 13bc b1b4 babd
00000370: fd6a cabd 8fa5 98be cf5d 41be 7fc9 83be
00000380: f6cf 9dbd 7811 593e c5f4 fbbd fa7b 8abe
00000390: 4c29 02be 75c8 5cbe 3658 1d3e 7142 763e
000003a0: dac9 bc3e f71c 47be 50e9 9d3e 38c8 67be
000003b0: 4f98 383e 87be 473e 80fc d83d 0c2a e7bc
000003c0: 0181 d7bd 8952 573e 5ce9 82be 107a e03e
000003d0: e0e5 3dbe 8da6 b13e f015 383e 1b73 9cbe
000003e0: da39 743e 01a9 a3bd 186d 233e 4f11 3abe
000003f0: f05e 42be 1e22 5fbe 818f 6ebe 68fd 5e3e

transformer.wpe.weight f4 [5, 128]
-0.07031144 0.0046422496 -0.067646556 -0.19900286 -0.064904466 -0.1569181 -0.019578902 -0.029491747
0.11915631 0.065644525 0.011573263 -0.008382205 0.121294715 0.021094022 -0.04096418 0.029095558
-0.08596323 -0.0006218767 -0.054680433 -0.15635729 0.011343088 0.003923428 -0.18620466 -0.119094975
0.01809004 -0.16304773 0.089607835 0.09821358 -0.05232924 0.088661134 -0.034791786 -0.14967047
-0.07037663 0.035900656 0.07768906 -0.19243291 0.011093887 -0.063724145 0.010223369 0.050922304
0.04715017 -0.06062116 0.20339358 0.035350792 -0.032654583 0.13278921 -0.025213124 -0.14683627
0.098776944 0.03260186 0.08448012 0.08076033 0.13800134 0.08198461 -0.16266826 -0.2068013
0.02226488 0.059755903 0.038857035 0.012805194 0.056201287 -0.068707705 0.124358155 -0.004905294
0.024149282 -0.10583205 -0.06417957 -0.042700674 -0.122394115 0.034462254 -0.051997606 -0.032736983
0.13597941 0.07686543 -0.047266185 -0.12857577 -0.029693276 0.16463687 0.1593133 0.16703676
0.0020267637 -0.14441219 -0.0448805 -0.03778192 -0.0074692196 0.093176484 -0.052015886 -0.12912923
0.011726332 0.102095686 0.052146815 0.026411323 0.047404204 0.10624064 0.11251408 0.085446574
0.029465457 -0.023594702 -0.023300268 0.12670545 0.07728456 0.06432823 -0.033509098 -0.10941505
-0.06733233 -0.0031626855 -0.11856443 0.071366616 -0.04751423 -0.04668486 -0.077361174 0.048839964
0.11136589 -0.16314879 0.15263027 -0.05103642 0.088233866 -0.14533426 -0.03696124 0.08610982
0.06998379 -0.03132515 -0.19038531 0.01575098 0.0054876157 0.14699513 0.017456057 -0.10598014
-0.040755413 -0.0042739534 -0.046134148 0.027993642 0.013185799 -0.003288958 0.01682154 -0.005845863
-0.03197844 0.031785693 -0.016952394 0.01730749 -0.005221217 0.021019092 -0.015074656 -0.0052957362
0.065006636 -0.00515964 0.04884071 0.005574775 0.0099642025 -0.013926412 0.008899145 -0.0047166063
0.03103639 0.025426922 0.012272693 -0.018706571 0.0061779465 -0.01252779 -0.020444183 0.02759642
-0.005498012 0.03714721 -0.00676622 0.021822432 0.03842477 0.04704208 0.009005469 -0.027927868
-0.011759408 -0.007721653 0.0007148188 -0.036983322 -0.03178665 -0.00956042 0.00936835 0.012577453
0.005915634 0.07429729 -0.00641778 -0.05422133 0.010113132 0.021058291 0.039222818 0.0077936575
-0.021780534 -0.012000188 -0.008747526 0.004204498 0.036203366 -0.029678542 0.015191952 -0.0057139033
-0.003528647 0.0072465492 -0.010911566 -0.0140344715 -0.011249303 -0.00011536914 -0.010649191 0.01932134
-0.011131523 -0.004210861 -0.0025790965 0.022121165 -0.019440437 -0.031477448 -0.031374875 -0.0061432165
0.049999755 -0.0026079668 0.01818659 0.0054278523 -0.0024274187 -0.018462634 -0.011249547 -0.012815683
0.0031041463 -0.0017330558 -0.020988418 -0.009421097 0.008219638 -0.039451204 -0.016733758 -0.043099225
0.0009223098 0.024044015 0.03866442 -0.00055487384 0.033859365 -0.015216829 -0.04153331 0.029881272
0.064247794 0.009699919 -0.0017776688 0.007248848 0.013837921 -0.015785549 0.024595676 -0.036675252
0.011287858 0.01723265 -0.02675298 -0.02502919 -0.01205509 0.01612085 0.021000119 -0.028797736
-0.051932134 0.027475512 0.06735941 -0.026108008 0.01688824 -0.022741823 0.016043128 -0.011522571
00000000: 72ff 8fbd 031e 983b 478a 8abd 68c7 4bbe
00000010: a2ec 84bd 23af 20be ef63 a0bc ad98 f1bc
00000020: 3908 f43d a370 863d c99d 3d3c 8455 09bc
00000030: 5d69 f83d 5fcd ac3c 0eca 27bd cf59 ee3c
00000040: 7d0d b0bd 7005 23ba 97f8 5fbd 201c 20be
00000050: 5cd8 393c 1990 803b 6fac 3ebe 11e8 f3bd
00000060: 9031 943c fcf5 26be 5084 b73d 3424 c93d
00000070: 2f57 56bd f893 b53d d581 0ebd 3743 19be
00000080: 9f21 90bd 910c 133d 711b 9f3d 220d 45be
00000090: 22c3 353c ce81 82bd eb7f 273c e893 503d
000000a0: 8920 413d e54d 78bd 6846 503e fecb 103d
000000b0: d0c0 05bd e5f9 073e c18b cebc 3f5c 16be
000000c0: 914b ca3d 8789 053d ea03 ad3d ac65 a53d
000000d0: 3950 0d3e 8ce7 a73d 8292 26be b8c3 53be
000000e0: d664 b63c 9bc2 743d 8e28 1f3d e0cc 513c
000000f0: 5233 663d a0b6 8cbd 7daf fe3d 97bc a0bb
00000100: b7d4 c53c 79be d8bd 9470 83bd e7e6 2ebd
00000110: c4a9 fabd 4b28 0d3d 71fb 54bd 3717 06bd
00000120: 303e 0b3e 9f6b 9d3d 309a 41bd 5ea9 03be
00000130: 503f f3bc 9196 283e 0723 233e af0b 2b3e
00000140: 74d3 043b cae0 13be 9dd4 37bd 37c1 1abd
00000150: 5bc0 f4bb 50d3 be3d 9c0e 55bd 743a 04be
00000160: cd1f 403c 8b17 d13d e697 553d 8f5c d83c
00000170: e92a 423d b194 d93d c86d e63d 9dfe ae3d
00000180: 8b61 f13c ad49 c1bc 34e0 bebc 13bf 013e
00000190: 5e47 9e3d 85be 833d d640 09bd ff14 e0bd
000001a0: 88e5 89bd 0f45 4fbb e8d1 f2bd a928 923d
000001b0: 489e 42bd a038 3fbd 896f 9ebd 6a0c 483d
000001c0: cd13 e43d 7a10 27be 1c4b 1c3e 910b 51bd
000001d0: f5b3 b43d 81d2 14be ab64 17bd 585a b03d
000001e0: a953 8f3d cd4e 00bd 5ef4 42be 3308 813c
000001f0: 75d1 b33b e485 163e 0100 8f3c 1e0c d9bd
00000200: 26ef 26bd 850c 8cbb 29f7 3cbd ec52 e53c
00000210: 4009 583c 8f8b 57bb 54cd 893c a78e bfbb
00000220: d3fb 02bd b731 023d bfdf 8abc 70c8 8d3c
00000230: be16 abbb 3b30 ac3c b1fb 76bc db87 adbb
00000240: 3322 853d 3312 a9bb 320d 483d 9aac b63b
00000250: e540 233c 9b2b 64bc b8cd 113c c38d 9abb
00000260: 0740 fe3c 1f4c d03c 6813 493c 863e 99bc
00000270: 5f70 ca3b 5c41 4dbc 8f7a a7bc e311 e23c
00000280: ab28 b4bb ac27 183d 2bb7 ddbb f5c4 b23c
00000290: 4b63 1d3d 32af 403d ad8b 133c fcc8 e4bc
000002a0: 88aa 40bc ec05 fdbb ad62 3b3a d37b 17bd
000002b0: b832 02bd 4fa3 1cbc b57d 193c a911 4e3c
000002c0: efd7 c13b 2d29 983d 3e4c d2bb 2f17 5ebd
000002d0: 8db1 253c 7082 ac3c 1ba8 203d f061 ff3b
000002e0: 176d b2bc 709c 44bc c951 0fbc e3c5 893b
000002f0: fb49 143d 6a20 f3bc aae7 783c b23b bbbb
00000300: df40 67bb 7674 ed3b 6dc6 32bc d7f0 65bc
00000310: ff4e 38bc 56f2 f1b8 f279 2ebc c947 9e3c
00000320: fe60 36bc 43fb 89bb 0f06 29bb 7237 b53c
00000330: 8d41 9fbc 7fee 00bd f182 00bd 094d c9bb
00000340: 8bcc 4c3d 6cea 2abb 0bfc 943c 20dc b13b
00000350: 5415 1fbb f33e 97bc 0550 38bc dff8 51bc
00000360: ef6e 4b3b b427 e3ba e7ef abbc f25a 1abc
00000370: a9ab 063c 9697 21bd 3c15 89bc d088 30bd
00000380: 2ac7 713a f4f7 c43c 955e 1e3d f474 11ba
00000390: 1eb0 0a3d 0250 79bc d51e 2abd 92c9 f43c
000003a0: 5994 833d 69ec 1e3c ab00 e9ba bf87 ed3b
000003b0: 73b8 623c b250 81bc df7c c93c ca38 16bd
000003c0: b5f0 383c 7d2b 8d3c 1129 dbbc 040a cdbc
000003d0: b682 45bc df0f 843c 7108 ac3c 3be9 ebbc
000003e0: cab6 54bd 5314 e13c bbf3 893d 76e0 d5bc
000003f0: 3559 8a3c 0f4d babc e16c 833c 2ac9 3cbc

transformer.h.0.ln_1.weight f4 [128]
0.90032786 0.93738914 0.9013612 0.9237077 0.9944878 0.9859772 0.9115569 0.94420683
0.9647653 0.9402829 0.94872904 0.9572947 0.95974576 0.97850454 0.9268488 0.9734562
0.9241175 0.9313182 0.9312683 0.9649884 0.95470685 0.9627931 0.96190053 0.9377257
0.9574969 0.9209938 0.942029 0.92100316 0.9090809 0.89797664 0.9394438 0.94403267
0.9679754 0.97096264 0.95727676 0.9537838 0.9185034 0.91946864 0.9503182 0.91358924
0.9861663 0.9819888 0.99104035 0.9439079 0.91799605 0.95417017 0.9584634 0.9226791
0.9339151 0.9389997 0.9998404 0.928002 0.9494693 0.97063446 0.923142 1.0002502
0.9857983 0.91276914 0.94492686 0.94437665 0.9224106 0.92641574 0.9305699 0.9661227
0.92271745 0.91738075 0.8985393 0.9570066 1.0029365 0.9525245 0.97004914 0.9335149
0.9553893 0.93955123 0.92797357 0.94752496 0.9228874 1.0004526 0.94563466 0.9564228
0.91818833 0.8972224 0.96865594 0.955712 0.9829691 0.9481216 0.95479345 0.9723686
0.93635416 0.9411943 0.9366809 0.9484596 0.9810382 0.91372764 0.9737069 0.91471547
0.95976514 0.9653403 0.928184 0.9509967 0.98956126 0.9753718 0.9677186 0.93880475
0.90384245 0.9417115 0.9526459 0.9502109 0.955375 0.91612655 0.95578784 0.9500488
0.97903895 0.95210683 0.89292765 0.9326756 0.89694476 0.95131904 0.8903954 0.9051788
0.92336035 0.92420834 0.91008294 0.9682808 0.9103527 0.91808724 0.9152877 0.9363947
00000000: e37b 663f bcf8 6f3f 9cbf 663f 1c78 6c3f
00000010: c196 7e3f 0069 7c3f cb5b 693f 8ab7 713f
00000020: dcfa 763f 61b6 703f e8df 723f 4411 753f
00000030: e6b1 753f 467f 7a3f f745 6d3f 6d34 793f
00000040: f792 6c3f df6a 6e3f 9967 6e3f 7b09 773f
00000050: ab67 743f 9c79 763f 1d3f 763f cb0e 703f
00000060: 841e 753f 40c6 6b3f d028 713f ddc6 6b3f
00000070: 87b9 683f cce1 653f 647f 703f 20ac 713f
00000080: 3ccd 773f 0291 783f 1710 753f 2d2b 743f
00000090: 0a23 6b3f 4c62 6b3f 0e48 733f fce0 693f
000000a0: 6575 7c3f 9e63 7b3f d2b4 7d3f f3a3 713f
000000b0: ca01 6b3f 7f44 743f db5d 753f b334 6c3f
000000c0: 0f15 6f3f 4962 703f 8af5 7f3f 8a91 6d3f
000000d0: 6c10 733f 807b 783f 0953 6c3f 3308 803f
000000e0: 475d 7c3f 3dab 693f bae6 713f abc2 713f
000000f0: 1a23 6c3f 9529 6d3f d439 6e3f d153 773f
00000100: 3637 6c3f 77d9 6a3f ac06 663f 62fe 743f
00000110: 3960 803f a5d8 733f 2455 783f d5fa 6e3f
00000120: 6594 743f 6e86 703f ad8f 6d3f ff90 723f
00000130: 5942 6c3f d50e 803f 1d15 723f 20d8 743f
00000140: 640e 6b3f 5eb0 653f d6f9 773f 8ba9 743f
00000150: dda3 7b3f 19b8 723f 586d 743f 26ed 783f
00000160: e8b4 6f3f 1cf2 703f 52ca 6f3f 40ce 723f
00000170: 5225 7b3f 0eea 693f db44 793f cb2a 6a3f
00000180: 2bb3 753f 8b20 773f 779d 6d3f 8574 733f
00000190: e353 7d3f f7b1 793f 68bc 773f 8255 703f
000001a0: 3862 673f 0114 713f 9ae0 733f 0641 733f
000001b0: 7593 743f 4587 6a3f 83ae 743f 6636 733f
000001c0: 4ca2 7a3f 46bd 733f e896 643f d4c3 6e3f
000001d0: 2c9e 653f a589 733f f4f0 633f ccb9 673f
000001e0: 5861 6c3f eb98 6c3f 32fb 683f 40e1 773f
000001f0: e00c 693f c407 6b3f 4b50 6a3f 90b7 6f3f

transformer.h.0.attn.c_attn.weight f4 [384, 128]
0.008899805 0.025521848 -0.023569334 -0.040381502 -0.018510489 0.01597359 -0.022933295 0.008592712
-0.013514894 -0.029117089 -0.0013989863 0.013347051 -0.0053199274 -0.0004938221 -0.021106679 0.003996095
0.022502255 -0.022666547 -0.012429899 0.021707177 -0.025604533 0.005904489 0.02772546 -0.014871809
-0.0057721785 -0.009179982 -0.013457707 -0.01865773 0.011667098 0.00028978914 0.018060097 0.02582732
-0.029586542 0.02616159 0.0013868302 0.008660296 -0.009239609 -0.02676379 0.015907459 0.007942793
-0.00039276824 0.023242977 -0.011237829 0.002346853 0.011019074 0.013117694 -0.007892315 -0.014161992
-0.01906897 0.0031729636 -0.0034041512 0.005393227 0.0060406183 -0.010282736 0.023409678 0.00010733958
0.028089382 -0.01863805 -0.028549088 0.010079352 -0.017205596 0.01428036 0.004793272 0.014866304
-0.0014783986 0.01789473 0.011328769 -0.011870122 -0.009153217 0.0068716533 -0.0042023654 -0.017823067
0.007651488 -0.0037887127 -0.017356403 -0.0069868616 0.009917711 0.032948304 -0.016909141 0.024323316
0.0010870262 -0.00139401 -0.025048848 0.023370232 0.038464334 0.010887771 -0.014797079 -0.01483964
0.006898758 -0.0071347547 0.031679284 0.024438288 -0.025731755 -0.011409906 0.00018051955 0.013663434
-0.020308271 -0.00030052435 -0.0016404556 0.0065044207 0.008030531 -0.019498475 0.020604871 -0.02975046
0.009795107 -0.017939294 0.013447438 -0.020278744 -0.004786186 -0.009146799 0.006912976 0.00949341
0.014002653 0.016705494 -0.025513355 -0.018751226 -0.027646782 -0.025581282 -0.021746596 -0.009764886
-0.006535178 0.016461095 -0.0110343 0.034211807 0.009765324 -0.009883669 0.04637722 -0.0072991247
0.040912025 -0.004514729 0.011776413 -0.01845393 -0.027504627 0.04331979 0.019798392 -0.001256285
-0.037181262 -0.00017755329 0.010030984 -0.000327171 -0.0024886325 0.010530035 -0.00146518 0.017099392
0.017813774 0.02918146 0.033955608 -0.002422895 -0.03954639 0.014801394 0.005774441 -0.0019609274
-0.03250134 0.00034751798 0.016622614 -0.0456698 0.02547826 -0.003866668 -0.01694049 -0.012238455
0.00789056 -0.03054104 -0.011572453 -0.01443351 -0.0012264991 0.012906267 0.028545745 0.0057029156
-0.026727661 0.01775838 0.012068909 -0.017602457 -0.0016633173 0.0066027897 0.02284591 -0.009291116
-0.027844787 -0.018152945 -0.019481447 0.015336093 -0.01853799 -0.019861398 -0.030999016 0.0028653154
0.009024543 -0.01669846 -0.009545489 0.018351372 -0.02102966 -0.009611231 0.011357149 0.010415952
0.032199897 -0.014563322 0.014006449 -0.04002808 0.031034792 0.037159458 -0.00277692 0.025663063
-0.002249463 -0.03178585 -0.0007903098 -0.004915055 -0.025509883 0.0039288346 -0.018289262 0.016005171
0.010270054 0.004996662 -0.016156299 -0.00819646 0.021855278 0.03125893 -0.0075788177 -0.022848606
-0.017992686 -0.018826384 -0.0073367846 0.02140989 0.014419836 0.017575778 0.03344598 -0.0025044847
-0.017505625 -0.012418049 0.012821596 -0.011686025 0.0037728283 0.009713035 -0.0066303643 0.05038073
0.024030125 0.019633891 -0.03978133 0.0048877615 0.007684908 0.016693117 0.04734556 -0.0068581775
-0.051982403 -0.014332754 0.016489416 0.0055356557 -0.03342822 0.0031764526 -0.0060556163 -0.011355926
-0.008522513 -0.011977647 0.03265779 -0.024182776 -0.0067616943 -0.03337283 0.0139960125 0.012281108
00000000: 7dd0 113c 3213 d13c 7a14 c1bc 1367 25bd
00000010: 4fa3 97bc 0cdb 823c 9bde bbbc 72c8 0c3c
00000020: 936d 5dbc f686 eebc 315e b7ba 97ad 5a3c
00000030: c952 aebb d773 01ba eae7 acbc adf1 823b
00000040: a656 b83c 32af b9bc c6a6 4bbc 40d3 b13c
00000050: 99c0 d1bc 727a c13b 8120 e33c e3a8 73bc
00000060: 8b24 bdbb a367 16bc b77d 5cbc 19d8 98bc
00000070: 5b27 3f3c d7ee 9739 c5f2 933c d193 d33c
00000080: 7a5f f2bc d550 d63c 4dc6 b53a eae3 0d3c
00000090: bb61 17bc bc3f dbbc 5c50 823c 7d22 023c
000000a0: 76ec cdb9 0e68 be3c df1e 38bc a9cd 193b
000000b0: 5989 343c 99eb 563c c54e 01bc b307 68bc
000000c0: 8736 9cbc 7ff1 4f3b 2e18 5fbb abb9 b03b
000000d0: 61f0 c53b ec78 28bc a7c5 bf3c 801b e138
000000e0: b41b e63c d3ae 98bc c7df e9bc de23 253c
000000f0: c0f2 8cbc 2cf8 693c e110 9d3b cc91 733c
00000100: d3c6 c1ba f897 923c 4d9c 393c e67a 42bc
00000110: 60f7 15bc 9b2b e13b ffb3 89bb ae01 92bc
00000120: 55b9 fa3b 0d4c 78bb 042f 8ebc 0bf2 e4bb
00000130: e57d 223c cdf4 063d 0a85 8abc b141 c73c
00000140: 8c7a 8e3a 37b7 b6ba 3e33 cdbc ee72 bf3c
00000150: c78c 1d3d 9f62 323c 736f 72bc f621 73bc
00000160: fa0e e23b a9ca e9bb 23c2 013d ce32 c83c
00000170: 67cb d2bc 9df0 3abc d949 3d39 99dc 5f3c
00000180: 885d a6bc b28f 9db9 8e04 d7ba 0923 d53b
00000190: 7d92 033c 44bb 9fbc 8ccb a83c 3db7 f3bc
000001a0: a87b 203c 6df5 92bc a552 5c3c 9c1f a6bc
000001b0: 70d5 9cbb 75dc 15bc 3f86 e23b 3f8a 1b3c
000001c0: 626b 653c f6d9 883c 6201 d1bc 2c9c 99bc
000001d0: 817b e2bc d68f d1bc eb25 b2bc e7fc 1fbc
000001e0: 0c25 d6bb 6bd9 863c 35c9 34bc ae21 0c3d
000001f0: bdfe 1f3c 1def 21bc 0af6 3d3d 7f2d efbb
00000200: 5e93 273d 4bf0 93bb dbf1 403c b22c 97bc
00000210: 6251 e1bc 1870 313d 3d30 a23c eea9 a4ba
00000220: 614b 18bd 992d 3ab9 ff58 243c 2688 abb9
00000230: 5318 23bb 2b86 2c3c 480b c0ba 0614 8c3c
00000240: 31ee 913c f50d ef3c 0915 0b3d 6fc9 1ebb
00000250: 65fb 21bd 8c81 723c 8637 bd3b e782 00bb
00000260: 2020 05bd 1333 b639 262c 883c 4210 3bbd
00000270: c9b7 d03c ed67 7dbb c8c6 8abc cd83 48bc
00000280: 6847 013c 3431 fabc 639a 3dbc 877a 6cbc
00000290: 7bc2 a0ba cf74 533c c4d8 e93c 86df ba3b
000002a0: f8f3 dabc 067a 913c acbc 453c 0733 90bc
000002b0: ab03 daba 375c d83b 5927 bb3c c439 18bc
000002c0: c01a e4bc 7cb5 94bc 8e97 9fbc 3c44 7b3c
000002d0: fcdc 97bc 5fb4 a2bc a6f1 fdbc 04c8 3b3b
000002e0: addb 133c 35cb 88bc af64 1cbc 9e55 963c
000002f0: 6546 acbc 6d78 1dbc 5613 3a3c aba7 2a3c
00000300: 0ae4 033d 009b 6ebc 4e7b 653c 7cf4 23bd
00000310: ad3c fe3c 8434 183d fdfc 35bb 583b d23c
00000320: ba6b 13bb e131 02bd cb2c 4fba 780e a1bb
00000330: 1afa d0bc 74bd 803b 5dd3 95bc 471d 833c
00000340: bb43 283c 0abb a33b 375a 84bc 724a 06bc
00000350: d709 b33c 5d09 003d bb57 f8bb 002d bbbc
00000360: 6665 93bc ca39 9abc 6969 f0bb cb63 af3c
00000370: 2d41 6c3c 14fb 8f3c a7fe 083d 4822 24bb
00000380: f567 8fbc 1375 4bbc ac11 523c be76 3fbc
00000390: 8e41 773b 6c23 1f3c 8743 d9bb 065c 4e3d
000003a0: d3da c43c 41d7 a03c bff1 22bd 8429 a03b
000003b0: aed1 fb3b 01c0 883c 6bed 413d 90ba e0bb
000003c0: 80eb 54bd edd3 6abc d014 873c 7264 b53b
000003d0: 07ec 08bd 082c 503b 316e c6bb 350e 3abc
000003e0: 03a2 0bbc e53d 44bc 2dc4 053d f51a c6bc
000003f0: 3491 ddbb f3b1 08bd 884f 653c b336 493c

transformer.h.0.attn.c_proj.weight f4 [128, 128]
-0.022740887 0.02775452 -0.032361303 0.010071406 0.05507698 -0.0046675256 -0.02262246 0.031445023
0.01355275 -0.009958053 0.008254814 -0.023431089 0.0016753947 0.02469585 0.058647096 0.0043162424
-0.027894014 0.0037270365 0.020001907 0.01317828 -0.0118950335 -0.009789185 0.0010961791 0.047231425
0.0013955119 -0.04976708 -0.03376824 0.014298328 -0.040876403 0.047695983 0.028542195 -0.023622395
-0.002333671 0.016194021 -0.008371365 -0.024657505 -0.005591325 0.028798161 -0.006855532 0.009353053
-0.0065607238 -0.008086797 0.0034969717 -0.0076730843 0.03410564 0.016121052 -0.028488213 -0.044835117
0.00222347 -0.00399948 -0.020147918 -0.0053694774 0.019866796 0.032647707 0.012789458 0.03581712
-0.026749533 -0.041162055 0.0033982038 0.013314555 0.040814362 -0.009221367 0.034328785 0.028444827
0.009880818 0.024086395 -0.03902707 0.012928445 0.03195043 -0.04631464 0.04294842 0.0004709643
0.020007085 0.04258886 -0.0095406985 -0.017594175 0.05561293 -0.020743378 -0.00548499 -0.02974049
0.017865315 -0.00018067397 0.025872204 0.012369575 0.004821687 0.013902717 -0.036110025 0.010483073
-0.023051534 -0.012745615 5.9530554e-05 -0.002268599 0.0008045444 -0.024076961 -0.008863753 -0.036513265
-0.008204892 0.013872245 -0.023616103 0.004758549 0.0006284552 -0.007423048 -0.0015699031 -0.023817575
-0.031536456 0.017327592 0.018313412 0.053745482 0.009016681 0.027264068 -0.02807703 0.005927174
0.026846666 0.025161525 0.010475356 0.00737761 -0.028901823 0.023416568 0.015948081 -0.0074942787
0.005463316 0.0105308965 0.006827292 -0.005178095 -0.0019314198 0.02589389 0.020738814 -0.014965184
-0.011835628 0.012350546 0.026846113 -0.01929967 0.034605972 -0.0643443 -0.013653023 0.012458714
0.006576065 0.0019011187 -0.019715188 0.0059334184 -0.030578801 0.036630046 0.06211794 -0.012200981
-0.023157729 0.0032116305 0.05647704 -0.04966958 0.022127463 0.023155382 -0.00033657838 -0.017414914
0.05606316 0.021248644 -0.026888223 -0.028771894 -0.024986282 -0.013732561 -0.0030369966 -0.040640518
-0.022929927 -0.026260996 -0.027330104 0.018027993 0.06253907 -0.0067667607 0.0072501367 -0.0021705292
0.019792205 -0.016826808 0.028346486 0.04279825 0.0060781306 0.038417865 -0.029672844 -0.00014645299
-0.009976007 0.0005506609 -0.0057947985 -0.0044860747 0.008644503 -0.03073523 0.017735248 -0.022182781
0.026343688 0.0031018963 0.0035726817 0.0019145117 0.012875148 0.043887302 -0.004861489 0.009382557
0.016413335 0.016284993 -0.009924819 0.043063115 0.008084627 -0.002328991 0.029819757 -0.00080806913
-0.004085569 -0.07251233 0.01357987 0.0074380427 0.0208762 0.03449598 -0.021214146 0.023976794
0.041552432 -0.01580904 0.06435278 0.01342049 -0.038156554 0.0044137817 -0.010222196 -0.023153242
0.01968334 -0.01811988 -0.023935283 0.00959135 0.016853739 0.008733396 0.012073905 -0.001851705
-0.0020093718 0.0073848884 -0.0014977695 -0.011908317 -0.016963525 0.0072536254 0.01200388 0.023406556
-0.018610127 0.0019609001 0.02662596 -0.0020109706 0.020844415 -0.024347236 0.029903978 -0.05695776
-0.02524951 0.010747427 0.0054770536 -0.002301939 0.021551315 0.016425071 -0.016588708 -0.030157415
0.0037373323 0.016717466 -0.024369437 0.013657365 -0.0014351846 -0.03137994 0.008103702 0.006126406
00000000: 194b babc 725d e33c 498d 04bd 8a02 253c
00000010: 6698 613d 0bf2 98bb bd52 b9bc 7fcc 003d
00000020: 5b0c 5e3c 1a27 23bc 333f 073c 8ef2 bfbc
00000030: eb98 db3a f44e ca3c f037 703d 446f 8d3b
00000040: fd81 e4bc 4c41 743b 0adb a33c b6e9 573c
00000050: 63e3 42bc d162 20bc abad 8f3a bd75 413d
00000060: 9ce9 b63a 91d8 4bbd 9150 0abd 8943 6a3c
00000070: 046e 27bd dd5c 433d 52d1 e93c c183 c1bc
00000080: 81f0 18bb 53a9 843c 0d28 09bc 89fe c9bc
00000090: 6f37 b7bb 1fea eb3c 5fa4 e0bb 8c3d 193c
000000a0: 57fb d6bb 7c7e 04bc 732d 653b 7f6e fbbb
000000b0: 5bb2 0b3d 4c10 843c 1d60 e9bc 07a5 37bd
000000c0: a3b7 113b 120e 83bb 3f0d a5bc 71f2 afbb
000000d0: b1bf a23c 9ab9 053d e08a 513c f9b4 123d
000000e0: d621 dbbc 8b99 28bd 66b4 5e3b 4b25 5a3c
000000f0: f62c 273d 3715 17bc 579c 0c3d 2005 e93c
00000100: 28e3 213c d550 c53c d9da 1fbd d4d1 533c
00000110: 74de 023d 6cb4 3dbd afea 2f3d c2eb f639
00000120: e6e5 a33c a871 2e3d 9750 1cbc a921 90bc
00000130: 62ca 633d 04ee a9bc 6ebb b3bb 54a2 f3bc
00000140: 485a 923c 4d73 3db9 f2f1 d33c c2a9 4a3c
00000150: 3eff 9d3b 39c8 633c 1be8 13bd 32c1 2b3c
00000160: 92d6 bcbc fcd2 50bc 72b0 7938 c7ac 14bb
00000170: 10e8 523a 0c3d c5bc 4639 11bc ef8e 15bd
00000180: d06d 06bc 6a48 633c 8f76 c1bc 9aed 9b3b
00000190: eabe 243a 0a3d f3bb 35c5 cdba 131d c3bc
000001a0: 5f2c 01bd 98f2 8d3c 0206 963c 3924 5c3d
000001b0: b4ba 133c e558 df3c cd01 e6bc bd38 c23b
000001c0: 8aed db3c 8b1f ce3c d4a0 2b3c e1bf f13b
000001d0: 84c3 ecbc 1ad4 bf3c 8da5 823c 9192 f5bb
000001e0: 9e05 b33b c889 2c3c 7ab7 df3b 02ad a9bb
000001f0: b227 fdba 6c1f d43c 72e4 a93c 8830 75bc
00000200: 39ea 41bc f259 4a3c 61ec db3c 571a 9ebc
00000210: febe 0d3d f2c6 83bd eeb0 5fbc a21f 4c3c
00000220: 087c d73b f52e f93a bf81 a1bc 1f6d c23b
00000230: 6580 fabc 6309 163d 626f 7e3d a0e6 47bc
00000240: 47b5 bdbc 387a 523b 7854 673d 5472 4bbd
00000250: a744 b53c 5bb0 bd3c c976 b0b9 b9a9 8ebc
00000260: 7ca2 653d a311 ae3c b144 dcbc 09b3 ebbc
00000270: 08b0 ccbc 89fe 60bc 5908 47bb ac76 26bd
00000280: 8bd7 bbbc 4d21 d7bc 62e3 dfbc 71af 933c
00000290: 7c14 803d b4bb ddbb 8e92 ed3b 703f 0ebb
000002a0: 4323 a23c 60d8 89bc e436 e83c 384d 2f3d
000002b0: 0e2b c73b 0d5c 1d3d 7714 f3bc 2d91 19b9
000002c0: 6872 23bc 3a5a 103a 4be2 bdbb ecff 92bb
000002d0: aca1 0d3c 73c8 fbbc 8349 913c aab8 b5bc
000002e0: b8ce d73c 2f49 4b3b a723 6a3b 5af0 fa3a
000002f0: 49f2 523c 2cc3 333d 204d 9fbb 4cb9 193c
00000300: 4275 863c 1b68 853c b59b 22bc f362 303d
00000310: 6275 043c fca1 18bb 9048 f43c 9ad4 53ba
00000320: 3de0 85bb 5881 94bd 1a7e 5e3c d3ba f33b
00000330: 9104 ab3c a84b 0d3d 4ac9 adbc fb6a c43c
00000340: e232 2a3d f681 81bc 64cb 833d 9de1 5b3c
00000350: 0c4a 1cbd 7ca1 903b ff7a 27bc deab bdbc
00000360: f53e a13c 2570 94bc ed13 c4bc 0a25 1d3c
00000370: da10 8a3c 8516 0f3c a1d1 453c e9b4 f2ba
00000380: aaaf 03bb effc f13b ce50 c4ba 1a1b 43bc
00000390: 17f7 8abc d2af ed3b ecab 443c 1bbf bf3c
000003a0: 4474 98bc 7282 003b af1e da3c 7dca 03bb
000003b0: e8c1 aa3c db73 c7bc 30f9 f43c 8a4c 69bd
000003c0: 0fd8 cebc fa15 303c db78 b33b 21dc 16bb
000003d0: 628c b03c df8d 863c 0be5 87bc af0c f7bc
000003e0: 08ee 743b 11f3 883c 6aa2 c7bc 24c3 5f3c
000003f0: ce1c bcba 4188 00bd 64c5 043c 05c0 c83b

transformer.h.0.ln_2.weight f4 [128]
1.2738395 1.2797388 1.2326045 1.2514275 1.2665523 1.2565339 1.2687781 1.2318189
1.2591704 1.2363677 1.2535975 1.2569947 1.2646692 1.2271049 1.2533444 1.2869797
1.2851028 1.2757148 1.256318 1.2710454 1.2477564 1.2426243 1.2410065 1.2549688
1.2598065 1.2783874 1.2574229 1.2380896 1.2881081 1.2535019 1.2678134 1.2378366
1.2621493 1.2830768 1.290634 1.2574482 1.2500952 1.2482339 1.2601389 1.2829039
1.2559534 1.2561821 1.3206471 1.2957726 1.2875578 1.2694787 1.2639065 1.2803546
1.2712525 1.2535838 1.2671748 1.2455822 1.2925686 1.242166 1.3402332 1.2743204
1.2699302 1.2202389 1.3062183 1.2685692 1.2723085 1.252596 1.2830983 1.2568856
1.261358 1.259653 1.2759111 1.2932572 1.2262366 1.2617048 1.262467 1.2661675
1.2922537 1.2545141 1.2642498 1.2811464 1.2654294 1.2695012 1.3026251 1.2344629
1.2217903 1.2576183 1.2772613 1.2736042 1.2502135 1.2842274 1.2908918 1.2735429
1.237868 1.2296919 1.2636 1.255499 1.2767397 1.2840422 1.2532382 1.2803367
1.2427052 1.2524033 1.2578073 1.2589241 1.270704 1.2798332 1.2538782 1.2463874
1.254261 1.2552171 1.3012421 1.2712674 1.2536554 1.2488996 1.2453501 1.270336
1.2446066 1.2850349 1.2811054 1.2511209 1.2710484 1.3096327 1.2446058 1.2802889
1.2766203 1.2643872 1.2784262 1.2770104 1.2596145 1.2447351 1.2497113 1.2748252
00000000: 2c0d a33f 7bce a33f fcc5 9d3f c72e a03f
00000010: 631e a23f 1ad6 a03f 5267 a23f 3eac 9d3f
00000020: 7f2c a13f 4c41 9e3f e275 a03f 34e5 a03f
00000030: aee0 a13f c611 9d3f 976d a03f c0bb a43f
00000040: 407e a43f 9f4a a33f 07cf a03f 9eb1 a23f
00000050: 7bb6 9f3f 500e 9f3f 4dd9 9e3f d1a2 a03f
00000060: 5741 a13f 33a2 a33f 3cf3 a03f b879 9e3f
00000070: bae0 a43f c072 a03f b647 a23f 6e71 9e3f
00000080: 1c8e a13f dc3b a43f 7f33 a53f 10f4 a03f
00000090: 1f03 a03f 21c6 9f3f 3b4c a13f 3236 a43f
000000a0: 15c3 a03f 93ca a03f f70a a93f e0db a53f
000000b0: b2ce a43f 477e a23f b0c7 a13f a9e2 a33f
000000c0: 67b8 a23f 6f75 a03f c932 a23f 3d6f 9f3f
000000d0: e372 a53f 4cff 9e3f c38c ab3f ee1c a33f
000000e0: 138d a23f ca30 9c3f 2932 a73f 7a60 a23f
000000f0: 01db a23f 1155 a03f 913c a43f a1e1 a03f
00000100: 2e74 a13f 4f3c a13f 0e51 a33f 7489 a53f
00000110: 52f5 9c3f 8b7f a13f 8598 a13f c711 a23f
00000120: 9268 a53f eb93 a03f f0d2 a13f 9bfc a33f
00000130: 97f9 a13f 047f a23f 6bbc a63f e102 9e3f
00000140: a063 9c3f a3f9 a03f 4c7d a33f 7605 a33f
00000150: ff06 a03f 9061 a43f f13b a53f 7403 a33f
00000160: 7572 9e3f 8b66 9d3f a5bd a13f 31b4 a03f
00000170: 356c a33f 7f5b a43f 1c6a a03f 13e2 a33f
00000180: f710 9f3f c04e a03f d4ff a03f 6d24 a13f
00000190: 6ea6 a23f 93d1 a33f 157f a03f 9f89 9f3f
000001a0: a08b a03f f4aa a03f 1a8f a63f e4b8 a23f
000001b0: c877 a03f f1db 9f3f a267 9f3f 5f9a a23f
000001c0: 454f 9f3f 067c a43f 43fb a33f bb24 a03f
000001d0: b7b1 a23f 0ba2 a73f 3e4f 9f3f 82e0 a33f
000001e0: 4b68 a33f 71d7 a13f 78a3 a33f 1475 a33f
000001f0: 0c3b a13f 7b53 9f3f 8af6 9f3f 792d a33f

transformer.h.0.mlp.c_fc.weight f4 [512, 128]
-0.0076818983 0.011859724 0.046647944 -0.04287821 0.059944898 -0.041299935 0.0008563652 -0.068294525
-0.025804346 0.030709784 -0.026330205 0.04556187 -0.021560479 -0.057816967 -0.036550157 0.015366606
0.042146675 -0.0190325 -0.026837677 0.12546699 0.014095304 0.0036434135 0.040040795 0.008663608
-0.032187976 0.009110857 0.005911673 0.03131003 0.085566826 0.015438056 0.07596741 -0.05425459
-0.013612555 -0.020969419 0.024422463 0.066917524 0.035988957 0.03911332 0.017875051 -0.0036638714
0.018428886 -0.029375955 -0.013473938 -0.039485816 -0.017491246 0.030579772 -0.019519359 -0.05895027
-0.010379143 -0.08923251 -0.03168391 -0.07202556 0.011480349 0.05736462 -0.009003216 0.022998594
0.019122 0.0077030626 0.029979458 0.011645642 -0.0318552 0.027691493 -0.015621436 -0.03407984
0.014530276 0.00919688 0.10176313 0.0278815 0.025518607 -0.016918201 -0.035950445 -0.015073415
0.0019744812 -0.036313627 0.0033614866 -0.006230986 0.016821865 -0.008643683 -0.00560157 -6.176039e-05
0.035382207 0.015484335 0.055318624 0.015122552 -0.074448235 0.039913997 -0.06572751 0.0048080804
-0.056451388 -0.015405976 -0.028888864 0.004056153 -0.046004806 -0.0013961624 -0.014738278 -0.026412265
-0.02415129 0.04276577 0.024657656 -0.025865989 -0.05148671 -0.016178237 0.006659439 0.006687565
-0.00043915387 0.043458898 0.02774118 0.023432931 0.066829525 0.021242883 -0.07837667 -0.042063665
0.043645628 0.011877039 -0.06243624 0.07619849 -0.036006976 0.012725901 -0.0069577526 -0.046389814
-0.043640953 -0.0445809 0.070964895 -0.03431611 0.01265529 0.025165103 -0.022436418 0.06548742
0.0015641638 0.025953783 -0.029293075 0.022755984 0.00034499902 0.06684362 -0.020418886 -0.023443734
-0.021582427 -0.070253745 0.024321012 0.013114665 -0.040665284 -0.033542745 -0.02619929 -0.041176282
0.0727782 0.034154933 -0.0207633 0.0039204773 -0.064575195 0.08113655 0.0074072373 0.021404449
-0.040447183 0.056396067 -0.07995304 -0.024237743 0.0007149962 -0.03355505 0.008600282 -0.033133745
0.024557348 0.062356852 -0.02773222 0.08812687 0.02872149 -0.0012747346 0.015954114 0.04536432
-0.008027064 -0.010709296 -0.011065562 -0.023859972 -0.04256233 -0.03133439 -0.008597253 0.029351667
-0.08728748 -0.025746401 -0.025335247 0.038473878 -0.038095832 -0.020331813 0.02920098 -0.0177158
0.010581277 -0.035441563 -0.036681395 0.02076131 0.041123584 -0.095756955 0.037939373 0.011116016
0.054912437 0.0461838 0.063004725 0.019263579 0.074418575 -0.05411299 -0.006074502 -0.046388958
0.03584132 0.003838662 -0.013405618 0.06443948 -0.07594664 -0.011986629 -0.049860995 0.022543978
-0.0033957602 0.067505196 -0.06049952 -0.01064629 -0.0020049978 -0.022426255 -0.06529357 0.075333476
0.022064626 0.035845857 -0.048960753 0.014855675 0.0033492716 -0.026737759 0.019214652 -0.08921448
0.014816895 -0.025523065 0.062048428 -0.03133947 0.026460107 -0.059269957 0.042953636 -0.018191963
0.022938136 -0.0042930567 0.04043133 -0.014480568 -0.053925183 -0.014081862 -0.026171437 0.018142987
0.0042314176 -0.010611147 -0.021537554 -0.008080102 0.10397322 -0.0013094107 0.0692194 0.020493573
-0.061340537 0.012439748 0.011628084 0.012343378 0.0019285256 0.018290728 -0.10460453 0.029904267
00000000: 6fb8 fbbb 4a4f 423c ea11 3f3d 10a1 2fbd
00000010: c888 753d 1f2a 29bd b27d 603a 00de 8bbd
00000020: a363 d3bc 1693 fb3c 71b2 d7bc 159f 3a3d
00000030: 9a9f b0bc 7cd1 6cbd 9eb5 15bd 38c4 7b3c
00000040: fea1 2c3d 0cea 9bbc b0da dbbc 6b7a 003e
00000050: fdef 663c 56c6 6e3b d101 243d cef1 0d3c
00000060: 8ad7 03bd b445 153c b5b6 c13b f23e 003d
00000070: a93d af3d e6ef 7c3c cd94 9b3d 103a 5ebd
00000080: 3207 5fbc 0fc8 abbc 9e11 c83c 0e0c 893d
00000090: 2869 133d 4a35 203d b36e 923c 901d 70bb
000000a0: 2df8 963c d8a5 f0bc cbc1 5cbc e1bb 21bd
000000b0: cd49 8fbc 6e82 fa3c 10e7 9fbc d775 71bd
000000c0: 480d 2abc 89bf b6bd fdc6 01bd 2382 93bd
000000d0: 1318 3c3c 2af7 6a3d 3a82 13bc 8c67 bc3c
000000e0: bea5 9c3c f969 fc3b 7b97 f53c 5dcd 3e3c
000000f0: 997a 02bd 45d9 e23c 0df1 7fbc 4d97 0bbd
00000100: 6510 6e3c 83ae 163c 3069 d03d be67 e43c
00000110: 660c d13c 0a98 8abc c640 13bd 7cf6 76bc
00000120: 4c66 013b 99bd 14bd 634c 5c3b 4d2d ccbb
00000130: 02ce 893c 3c9e 0dbc 608d b7bb 5b85 81b8
00000140: efec 103d 02b2 7d3c c895 623d 95c4 773c
00000150: 5178 98bd dc7c 233d 259c 86bd 1a8d 9d3b
00000160: 9239 67bd 5969 7cbc 57a8 ecbc 7ae9 843b
00000170: 896f 3cbd 70ff b6ba d278 71bc 895e d8bc
00000180: edd8 c5bc 292b 2f3d dafe c93c e9e4 d3bc
00000190: bae3 52bd 3988 84bc 6c37 da3b 5c23 db3b
000001a0: 3c3e e6b9 f501 323d 7941 e33c 6bf6 bf3c
000001b0: ebdd 883d 8e05 ae3c f383 a0bd f34a 2cbd
000001c0: c2c5 323d ea97 423c 25bd 7fbd f40d 9c3d
000001d0: 0d7c 13bd 4c80 503c dcfd e3bb 3f03 3ebd
000001e0: dbc0 32bd 769a 36bd 0b56 913d 0d8f 0cbd
000001f0: 2258 4f3c 0c27 ce3c 94cc b7bc 451e 863d
00000200: a104 cd3a 079d d43c 08f8 efbc c26a ba3c
00000210: fce0 b439 4fe5 883d 8245 a7bc 130d c0bc
00000220: a1cd b0bc 32e1 8fbd dc3c c73c e4de 563c
00000230: a490 26bd 1e64 09bd e59f d6bc 76a8 28bd
00000240: bd0c 953d 0be6 0b3d cc17 aabc 5977 803b
00000250: 0040 84bd eb2a a63d 69b8 f23b 6258 af3c
00000260: f2ab 25bd 90ff 663d 6bbe a3bd 3b8e c6bc
00000270: 956e 3b3a 0571 09bd 32e8 0c3c 40b7 07bd
00000280: 7e2c c93c e669 7f3d ae2e e3bc dc7b b43d
00000290: 5549 eb3c ff14 a7ba 34b2 823c f0cf 393d
000002a0: f283 03bc 0b76 2fbc 554c 35bc fd75 c3bc
000002b0: d655 2ebd 7d58 00bd 7edb 0cbc e872 f03c
000002c0: c7c3 b2bd 1eea d2bc dd8b cfbc c996 1d3d
000002d0: 600a 1cbd e78e a6bc e536 ef3c ba20 91bc
000002e0: 185d 2d3c 2c2b 11bd 3b3f 16bd 9f13 aa3c
000002f0: 3471 283d 391c c4bd 5166 1b3d f31f 363c
00000300: ddeb 603d 392b 3d3d 9f08 813d a7ce 9d3c
00000310: c468 983d 95a5 5dbd 9e0c c7bb 5902 3ebd
00000320: 59ce 123d 1092 7b3b 3da3 5bbc d9f8 833d
00000330: e989 9bbd 9163 44bc 0b3b 4cbd 26ae b83c
00000340: 678b 5ebb 2a40 8a3d 58ce 77bd c76d 2ebc
00000350: 4866 03bb 44b7 b7bc a3b8 85bd 7048 9a3d
00000360: e0c0 b43c 1bd3 123d 128b 48bd 3865 733c
00000370: 747f 5b3b 2509 dbbc 0c68 9d3c 15b6 b6bd
00000380: 90c2 723c bf15 d1bc 7e26 7e3d d15d 00bd
00000390: dec2 d83c 0ec5 72bd 27f0 2f3d 5007 95bc
000003a0: c2e8 bb3c c5ac 8cbb 539b 253d e73f 6dbc
000003b0: a7e0 5cbd 9cb7 66bc 7b65 d6bc 9aa0 943c
000003c0: b4a7 8a3b 60da 2dbc 866f b0bc 6762 04bc
000003d0: e9ef d43d 88a0 abba e7c2 8d3d 23e2 a73c
000003e0: 3740 7bbd 16d0 4b3c b883 3e3c e13b 4a3c
000003f0: 95c6 fc3a 70d6 953c e63a d6bd cbf9 f43c

transformer.h.0.mlp.c_proj.weight f4 [128, 512]
0.011094386 0.006872495 0.024503347 -0.024126125 0.0053069424 -0.0027018324 0.0034414697 0.038295966
0.029787965 -0.013527944 0.05912837 -0.0031413524 -0.023218615 -0.013233194 -0.028219214 -0.07030501
-0.013829017 -0.010828802 -0.0020620695 -0.082316086 -0.008606622 -0.00084275624 0.0007483467 4.6339137e-05
0.04190964 -0.014267674 -0.0034329265 0.024497194 -0.034784712 0.062664606 0.033906255 0.011452745
-0.035253882 0.024329597 0.032913767 -0.025167916 -0.0017740083 -0.004538886 0.000128272 0.005611456
-0.020547623 -0.014476299 -0.010424611 0.043308917 0.0039481735 -0.02325828 -0.034207825 -0.035842232
-0.044644013 0.052116904 0.028702404 -0.01596315 -0.03322227 -0.032200772 -0.03256028 -0.020012436
-0.043670885 -0.008158178 -0.061519798 -0.010442389 0.007707887 -0.07509663 -0.03729098 -0.044412658
-0.014295035 0.015561912 0.036157347 0.016685922 -0.02113117 0.023129167 -0.08183261 0.019367982
-0.0230132 0.0025130052 -0.028631436 -0.0013657993 -0.048005555 0.042850707 0.052791722 0.0636761
-0.013800036 0.033725552 0.029909946 0.0064084735 0.037448205 0.09636725 -0.03568986 -0.01949467
0.009038463 -0.0063617025 -0.05087196 -0.002715632 -0.014967397 0.063906275 0.033577077 -0.0053144987
-0.009609198 0.08863679 0.017172508 -0.026681025 -0.022169827 0.038901955 -0.03869482 0.013306339
-0.01092143 0.0011564845 -0.008444675 -0.0038866692 0.00816901 -0.06854033 -0.048736222 -0.015977625
0.013034634 -0.037744496 0.010939716 -0.07552707 0.0146697275 0.054205187 0.00095472607 0.013742835
-0.045700092 0.0451732 -0.037381273 -0.009020249 -0.023712168 0.0060568755 -0.02581665 0.0158104
0.0053327135 0.0073122215 0.019687012 0.03521925 -0.025910715 0.048567314 0.043119643 -0.0016586276
0.013137485 -0.027555687 0.007813675 0.040026918 0.030219622 0.023704713 -0.013370149 -0.030246414
-0.04153298 0.020165859 0.034453765 -0.01358411 -0.012082924 -0.029654048 -0.0059700008 0.024087762
-0.0018330737 0.0065399026 -0.0017637289 0.01484516 -0.018183034 -0.014344215 -0.029074483 0.03609612
0.021766642 -0.06863534 -0.063115776 -0.02965898 -0.06143244 0.01712131 -0.038315047 0.04954118
0.037673097 0.04027077 0.0016338428 0.017915966 -0.058182005 0.0097828545 -0.011518279 -0.038587224
0.039381064 0.03902156 -0.00991598 0.027539551 0.0023352143 -0.0040587466 0.0037160737 0.028961187
0.0012538198 0.043242637 0.0013353503 -0.01894216 -0.032648005 -0.013566089 -0.00847172 -0.031944007
-0.028031137 0.053081345 0.052117642 0.0019076313 -0.0025354973 0.018116074 -0.04777656 -0.01938582
-0.013492096 -0.026518557 -0.028144497 -0.031552896 -0.05347527 0.01197032 -0.04086072 -0.006185956
0.016396292 0.0016203227 -0.0043705534 -0.006886182 -0.017144788 0.04343372 0.008095857 0.013387748
0.017964324 0.0037368045 -0.03334195 -0.00010919126 -0.0038346748 0.028367897 -0.0160597 0.012608113
-0.00427959 0.029222243 0.085824005 0.009087955 0.0052279136 -0.005766001 -0.025307601 0.034130715
-0.01233126 -0.017664948 0.00597864 -0.0003125895 0.0038900522 -0.003501761 -0.03136741 0.0112349
0.06298624 -0.0019236025 -0.0020236385 0.053510997 -0.008116299 0.019831665 0.035341732 0.02220754
0.014944107 -0.06994017 0.040891174 -0.0107668005 0.0021737816 0.003914751 0.05780555 -0.048865106
00000000: 3ac5 353c ab32 e13b 3ebb c83c 27a4 c5bc
00000010: dce5 ad3b 3a11 31bb 488a 613b 3bdc 1c3d
00000020: e405 f43c 4fa4 5dbc 9730 723d 26df 4dbb
00000030: f734 bebc 0ad0 58bc fb2b e7bc 13fc 8fbd
00000040: 1a93 62bc 4a6b 31bc c923 07bb 5695 a8bd
00000050: ca02 0dbc 6aec 5cba b22c 443a 455c 4238
00000060: 71a9 2b3d f6c2 69bc f3fa 60bb 57ae c83c
00000070: 6a7a 0ebd 4d56 803d 49e1 0a3d 4ba4 3b3c
00000080: 6066 10bd dd4e c73c 96d0 063d f22c cebc
00000090: d785 e8ba efba 94bb c180 0639 4ee0 b73b
000000a0: 7d53 a8bc 002e 6dbc fdcb 2abc b164 313d
000000b0: ae5f 813b 2688 bebc 811d 0cbd 4ecf 12bd
000000c0: a4dc 36bd 8978 553d 4e21 eb3c 27c5 82bc
000000d0: 1314 08bd f5e4 03bd ee5d 05bd 1ff1 a3bc
000000e0: 3ee0 32bd e1a9 05bc 2ffc 7bbd 8e16 2bbc
000000f0: 7192 fc3b 43cc 99bd 6dbe 18bd 0cea 35bd
00000100: b935 6abc 64f7 7e3c ba19 143d eab0 883c
00000110: 471b adbc 6179 bd3c db97 a7bd 9aa9 9e3c
00000120: 2e86 bcbc 3bb1 243b 798c eabc 9f04 b3ba
00000130: 79a1 44bd 3984 2f3d 223c 583d 9d68 823d
00000140: 8c19 62bc ce23 0a3d b405 f53c 2cfe d13b
00000150: 4a63 193d 315c c53d 882f 12bd 49b3 9fbc
00000160: 1016 143c d475 d0bb 1e5f 50bd bff8 31bb
00000170: d039 75bc 4be1 823d 1e88 093d 3f25 aebb
00000180: e66f 1dbc 3587 b53d 5cad 8c3c 2a92 dabc
00000190: 7f9d b5bc a857 1f3d 767e 1ebd d502 5a3c
000001a0: ccef 32bc 2e95 973a 895b 0abc 7db7 7ebb
000001b0: 50d7 053c df5e 8cbd a29f 47bd 82e3 82bc
000001c0: 388f 553c f999 1abd 7f3c 333c f0ad 9abd
000001d0: 4c59 703c 4206 5e3d 9546 7a3a a129 613c
000001e0: 0530 3bbd 8907 393d 1b1d 19bd abc9 13bc
000001f0: 0540 c2bc c178 c63b 707d d3bc d084 813c
00000200: 0bbe ae3b 5c9b ef3b a846 a13c 0f42 103d
00000210: b542 d4bc 85ee 463d 399e 303d 4f66 d9ba
00000220: 9b3e 573c 77bc e1bc ee04 003c 44f3 233d
00000230: 248f f73c 6330 c23c 780e 5bbc 54c7 f7bc
00000240: 7c1e 2abd df32 a53c 641f 0d3d e38f 5ebc
00000250: 75f7 45bc 0ced f2bc ff9f c3bb b353 c53c
00000260: bf43 f0ba ae4c d63b ec2c e7ba 1d39 733c
00000270: 96f4 94bc 0004 6bbc 9c2d eebc 86d9 133d
00000280: f54f b23c af90 8cbd d842 81bd 64f7 f2bc
00000290: 95a0 7bbd fd41 8c3c 3df0 1cbd b1eb 4a3d
000002a0: 1b4f 1a3d f7f2 243d ab26 d63a 81c4 923c
000002b0: 4150 6ebd 4448 203c 2ab7 3cbc a30d 1ebd
000002c0: 0a4e 213d 12d5 1f3d a276 22bc a09a e13c
000002d0: 650a 193b 3cff 84bb 5f89 733b 0340 ed3c
000002e0: 3657 a43a 311f 313d ec06 af3a 972c 9bbc
000002f0: eab9 05bd 4d44 5ebc f8cc 0abc b8d7 02bd
00000300: 8ea1 e5bc d36b 593d 4f79 553d 7c09 fa3a
00000310: 962a 26bb 2968 943c 5bb1 43bd 03cf 9ebc
00000320: f40d 5dbc 723d d9bc 4a8f e6bc 9c3d 01bd
00000330: e208 5bbd 291f 443c 925d 27bd 8fb3 cabb
00000340: 8451 863c 0261 d43a dc36 8fbb 7ba5 e1bb
00000350: 3a73 8cbc 8ee7 313d 7ca4 043c 4958 5b3c
00000360: eb29 933c 2de5 743b 9291 08bd 9dfd e4b8
00000370: 2b4f 7bbb cb63 e83c a28f 83bc 4292 4e3c
00000380: ce3b 8cbb 7c63 ef3c 7fc4 af3d a5e5 143c
00000390: eb4e ab3b b9f0 bcbb e351 cfbc a6cc 0b3d
000003a0: 0e09 4abc 15b6 90bc 78e8 c33b 0de3 a3b9
000003b0: 3ff0 7e3b cd7d 65bb 1d7b 00bd 9612 383c
000003c0: eefe 803d 6421 fcba 059f 04bb 592e 5b3d
000003d0: 3afa 04bc 0476 a23c 7ec2 103d 96ec b53c
000003e0: 21d8 743c cb3c 8fbd 817d 273d 3c67 30bc
000003f0: 0176 0e3b 5047 803b 83c5 6c3d c726 48bd

transformer.ln_f.weight f4 [128]
2.2343755 2.1673057 2.044706 1.8869513 2.3009672 2.1493933 2.1475935 2.1854415
2.0983047 1.9810961 2.226314 2.2156658 2.1749504 2.0473313 2.146291 2.2447422
2.1440156 2.071283 2.1249218 2.0557973 2.1952446 2.1954806 2.2142751 2.2623844
2.1435742 2.1254244 2.0934591 2.162139 2.1542802 2.2572443 2.086299 2.285089
1.9926587 2.0839632 2.2442985 2.2682357 1.9713684 2.2374098 2.132787 2.2235975
2.2082238 2.1400483 2.1604972 2.243772 2.1545749 2.1827276 2.0742133 2.0223882
2.1813235 2.1551995 2.1546633 2.132905 2.1721687 2.2413213 2.1800368 2.098951
2.1592557 2.1429875 2.2156312 2.250529 2.1908433 2.09374 2.2035747 2.1824586
2.2097425 2.2469177 2.2067864 2.30222 2.1507733 2.2013586 2.2221668 2.1115417
2.1154492 2.2167864 2.2276528 2.2342849 2.0602627 2.1092443 1.9783933 2.1111946
2.174802 2.008164 2.1351554 2.1523895 2.1935928 2.2004373 2.1565392 2.235803
2.2017605 2.2116106 2.0891788 2.1612208 2.154838 2.1968322 2.096451 2.1629379
2.1807244 2.0788474 2.2337618 2.126982 2.2270098 2.207192 2.1246185 2.0571542
2.1272192 2.2171812 2.1535833 2.1704066 2.115456 1.9624426 2.2722318 2.0679338
1.8726583 2.2172024 2.1003711 2.0569727 2.1757004 2.1506102 2.0585818 2.1511216
2.139883 2.065973 2.0029998 2.3330228 2.1226487 2.1402762 2.0621314 2.2314298
00000000: 0200 0f40 23b5 0a40 77dc 0240 9f87 f13f
00000010: 0c43 1340 a98f 0940 2c72 0940 46de 0b40
00000020: a04a 0640 8f94 fd3f ee7b 0e40 78cd 0d40
00000030: 6332 0b40 7a07 0340 d55c 0940 dba9 0f40
00000040: 8d37 0940 e78f 0440 b8fe 0740 2f92 0340
00000050: e37e 0c40 c182 0c40 afb6 0d40 e8ca 1040
00000060: 5230 0940 f406 0840 3cfb 0540 7c60 0a40
00000070: badf 0940 b176 1040 ec85 0540 e63e 1240
00000080: 710f ff3f a75f 0540 96a2 0f40 c62a 1140
00000090: cd55 fc3f b931 0f40 957f 0840 6c4f 0e40
000000a0: 8a53 0d40 8df6 0840 9645 0a40 f699 0f40
000000b0: 8ee4 0940 cfb1 0b40 e9bf 0440 cf6e 0140
000000c0: ce9a 0b40 caee 0940 01e6 0940 8481 0840
000000d0: d004 0b40 cf71 0f40 b985 0b40 3755 0640
000000e0: 3f31 0a40 b526 0940 e7cc 0d40 ab08 1040
000000f0: c736 0c40 d6ff 0540 5e07 0d40 67ad 0b40
00000100: 6c6c 0d40 80cd 0f40 fd3b 0d40 9357 1340
00000110: 45a6 0940 0fe3 0c40 fb37 0e40 8023 0740
00000120: 8563 0740 d4df 0d40 dd91 0e40 86fe 0e40
00000130: 58db 0340 dcfd 0640 fe3b fd3f d01d 0740
00000140: f52f 0b40 c285 0040 63a6 0840 c0c0 0940
00000150: d363 0c40 f7d3 0c40 bd04 0a40 6517 0f40
00000160: a5e9 0c40 078b 0d40 1bb5 0540 7151 0a40
00000170: dee8 0940 e698 0c40 412c 0640 936d 0a40
00000180: fd90 0b40 d60b 0540 f4f5 0e40 7920 0840
00000190: 5487 0e40 a242 0d40 c0f9 0740 6aa8 0340
000001a0: 5c24 0840 4ce6 0d40 4fd4 0940 f1e7 0a40
000001b0: a263 0740 5231 fb3f 3f6c 1140 0759 0440
000001c0: 44b3 ef3f a5e6 0d40 7b6c 0640 71a5 0340
000001d0: ad3e 0b40 99a3 0940 cebf 0340 faab 0940
000001e0: d8f3 0840 e738 0440 2631 0040 3f50 1540
000001f0: 7ad9 0740 49fa 0840 f6f9 0340 bfcf 0e40
