ablation_0.1_ckpt/model_epoch100.pt (torch, 900786 bytes, 10 tensors)

transformer.wte.weight f4 [206, 128]
000000 a1 d3 d8 3e 8a 43 26 bd 5c cc 22 3e 4b fb 8d 3e
       0.4234896 -0.040591754 0.1589827 0.27730784
000010 30 bb 92 be c9 e5 56 3e 99 02 9b bd a4 b6 87 be
       -0.28658438 0.20986094 -0.07568855 -0.2650653
000020 d8 c3 28 be 1b 59 a9 be 59 9e 06 be e6 69 a0 3e
       -0.16480958 -0.33075795 -0.13146342 0.31330794
000030 0a 04 c9 be cc 92 68 3e 7a 4b d0 3d cb 5a 11 3d
       -0.39260894 0.22712249 0.10170646 0.035486978
000040 a8 86 a3 3e 6a 04 58 3d f5 98 9c 3e 43 ce c1 3d
       0.31938672 0.052738585 0.30585447 0.094631694
000050 8d 12 b9 3d b7 15 90 bd b5 20 b5 3e ec a4 f6 3d
       0.090367414 -0.07035392 0.35376516 0.12043175
000060 70 e9 32 be 7f c5 8f 3e 7e fb 7f 3b 6d 7a dc be
       -0.17471862 0.28080365 0.0039059813 -0.43062153
000070 2b 16 01 3e 05 ed 80 be b6 80 95 3e 06 7e 80 3e
       0.12606113 -0.25180832 0.2919976 0.25096148
000080 5e 86 7c 3e e0 cb 11 be e8 d2 86 be 74 9b c0 3e
       0.24660632 -0.14237928 -0.26332784 0.376186
000090 ea 5e 6e be fd b0 1a 3e af b6 17 3e e1 60 7e be
       -0.23278394 0.15106578 0.14815782 -0.24841644
0000a0 51 78 68 be 99 96 9b 3e e1 22 0e bf 1d ce bf be
       -0.22702147 0.30388334 -0.5552197 -0.3746194
0000b0 f5 15 a7 3e 7d 43 49 be e5 5a c9 3d 14 57 b9 3e
       0.3263394 -0.19654651 0.0983179 0.36199248
0000c0 8b 0d 30 be 57 83 ab be b6 eb a0 be d7 fd 65 be
       -0.17192666 -0.33498642 -0.31429833 -0.22460113
0000d0 a8 37 8b be 34 f9 dc be 50 0a c5 3e 55 c2 d2 3e
       -0.271909 -0.43158877 0.3848443 0.4116389
0000e0 a5 20 27 be 53 9f 4f bd 2f ee ad be 0c 2a 34 bb
       -0.16321047 -0.050689053 -0.33970782 -0.0027490882
0000f0 90 fd 8c be 2f ea 17 3e ff b2 b5 be 9d 76 9b bb
       -0.27537203 0.14835428 -0.35488126 -0.0047443644
000100 5c d1 f9 3c 74 29 b0 3e e5 35 54 3e fa 15 a0 3e
       0.030495338 0.34406626 0.20723684 0.31266767
000110 47 6e 40 3e fa 27 26 be 7c 57 af 3d 08 55 89 bd
       0.18792067 -0.16226187 0.08561608 -0.067056715
000120 e2 0e b5 be 19 69 6c be 57 d4 a1 3e 54 e1 8f 3e
       -0.35362917 -0.23086967 0.31607315 0.281016
000130 05 68 09 3e 0d b9 a5 be a6 79 86 be c4 25 9b be
       0.13418587 -0.32367745 -0.26264685 -0.3030225
000140 3d f9 52 3e 9c 4e 82 3e 7a 60 dc 3d 1e a8 97 bd
       0.2060289 0.254506 0.10760589 -0.07405113
000150 a5 d0 76 3e 4e b7 68 be 3f d5 d0 3d 35 53 88 3e
       0.24103029 -0.22726175 0.101969235 0.26625982
000160 10 85 3f 3e 4c af 32 be 24 c3 26 3c 3c 61 00 be
       0.18703103 -0.17449683 0.010178361 -0.12537092
000170 3b 5b fe bd 57 49 a7 be 2a f7 76 be 20 89 90 be
       -0.124197446 -0.3267314 -0.24117723 -0.28229618
000180 ba f2 af bd 22 88 5a 3e 7c c4 17 be f3 4b 97 be
       -0.08591218 0.21340993 -0.14821047 -0.29550132
000190 80 9f 17 be 33 18 5b be ad ac 2a 3e cd ec 6a 3e
       -0.14806938 -0.2139595 0.16667433 0.22941895
0001a0 f0 3e b9 3e da 7a 65 be 57 32 a3 3e 06 70 42 be
       0.3618083 -0.22410145 0.31874344 -0.18988046
0001b0 83 0d 34 3e 24 b6 7d 3e df 31 08 3e c6 05 fe 3b
       0.1758328 0.24776512 0.13300274 0.007752153
0001c0 37 44 c2 bd c6 8e 8a 3e 31 48 89 be 8d f2 e2 3e
       -0.09485667 0.27062052 -0.2681289 0.44325677
0001d0 c1 98 76 be 7b 68 c1 3e c9 ae 4d 3e 27 fc ac be
       -0.24081708 0.37775025 0.20086206 -0.33786127
0001e0 f7 e4 6e 3e 22 3c 8d bd a2 f3 21 3e 74 fe 35 be
       0.2332953 -0.06896235 0.15815595 -0.17772847
0001f0 20 c9 4f be 74 a4 79 be 9d 6d 6d be cc 19 7c 3e
       -0.20291567 -0.2437914 -0.23186345 0.24619216
000200 be 33 d2 3e f4 fd 31 bd 6d a1 24 3e e6 10 91 3e
       0.410551 -0.04345508 0.16077204 0.28333205
000210 df 27 97 be 35 18 43 3e d8 8a 8c bd 45 54 81 be
       -0.29522607 0.19052203 -0.0686242 -0.25259605
000220 30 96 32 be 77 04 a6 be 0c 94 09 be cd 15 a1 3e
       -0.17440104 -0.3242528 -0.13435382 0.31461945
000230 22 54 c7 be 90 ea 72 3e aa bf e9 3d 29 6a 1a 3d
       -0.38931376 0.23722291 0.1141351 0.0376989
000240 25 12 a0 3e 1a b1 33 3d 83 9d 98 3e fc 9b b9 3d
       0.31263843 0.04387007 0.29807672 0.09062955
000250 ae 27 b4 3d 60 09 a8 bd 8d 8d b9 3e cb 51 f1 3d
       0.08796631 -0.08204913 0.36240807 0.11783179
000260 34 1e 2d be 58 e4 85 3e 6c 79 fb 3b 3a bd df be
       -0.16906053 0.26150775 0.0076743867 -0.43699056
000270 83 80 f8 3d e5 91 78 be fe f6 8c 3e ca 9c 74 3e
       0.12133887 -0.24274404 0.2753219 0.23887935
000280 60 58 81 3e 27 3e 18 be d3 50 85 be f3 a2 bb 3e
       0.25262737 -0.14867459 -0.26038226 0.36647758
000290 79 c3 6a be 2c d0 11 3e ef 6a 2c 3e 0e 94 6b be
       -0.2292613 0.14239568 0.16837667 -0.23005697
0002a0 2f 4c 72 be 26 18 9a 3e 9f 04 0f bf b2 19 bb be
       -0.23661874 0.3009655 -0.55866426 -0.3654304
0002b0 05 2c 9f 3e b2 42 53 be 18 8e cc 3d 94 9f b4 3e
       0.31088272 -0.20630911 0.0998804 0.35277998
0002c0 a6 93 3e be 62 5c ae be ef 10 a3 be 39 0e 69 be
       -0.18611011 -0.34054857 -0.31848857 -0.22759332
0002d0 6f 1f 94 be d2 50 db be 06 5c c5 3e 7a f0 d3 3e
       -0.28930232 -0.42835099 0.3854677 0.41394407
0002e0 14 a9 20 be 0c 41 5c bd a5 43 ab be f1 c1 3e bc
       -0.15689498 -0.05377297 -0.33450046 -0.011642919
0002f0 99 d8 88 be 02 05 0d 3e 10 70 b2 be f4 42 e8 bb
       -0.2672775 0.13771442 -0.34851122 -0.0070880596
000300 40 a4 b3 3c 53 73 ab 3e 44 7c 5c 3e 86 7e 9f 3e
       0.021928906 0.33486423 0.21531779 0.31151217
000310 fd 70 3a 3e ea c7 2f be 65 58 c0 3d 61 20 90 bd
       0.18207164 -0.17166105 0.0939186 -0.07037426
000320 63 23 b5 be cd 35 66 be ca 66 a1 3e fc 9b 8f 3e
       -0.3537856 -0.22481461 0.31523734 0.28048694
000330 02 16 03 3e fd 6e 9e be bb 79 8a be bd d1 9c be
       0.12801364 -0.30944052 -0.27045998 -0.30628768
000340 c2 3a 3b 3e d1 22 7f 3e a6 82 d8 3d f2 64 9b bd
       0.18284133 0.24915625 0.10571794 -0.07587613
000350 db c0 77 3e b6 f5 66 be 69 af bb 3d 98 f6 8a 3e
       0.24194662 -0.22554669 0.09164316 0.2714126
000360 32 c2 47 3e 5f 66 2f be 91 57 d9 3b 1e 84 e4 bd
       0.19507673 -0.17128895 0.006632753 -0.11158012
000370 1f d2 f8 bd 7e ce 9c be eb 47 69 be ff 36 93 be
       -0.121494524 -0.3062629 -0.22781341 -0.28752896
000380 72 f4 b7 bd 95 40 56 3e 01 01 21 be 72 a4 96 be
       -0.08982171 0.20923074 -0.15723039 -0.29422337
000390 c2 a6 14 be df 86 69 be c1 2c 32 3e 13 ba 75 3e
       -0.14516738 -0.22805355 0.17399885 0.23996763
0003a0 1d 71 be 3e 4f 48 61 be 68 91 a9 3e 25 5b 51 be
       0.37195674 -0.2200024 0.3311875 -0.20444925
0003b0 8b 2c 37 3e f4 d1 6d 3e dd 67 05 3e 0a e1 db ba
       0.17888086 0.23224622 0.13027902 -0.0016775441
0003c0 24 d5 e7 bd ec 0c 8c 3e d3 2c 8e be 7e f3 e4 3e
       -0.1131995 0.2735361 -0.27768573 0.4471702
0003d0 d3 f4 6f be 40 ef c5 3e f7 bc 57 3e 42 0e a8 be
       -0.23433237 0.38659096 0.21068178 -0.32823378
0003e0 c4 07 6b 3e f2 bf 75 bd b4 cc 16 3e cb 6f 3e be
       0.22952181 -0.059997506 0.14726526 -0.18597333
0003f0 bb c2 51 be 24 67 77 be f2 d0 78 be 1e af 78 3e
       -0.2048444 -0.24160439 -0.24298456 0.24285552

transformer.wpe.weight f4 [5, 128]
000000 1f 21 93 bd a6 c4 0f 3b 58 f5 8e bd ad a2 50 be
       -0.07184052 0.002193728 -0.06980389 -0.20374556
000010 9e 0c 89 bd d0 af 26 be 29 b7 5c bc fb d5 0b bd
       -0.0669186 -0.16278005 -0.013471403 -0.034139615
000020 a4 57 03 3e df 25 7e 3d 02 a1 a1 3c 5e 0a d4 ba
       0.12826401 0.062047835 0.019730095 -0.0016177406
000030 b6 b6 fc 3d e9 43 c8 3c 4e ca 3f bd ce ad f9 3c
       0.12339537 0.024446445 -0.046823792 0.030478384
000040 46 04 b8 bd 59 05 7e 3b 6d 1f 73 bd 87 0c 22 be
       -0.0898519 0.0038760512 -0.05935614 -0.15825091
000050 9b 09 f2 3b a4 5e a0 3b 07 1d 40 be 91 56 04 be
       0.007386399 0.0048940945 -0.18761073 -0.12923647
000060 a9 00 52 3c 6d 25 2f be 84 07 c0 3d 55 a5 cf 3d
       0.01281754 -0.1710412 0.093764335 0.101389565
000070 1c 44 63 bd 85 fa b5 3d 21 0c 05 bd 16 0a 22 be
       -0.055484876 0.088856734 -0.03248227 -0.1582416
000080 40 85 90 bd a2 60 10 3d 38 f6 95 3d 3c 37 4f be
       -0.070566654 0.035248406 0.07322353 -0.20235914
000090 50 18 34 3c ec f7 95 bd 44 f1 2b 3c 5d 4f 6b 3d
       0.010992125 -0.07322678 0.010494534 0.057448734
0000a0 23 5c 52 3d 0b 55 7d bd 5a e1 53 3e b1 a7 f4 3c
       0.0513574 -0.06184868 0.20691434 0.029865118
0000b0 89 6b f9 bc b7 ed 0e 3e 78 84 b3 bc 52 92 17 be
       -0.030446785 0.13957869 -0.021913752 -0.1480191
0000c0 ff 96 d9 3d 9c 3e 0a 3d f5 40 b7 3d c9 e1 a7 3d
       0.10624503 0.033751115 0.089479364 0.08197362
0000d0 20 6c 15 3e dd 05 a4 3d b4 29 28 be ea a3 59 be
       0.14592028 0.08008931 -0.16422158 -0.21253935
0000e0 19 7d d5 3c 21 ee 70 3d 30 1d 04 3d 14 06 49 3c
       0.026060628 0.058820847 0.032254398 0.012269516
0000f0 4e 1d 62 3d 6a 7e 9a bd 98 54 02 3e 9c e0 5f bc
       0.05520373 -0.07543643 0.12727582 -0.013664391
000100 3a cb c2 3c 63 20 e8 bd f7 62 80 bd 37 50 22 bd
       0.023778547 -0.11334302 -0.06268876 -0.03962728
000110 ed de 01 be a1 11 09 3d 6e 8a 71 bd 79 f9 0f bd
       -0.12682696 0.033464078 -0.058969907 -0.035150025
000120 60 b2 12 3e 25 d0 a2 3d 15 ed 2f bd df 3a 05 be
       0.14325857 0.07949857 -0.04295071 -0.13010739
000130 db 62 c5 bc 80 0a 2e 3e 93 3d 16 3e 20 51 3a 3e
       -0.02409499 0.16996193 0.14671926 0.18195009
000140 00 84 89 bb f5 cf 17 be 89 22 52 bd 26 b7 28 bd
       -0.004196644 -0.14825423 -0.051302467 -0.04119029
000150 db 1c 34 bc d4 df ad 3d ef 32 59 bd 01 07 0a be
       -0.010993208 0.084899575 -0.05302709 -0.13479234
000160 21 e9 44 3c 6e 17 d2 3d 97 9b 4b 3d b8 e3 e2 3c
       0.012018473 0.10258375 0.04970893 0.027696475
000170 5e 9e 3b 3d f0 29 e2 3d 33 e9 e7 3d e9 8f b5 3d
       0.045805328 0.11043155 0.11323776 0.08865339
000180 b0 e1 03 3d 10 96 9f bc 53 b7 ed bc 65 dd fd 3d
       0.032197654 -0.019480735 -0.02901808 0.12395743
000190 ad 70 99 3d 64 09 69 3d a5 2b fd bc 07 ff d8 bd
       0.07492194 0.05689372 -0.0309046 -0.105955176
0001a0 d9 85 8d bd 8f a2 ed bb 38 82 fc bd aa 1d 9b 3d
       -0.06910295 -0.0072520445 -0.12329525 0.07574017
0001b0 36 8c 42 bd e1 0e 3b bd 11 aa 99 bd af 08 5f 3d
       -0.047496997 -0.045668487 -0.07503141 0.05445164
0001c0 38 e0 e8 3d d2 bc 2a be 4a d2 1f 3e 33 49 51 bd
       0.11370891 -0.16673592 0.15607563 -0.0510952
0001d0 dc 83 af 3d bc ad 15 be dd 98 2e bd b5 fa b5 3d
       0.08570072 -0.14617056 -0.04262625 0.08885709
0001e0 09 9d a5 3d e0 db 11 bd 7d 4f 50 be ca 98 6c 3c
       0.08086593 -0.03561008 -0.20342822 0.014440725
0001f0 d8 93 2c 3c 90 f4 18 3e 10 2f b0 3c 3a b9 d8 bd
       0.010533296 0.14937043 0.021506816 -0.10582204
000200 ad d6 32 bd 0e 5d ec 3b c9 04 27 bd 96 5b f1 3c
       -0.043661762 0.0072132414 -0.040776048 0.029462617
000210 ff 0a 51 3c f5 1a 17 ba 10 74 7a 3c fe 0d a9 bb
       0.012758969 -0.000576421 0.0152864605 -0.0051591387
000220 fa d0 f4 bc c7 a0 01 3d 8b 61 72 bc 29 8f 8f 3c
       -0.029884804 0.03164747 -0.014793764 0.017524319
000230 4f 16 0d bc 76 85 aa 3c c9 d3 a8 bc 1c b0 72 bb
       -0.008611276 0.020815592 -0.0206088 -0.003703124
000240 33 2c 8e 3d 59 73 12 bc 67 d3 25 3d 98 4b 0e 3b
       0.06942024 -0.008938634 0.040484812 0.0021712538
000250 7b 31 50 3c a6 7b b9 bb dd f1 40 3c bc 18 94 bb
       0.01270711 -0.005660492 0.011776415 -0.00451955
000260 ff 05 fc 3c 84 10 05 3d a7 53 e7 3b 67 13 ed bc
       0.030764578 0.032486454 0.0070595327 -0.028939916
000270 0c 0e fb 3b ab 3d 66 bc a0 1e 9f bc 45 6d 09 3d
       0.0076615866 -0.014052789 -0.019423783 0.033551473
000280 65 8f 6d bc 29 51 1d 3d 4d 4f e9 bb ed d3 b2 3c
       -0.01449952 0.03840748 -0.007120049 0.02182957
000290 ad 53 f9 3c 3b 3c 4a 3d 8c 71 d3 3b f7 5d d5 bc
       0.030435408 0.049373847 0.006452745 -0.026045782
0002a0 61 49 13 bc fc ab c7 ba 26 67 0c 3b 5c e4 22 bd
       -0.008989663 -0.001523375 0.0021423786 -0.03976856
0002b0 db 52 dd bc 26 a8 39 bc 17 0d 80 3c 14 1a 3a 3c
       -0.027017048 -0.011331594 0.015631242 0.011358757
0002c0 fc 7e a7 3b 49 a7 89 3d fd 04 b8 bb bd 02 57 bd
       0.0051115733 0.0672136 -0.005615829 -0.052492846
0002d0 aa cd 54 3c e1 8e 83 3c 39 94 24 3d 68 77 7d 3b
       0.012988487 0.01605934 0.04018042 0.0038675908
0002e0 bc 24 91 bc 5a 57 2b bc 2a 8c 19 bc 2d f3 b0 b9
       -0.017717712 -0.010457838 -0.009371797 -0.00033750516
0002f0 9e 0b 0e 3d 26 27 08 bd ad 63 73 3c 6e 73 8d bb
       0.034679048 -0.03324046 0.0148553075 -0.004316739
000300 6a 22 fe ba 41 ee 0b 3c da 8a d3 bb 79 af 33 bc
       -0.0019388918 0.008540691 -0.0064557614 -0.010967129
000310 e8 5e 53 bc 94 4a e0 3b a1 b4 63 bc 21 cc 11 3c
       -0.012901045 0.006844828 -0.013898046 0.008898766
000320 90 c4 39 bc b4 fa 17 bc 42 b0 ab 39 74 cd bb 3c
       -0.011338368 -0.009276081 0.00032746984 0.022925116
000330 26 64 9f bc fc f7 df bc 42 8d d1 bc b2 26 ac bb
       -0.019456934 -0.027339928 -0.025580052 -0.0052536363
000340 cd a9 4f 3d 30 08 32 bb a2 98 a5 3c 7b 7f bf ba
       0.050699044 -0.0027165525 0.020214383 -0.0014610136
000350 f0 5a 4c bb 0c e9 e6 bc 9a 61 0b bc fb c5 10 bc
       -0.0031182133 -0.028187297 -0.008507157 -0.008836265
000360 31 aa 9d b7 b9 35 ee bb b7 be de bc 56 88 a9 bb
       -1.879511e-05 -0.007269588 -0.02719055 -0.005173723
000370 a0 2b 3e 3c f8 6f 26 bd 55 9f 77 bc 78 eb 38 bd
       0.011607081 -0.040634125 -0.015113671 -0.045146435
000380 0b 4b 37 ba 95 ff c8 3c c7 7d 16 3d 5f 70 e6 3b
       -0.0006992078 0.024535934 0.036741044 0.0070324386
000390 6b b0 f4 3c 95 56 81 bc f1 44 26 bd 5f 81 06 3d
       0.029869279 -0.015788356 -0.04059309 0.03283822
0003a0 ba ae 79 3d be f6 04 3c 3b 05 50 3a 41 a1 43 3c
       0.060957648 0.008115469 0.000793535 0.011940301
0003b0 af db 3b 3c eb 33 c7 bc db b5 ac 3c e4 1f 01 bd
       0.011465951 -0.024316749 0.02108281 -0.031524554
0003c0 91 a0 2c 3c af 17 74 3c 2d 74 a9 bc b2 c9 c4 bc
       0.010536329 0.014898225 -0.02068528 -0.024021957
0003d0 d6 7e 30 bc 74 82 4e 3c d1 4f d0 3c a2 73 fc bc
       -0.010772428 0.012604345 0.025428684 -0.030816857
0003e0 83 c2 61 bd d4 df fc 3c 8b 80 66 3d 39 c7 d8 bc
       -0.05511714 0.030868448 0.056274932 -0.026462184
0003f0 89 03 9e 3c e9 b9 e3 bc 47 53 23 3c 00 70 1d bc
       0.019288795 -0.02779861 0.009968585 -0.009609222

transformer.h.0.ln_1.weight f4 [128]
000000 a9 2d 68 3f 16 dc 6f 3f 84 eb 66 3f d0 45 6a 3f
       0.9069467 0.936952 0.9020312 0.91512775
000010 d4 b0 80 3f 32 06 7e 3f d5 0d 69 3f d1 41 73 3f
       1.0053964 0.99228203 0.9103673 0.950223
000020 fe 73 76 3f bb a4 71 3f dc 66 73 3f a4 86 76 3f
       0.9627074 0.94391984 0.95078826 0.96299195
000030 67 2a 76 3f a3 ae 7b 3f 77 96 6e 3f f7 3e 79 3f
       0.9615845 0.9831335 0.9319834 0.973617
000040 fe 3f 6f 3f ba 32 70 3f be 43 6e 3f 55 3c 77 3f
       0.9345702 0.938274 0.93072116 0.96576434
000050 20 fb 75 3f 4b 38 77 3f 56 2b 77 3f 23 23 73 3f
       0.9608631 0.9657027 0.965505 0.9497549
000060 31 4c 75 3f 65 38 6d 3f fd 5e 71 3f 7d f6 6c 3f
       0.95819384 0.92664176 0.94285566 0.9256361
000070 2d 2e 69 3f b4 bc 68 3f 22 90 72 3f 88 ab 73 3f
       0.91086084 0.9091294 0.9475118 0.9518361
000080 c3 8e 7a 3f 21 fe 77 3f 66 73 75 3f 24 fd 75 3f
       0.9787409 0.96872145 0.9587921 0.96089387
000090 26 7d 6b 3f 8d 02 6d 3f 60 a4 73 3f 53 bf 6c 3f
       0.91987836 0.9258202 0.9517269 0.9247944
0000a0 d4 a7 7c 3f 4b e9 7b 3f 33 13 7e 3f dc f0 74 3f
       0.98693585 0.9840285 0.99248046 0.9568002
0000b0 b6 76 6c 3f f6 af 75 3f 09 ed 75 3f 2f be 6c 3f
       0.9236864 0.9597162 0.9606481 0.924777
0000c0 8c f0 70 3f a8 6d 70 3f ee 7a 80 3f b1 c8 6e 3f
       0.94117045 0.9391732 1.0037515 0.9327498
0000d0 a3 ec 72 3f ae ab 79 3f 96 a9 6c 3f 6f 14 80 3f
       0.9489233 0.9752759 0.9244627 1.0006236
0000e0 e7 5e 7d 3f 18 43 6a 3f 94 c3 74 3f d1 53 74 3f
       0.98972934 0.91508627 0.9561093 0.95440394
0000f0 e9 a0 6d 3f f4 74 6f 3f d6 70 6e 3f e5 18 77 3f
       0.92823654 0.9353783 0.93140924 0.9652236
000100 c1 b5 6c 3f da b9 6b 3f 88 0e 66 3f a2 6f 78 3f
       0.92464834 0.9208046 0.8986592 0.9704534
000110 08 30 81 3f bb d0 74 3f 91 f8 78 3f f6 3f 70 3f
       1.0092783 0.95631 0.9725428 0.93847597
000120 92 bc 75 3f 1c 60 73 3f a4 17 70 3f 51 dc 72 3f
       0.9599086 0.95068526 0.9378607 0.94867426
000130 75 7f 6d 3f b0 88 7f 3f cd 1f 73 3f 8a 4a 75 3f
       0.9277261 0.99817944 0.949704 0.9581686
000140 96 19 6c 3f f4 55 66 3f a4 fd 79 3f 6c f4 76 3f
       0.9222654 0.89974904 0.9765265 0.9646671
000150 eb a9 7d 3f 6c 4f 75 3f 8a 48 75 3f 9a a9 7a 3f
       0.990874 0.95824313 0.9581381 0.9791504
000160 1a e6 70 3f b8 0c 73 3f 05 b5 6f 3f 2e 6f 73 3f
       0.9410111 0.9494128 0.9363559 0.9509152
000170 af 56 7c 3f 85 e0 6a 3f 15 93 7a 3f 55 21 6e 3f
       0.9856977 0.9174884 0.9788068 0.9301961
000180 42 11 77 3f c7 60 77 3f cb 06 6f 3f fa aa 74 3f
       0.9651071 0.96632046 0.9336974 0.9557339
000190 27 57 7c 3f fc 41 7a 3f 19 d0 77 3f b3 af 71 3f
       0.98570484 0.97756934 0.96801907 0.9440872
0001a0 13 2b 68 3f 24 16 72 3f 66 0e 74 3f b6 cc 75 3f
       0.90690726 0.94565034 0.9533447 0.9601549
0001b0 36 cd 73 3f e7 69 6b 3f 26 cf 73 3f 46 70 73 3f
       0.95235 0.9195847 0.9523796 0.9509319
0001c0 10 61 78 3f d8 21 75 3f 9a e8 64 3f 3a 10 71 3f
       0.97023106 0.95754766 0.8941742 0.94165385
0001d0 bc 82 66 3f 21 b6 74 3f 94 75 65 3f da c6 6a 3f
       0.90043235 0.95590407 0.89632535 0.91709673
0001e0 12 c3 6e 3f fb 76 6f 3f f7 70 69 3f d6 68 79 3f
       0.93266404 0.93540925 0.91187996 0.9742559
0001f0 a3 f0 69 3f 28 8c 6c 3f 91 94 6b 3f 48 eb 6f 3f
       0.9138281 0.9240136 0.9202357 0.93718386

transformer.h.0.attn.c_attn.weight f4 [384, 128]
000000 ca 39 6f 3c 02 e5 e2 3c 40 03 a8 bc 3e bf 1e bd
       0.01460118 0.02769709 -0.020509362 -0.0387566
000010 10 18 75 bc 9d 5d 9e 3c eb 70 b7 bc 59 ec 46 3c
       -0.01495935 0.019331748 -0.02239271 0.012141311
000020 e5 23 5d bc d8 34 f9 bc 71 36 ac 3b 58 9b 87 3c
       -0.013497327 -0.030420706 0.0052555134 0.016553566
000030 3e 6a ef bb 3a bc cc 39 5b 91 a8 bc 69 4b 59 bb
       -0.007306366 0.00039050152 -0.020577123 -0.003315652
000040 74 33 11 3d 17 b9 b6 bc 5b 64 12 bc d9 cc bf 3c
       0.03544946 -0.022305055 -0.008935059 0.023413109
000050 96 72 e0 bc 0e b5 4a 3c 58 97 0b 3d 07 ca 64 bc
       -0.027398389 0.012372268 0.03407988 -0.013964183
000060 05 67 65 bb fd fb 20 bc f1 f2 3d bc 4a 33 a0 bc
       -0.0035004031 -0.009825704 -0.011593566 -0.019555707
000070 90 a5 80 3c 3c 8c 49 bb 10 a1 d1 3c 3e 04 e8 3c
       0.015703946 -0.0030753752 0.025589496 0.028322335
000080 42 16 df bc 50 41 bb 3c 59 a0 04 bb e2 22 2e 3c
       -0.027232293 0.022858292 -0.0020237176 0.010628434
000090 2b 30 12 bc c7 2b cc bc 20 7c 3e 3c cb 48 82 3c
       -0.008922617 -0.024923218 0.011626273 0.015903851
0000a0 82 37 fb b9 9a 58 ed 3c f9 fe 83 bc d4 3a cc 38
       -0.00047915807 0.028972913 -0.016112791 9.7384356e-05
0000b0 7e 7b 5b 3c 10 2e 54 3c a0 cd 28 bb 69 78 3d bc
       0.013396142 0.012950435 -0.0025757328 -0.011564353
0000c0 e2 39 e4 bc 33 7f a8 bb ee e5 0f ba 54 22 ea 3a
       -0.027859632 -0.0051421165 -0.0005489279 0.0017863014
0000d0 2d 2d a7 3b a3 fd 75 bc 80 38 de 3c cb de 2d 3b
       0.005101821 -0.015014085 0.02712655 0.00265305
0000e0 e9 25 06 3d f7 f9 b1 bc 4c 8d 0e bd d6 41 15 3c
       0.032750998 -0.021725638 -0.03480272 0.009109935
0000f0 27 c5 b1 bc 5d bc 41 3c ef 82 05 3b 7d 21 4e 3c
       -0.021700455 0.011824694 0.0020372232 0.012581226
000100 ba 83 49 3b b7 c2 aa 3c 8f e5 7c 3c bf 8f ee bb
       0.0030748681 0.0208448 0.01543559 -0.0072803195
000110 3d 53 c7 bb ab 93 af 3b e0 9b 37 3b a3 c7 97 bc
       -0.006082921 0.0053581796 0.0028016493 -0.018527811
000120 c8 e2 18 3c d0 8f 75 bb a5 35 6b bc f8 6a 9f bb
       0.009331413 -0.0037469752 -0.014356052 -0.0048650466
000130 47 8f 00 3c 93 02 f1 3c d3 d3 d4 bc ac 9d ce 3c
       0.00784666 0.029420173 -0.025979912 0.025221668
000140 76 33 05 bb 1e 53 35 bb 98 87 e3 bc b3 66 eb 3c
       -0.0020324863 -0.002766795 -0.027774617 0.028735494
000150 9a 56 2d 3d 6e 47 70 3c fe fe 94 bc 97 36 3f bc
       0.042318918 0.014665468 -0.018187996 -0.01167073
000160 53 27 88 3b ab c0 e6 bb e2 88 f9 3c 7b c8 bd 3c
       0.0041550784 -0.007042011 0.030460779 0.023166886
000170 02 4f eb bc e9 0f 6a bc cb 06 89 bb d8 2b 80 3c
       -0.028724197 -0.01428602 -0.004181718 0.015645906
000180 89 ab da bc ed 74 bf bb af a0 59 3a b6 e4 4b 3b
       -0.026693122 -0.005842796 0.0008301837 0.0031111664
000190 7c cf f8 3b a3 fa ad bc 4e 55 f5 3c e3 18 ee bc
       0.0075930934 -0.021237677 0.029947903 -0.029064601
0001a0 65 31 33 3c d3 5b 8a bc 07 12 7a 3c 46 5e af bc
       0.01093707 -0.016889488 0.015263087 -0.021407258
0001b0 3e 27 b2 ba c8 19 e3 bb 13 42 cf 3b 2e d5 02 3c
       -0.0013592017 -0.0069305636 0.0063250153 0.007985396
0001c0 d9 9c 91 3c c6 52 9c 3c 93 83 dc bc 7a 8f 72 bc
       0.017774986 0.019082438 -0.026918208 -0.014804715
0001d0 3d 80 e8 bc 25 e2 d2 bc 91 80 af bc 88 e6 47 bc
       -0.028381461 -0.0257426 -0.02142361 -0.012200959
0001e0 8a 58 30 ba 12 e7 42 3c 57 8e 27 bc 3f 12 20 3d
       -0.00067270605 0.011895912 -0.010226808 0.0390799
0001f0 86 40 2c 3c f1 33 52 bc 17 f8 53 3d 28 41 00 bc
       0.01051343 -0.012829767 0.05175027 -0.007828034
000200 47 a3 38 3d 3b 43 96 bb 83 05 81 3c 65 85 9b bc
       0.04507759 -0.004585651 0.015749699 -0.018984506
000210 f1 40 f8 bc d7 22 34 3d a3 c1 ad 3c 52 a1 76 3b
       -0.030304404 0.04397854 0.021210497 0.0037632775
000220 c8 bc 1f bd d5 47 59 bb a0 b9 e9 3b 58 c6 1c ba
       -0.038998395 -0.0033154387 0.007132724 -0.0005980483
000230 06 87 0f bb d4 71 37 3c cc 0a 98 3a 3d 03 8f 3c
       -0.0021900549 0.011196572 0.0011599897 0.017457599
000240 35 8a ad 3c 5f 48 ea 3c ff 66 08 3d 00 70 89 ba
       0.021184066 0.028598962 0.03330135 -0.0010485649
000250 e9 a8 1d bd 40 fc bf 3c f6 6a 0c 3c bf 7a 11 bb
       -0.038491163 0.023435712 0.008570423 -0.0022198407
000260 ab 5f 0d bd f3 93 64 bb 82 d2 8e 3c 29 26 34 bd
       -0.034515064 -0.0034878224 0.017434362 -0.043981705
000270 09 41 04 3d 0d 77 88 bb 8e f8 3e bc 3a 8b 4d bc
       0.032288585 -0.0041645826 -0.01165594 -0.012545401
000280 2c ca 56 3c 07 60 ed bc 65 70 a1 bc 32 91 5e bc
       0.013109725 -0.028976453 -0.019706914 -0.013584422
000290 02 32 cc bb 25 97 8b 3c 4c b7 1b 3d 16 72 07 3c
       -0.0062315473 0.017039845 0.038016602 0.008266946
0002a0 b0 b3 c0 bc a8 44 ca 3c 5a e8 4d 3c 29 7b b3 bc
       -0.023523182 0.024690941 0.012567604 -0.021909313
0002b0 33 55 b9 ba 1a 9a 00 3c 89 8c ee 3c f2 38 1d bc
       -0.0014139771 0.007849241 0.029119747 -0.009596096
0002c0 79 6e e8 bc 07 13 86 bc 2c 69 a7 bc 23 46 65 3c
       -0.02837299 -0.016366495 -0.020435892 0.013993773
0002d0 c9 d2 95 bc 11 f7 af bc 47 e3 06 bd 4e bc a6 3b
       -0.018288987 -0.021480115 -0.032931592 0.0050883656
0002e0 55 a1 06 3c f5 e6 9d bc 5d 5f 31 bc a4 e8 9d 3c
       0.0082171755 -0.019275168 -0.010825959 0.01927597
0002f0 4e 7f b4 bc ee 83 95 ba 43 95 4e 3c 2a 4b 84 3c
       -0.02203336 -0.0011407116 0.012608829 0.016149122
000300 b6 a9 20 3d 2b 7f 72 bc fa 74 5d 3c b4 80 34 bd
       0.03922435 -0.014800827 0.013516659 -0.044068053
000310 0a d1 0c 3d c4 64 10 3d 2f e9 11 3b 67 f4 04 3d
       0.034379043 0.035252348 0.0022264232 0.032459643
000320 3e 4e 78 3b b0 28 03 bd 9f df 59 bb ed 9d 43 bb
       0.0037888433 -0.032021224 -0.003324486 -0.002984877
000330 33 b9 f7 bc c4 1e d6 3a 32 28 ae bc 87 8c b3 3c
       -0.030239677 0.0016336073 -0.021259401 0.021917595
000340 5b 4f 18 3c d6 f7 a4 3a 52 4d 9e bc d2 a5 c3 bb
       0.009296264 0.0012586068 -0.019323979 -0.005970695
000350 a6 0b cc 3c 5d d5 00 3d 3d 62 c3 bb 3e 4f 8b bc
       0.024907898 0.03145348 -0.0059626387 -0.017005559
000360 b6 85 af bc 32 e2 93 bc 0a bf 36 bc 84 a0 c2 3c
       -0.021426063 -0.018052194 -0.011153946 0.02375818
000370 f2 cb 47 3c 02 fa 96 3c 3b 3b 0d 3d f6 c5 a6 bb
       0.01219462 0.01842976 0.034480315 -0.0050895168
000380 d4 22 c1 bc 95 4f 47 bc fb 7a 81 3c 47 6b 82 bc
       -0.023576178 -0.01216497 0.015805712 -0.015920294
000390 39 72 18 3b 39 3b 50 3c 25 39 a0 3a 8c 12 5d 3d
       0.0023261441 0.012709432 0.0012224062 0.053972766
0003a0 8f 88 f5 3c be d5 ac 3c e7 d9 35 bd 37 51 a9 3b
       0.029972343 0.021098014 -0.04439726 0.0051671523
0003b0 bc 09 04 3c a3 08 8b 3c f1 61 5a 3d 21 1e fc bb
       0.0080589615 0.016971892 0.05331606 -0.0076940213
0003c0 a2 86 4d bd c8 0e 8c bc be b8 9e 3c 70 f0 d6 3b
       -0.050177224 -0.017096892 0.019375201 0.006559424
0003d0 6f e8 f9 bc 0e 6f ba ba 07 e9 a5 bb 14 cf 8e bc
       -0.03050634 -0.0014223771 -0.0050631794 -0.017432727
0003e0 f2 99 06 bc 9e 03 80 bc c5 b7 0c 3d 3a 30 b2 bc
       -0.008215414 -0.015626725 0.034354944 -0.021751512
0003f0 c3 17 3d bb c4 94 05 bd ac e7 8e 3c c9 86 0e 3c
       -0.0028853274 -0.032612577 0.017444454 0.0086991275

transformer.h.0.attn.c_proj.weight f4 [128, 128]
000000 50 27 d6 bc b4 54 00 3d 29 e9 10 bd 47 ea 92 3b
       -0.026141793 0.03133078 -0.03537861 0.0044834944
000010 93 ec 5e 3d 31 21 5a bc 84 83 9d bc 93 8f e0 3c
       0.054424834 -0.0133135775 -0.01922775 0.027412212
000020 da 08 4d 3c c7 a5 06 bc e3 b5 f7 3b b3 a6 b9 bc
       0.012514317 -0.008218235 0.0075595244 -0.022662496
000030 5c bd 20 3b 71 99 ab 3c 35 e0 6b 3d c7 50 6c 3b
       0.002452693 0.02094719 0.057586867 0.003605889
000040 da 49 e6 bc fd 27 fc 3b b5 06 9d 3c 4f b7 86 3c
       -0.028111387 0.0076951967 0.019168237 0.01644483
000050 71 f8 3b bc 34 cf 90 bb 27 05 3f 3b 57 ba 45 3d
       -0.011472807 -0.004419232 0.0029147358 0.04827341
000060 9c af 45 3a 53 3f 39 bd 02 64 b5 bc d9 58 8b 3c
       0.00075411214 -0.045226406 -0.022142414 0.01701014
000070 f7 70 2c bd 2b c9 32 3d 21 a4 c5 3c ba df d8 bc
       -0.04209992 0.04364888 0.024126114 -0.026473869
000080 c9 64 fa bb 14 94 90 3c 63 a3 1a bc 07 bd e3 bc
       -0.007641409 0.017648734 -0.0094383685 -0.027800096
000090 a0 1d 9d bb ad 1a fc 3c 1c 6b 1a bc e0 a1 2e 3c
       -0.0047947913 0.030774439 -0.009424951 0.010658711
0000a0 09 1a df bb bb d8 40 bc 62 8a ea 3b 00 e1 0b bc
       -0.0068085236 -0.011770423 0.00715761 -0.008537531
0000b0 b6 60 15 3d e2 2e 92 3c 9b 0b b0 bc 43 c3 18 bd
       0.036469184 0.017844621 -0.021489909 -0.03729559
0000c0 fc 22 a9 3b 83 a3 31 bb 8b 94 c0 bc 60 88 05 bc
       0.005161641 -0.0027105517 -0.02350833 -0.00815019
0000d0 66 bd a9 3c c3 39 0f 3d 5c f0 bb 3b b6 9b 22 3d
       0.020720195 0.034967195 0.00573544 0.03969928
0000e0 cd dc d6 bc b2 03 38 bd 13 de 8d ba c5 71 9e 3c
       -0.026228333 -0.0449254 -0.001082363 0.019341359
0000f0 19 83 2b 3d 96 33 24 bc 32 d2 22 3d dc 0f fe 3c
       0.04187307 -0.010022065 0.03975124 0.031013422
000100 cf 33 dc ba 07 f9 9f 3c 37 a3 1b bd ae 9d 3a 3c
       -0.0016800108 0.019527925 -0.03799745 0.011390133
000110 47 d8 14 3d d5 6d 42 bd bd 2e 26 3d 2a 70 10 bb
       0.03633907 -0.047468025 0.040571917 -0.0022039511
000120 fb 86 05 3c f0 25 40 3d f6 72 83 bc 72 f4 a3 bc
       0.008149858 0.04691118 -0.016046029 -0.020014022
000130 c9 45 44 3d 1e 73 a1 bc 4a bd 4b 3a 2d 96 06 bd
       0.047918115 -0.019708212 0.0007772042 -0.032858063
000140 8b e8 73 3c 94 2f e5 3b 46 a2 ab 3c 08 bd a1 3c
       0.0148869855 0.006994197 0.020951401 0.019743457
000150 ed e3 2c 3c 8d 8b 46 3c 72 ce fc bc 11 72 6a 3b
       0.010552389 0.012118232 -0.03086016 0.0035773555
000160 a4 bf 42 bc e8 ab 8e bb 2e 92 ca 3b 82 50 29 b9
       -0.011886511 -0.004353989 0.0061819768 -0.00016147087
000170 59 fd 5d bb 0e 5e 12 bd 9c d2 86 bc c4 3f 38 bd
       -0.003387293 -0.03573423 -0.016457848 -0.044982687
000180 18 b7 42 bc dc c7 13 3c 06 66 b2 bc 36 a4 d3 3b
       -0.011884473 0.009019818 -0.021777164 0.0064587845
000190 0e a4 8a ba 77 92 5c bc a9 3a fb 3b 51 a3 cb bc
       -0.0010577457 -0.013462654 0.007666905 -0.024858149
0001a0 49 9a e3 bc 59 21 97 3c 99 52 10 3c 35 a1 79 3d
       -0.02778353 0.018448519 0.008808755 0.060944755
0001b0 db b3 19 3c 40 b1 b8 3c 65 79 bf bc 07 32 75 3a
       0.00938126 0.022545457 -0.023373315 0.0009353463
0001c0 15 ca c8 3c 62 0d b9 3c 4c 85 09 3c 3b ce cb 3a
       0.024510423 0.02258939 0.008393597 0.0015549132
0001d0 4f aa bc bc 93 5f ce 3c 58 18 46 3c 14 2e 59 bc
       -0.023030428 0.025192058 0.012090765 -0.013255615
0001e0 94 dd 15 3c 6e 90 f2 3b 69 bf 1b 3c 30 15 8e bb
       0.009147067 0.0074024713 0.009506085 -0.004336022
0001f0 ac e5 1d ba 9e 2e 0a 3d 0d f6 61 3c 72 1a f3 bb
       -0.00060232985 0.033735864 0.013791573 -0.007418924
000200 c2 0b 0a bc 29 02 14 3c f2 26 f9 3c ad 86 a2 bc
       -0.008425655 0.009033718 0.030414078 -0.019839609
000210 30 7d 12 3d 57 32 82 bd 65 4a 71 bc b1 cb 59 3c
       0.03576392 -0.06357258 -0.01472721 0.013293193
000220 41 57 46 3c fd 5a d9 3b 04 14 67 bc b4 38 3b bb
       0.012105764 0.006633161 -0.014103893 -0.0028567733
000230 30 13 e4 bc 0e df e6 3c d2 42 7e 3d f2 ff 7b bc
       -0.02784118 0.028182533 0.062075444 -0.015380846
000240 25 6a c6 bc d7 3c 13 bb 21 49 74 3d f9 d1 36 bd
       -0.024220536 -0.0022466683 0.059640054 -0.04463384
000250 6e db 8f 3c 70 44 9f 3c fd 4d 88 b9 24 aa 52 bc
       0.017560687 0.019441813 -0.00025998047 -0.0128579475
000260 ea f0 6a 3d cc 52 a4 3c ae 83 ee bc a2 68 f2 bc
       0.05735866 0.020059012 -0.029115524 -0.029590908
000270 a6 19 bb bc fb bb 4a bc 75 84 a1 bb 20 5b 3e bd
       -0.022839379 -0.01237392 -0.00492912 -0.046473622
000280 f4 08 e8 bc 1e e1 e8 bc 05 ca 0a bd f2 a8 59 3c
       -0.028324582 -0.028427657 -0.033884067 0.013284909
000290 87 17 88 3d b1 4d ac bb 5f 1e 47 3b 63 21 a6 3b
       0.066451125 -0.005258285 0.0030383093 0.005069898
0002a0 96 bd a8 3c 58 cb 9d bc 99 37 fd 3c 53 fc 1b 3d
       0.020598214 -0.019262 0.0309103 0.038082432
0002b0 a2 74 0c 3c 94 d2 24 3d 17 36 00 bd be 04 3e 39
       0.008572729 0.040239885 -0.031301584 0.00018121579
0002c0 f2 2c 0f bc 18 30 ac ba 9c 18 41 bc 70 66 0b bc
       -0.008738743 -0.0013136892 -0.0117856525 -0.00850831
0002d0 1c 34 4a 3c cd 5c db bc a5 a7 cd 3c f2 c3 a2 bc
       0.012341525 -0.02677765 0.025104353 -0.019868825
0002e0 27 f9 d7 3c 88 21 9e 3b 1e 76 dd 3b 03 23 05 3c
       0.026363922 0.0048257746 0.0067584654 0.008126023
0002f0 29 db 42 3c 63 fa 33 3d 6e 55 86 3a e3 c2 bf 3b
       0.011893072 0.04393996 0.0010248849 0.0058520897
000300 62 2e 32 3c 89 05 1f 3c 90 7b a8 3b 55 ed e0 3c
       0.010875316 0.0097059095 0.005141683 0.027456919
000310 43 d6 3a 3b 4d 36 0a 3a 13 03 87 3c e5 7d f2 bb
       0.0028509058 0.00052723737 0.016480958 -0.0074002617
000320 42 63 eb bb a7 6d 8e bd 6d 1c 47 3c 03 00 1a bb
       -0.0071834633 -0.06954508 0.012152773 -0.0023498542
000330 51 76 bf 3c 27 0d 03 3d 85 0a d2 bc bc a1 57 3c
       0.023371847 0.031994965 -0.025639782 0.013161119
000340 8c 83 f4 3c ed dd 6a bc 06 34 6d 3d 03 60 86 3c
       0.029847883 -0.014335138 0.05791094 0.016403204
000350 39 bf 18 bd d0 47 42 3b c9 06 da ba 68 67 bd bc
       -0.03729174 0.0029644854 -0.0016634102 -0.023120597
000360 5e 96 a0 3c 93 bc 84 bc 84 1c e8 bc 9d 0c 90 3c
       0.01960295 -0.0162032 -0.02833391 0.01758414
000370 dc bc 3c 3c e7 22 e5 3b 41 57 0b 3c 54 59 0b 3c
       0.011519637 0.006992686 0.00850469 0.008505184
000380 42 35 58 bb b8 21 33 3b 3c 5d c4 bb c2 7f 1c bc
       -0.0032990729 0.002733333 -0.0059925597 -0.009551944
000390 05 3c 84 bc f0 86 aa b9 22 87 98 3c 8e 05 a6 3c
       -0.0161419 -0.00032525463 0.018619124 0.02026632
0003a0 7a ea 20 bc 69 be 84 bb 2b e6 db 3c 94 9f de ba
       -0.009821529 -0.004051019 0.026843151 -0.0016984814
0003b0 78 1f e1 3c 1d 52 b2 bc 63 de da 3c 10 47 66 bd
       0.027480826 -0.02176767 0.02671737 -0.056220114
0003c0 d6 f9 e6 bc 73 df 5e 3c 84 56 29 3c 64 9e 55 bb
       -0.028195303 0.013603079 0.010335568 -0.003259563
0003d0 1f 1d cc 3c e0 2b ab 3c 52 05 4b bc ca df e2 bc
       0.02491623 0.020894945 -0.012391405 -0.027694602
0003e0 2d 34 ba ba 31 4b bf 3c 8d c9 d6 bc a8 62 11 3c
       -0.0014206223 0.023351284 -0.026219154 0.008873619
0003f0 61 78 5c 3b 50 1b 17 bd fd 42 07 bb 1c 61 1e 3c
       0.0033641087 -0.03689128 -0.0020639293 0.009666707

transformer.h.0.ln_2.weight f4 [128]
000000 73 72 a2 3f c7 51 a2 3f 67 d0 9c 3f e6 44 a0 3f
       1.2691177 1.2681206 1.2251099 1.2521026
000010 92 85 a1 3f 7c 20 a0 3f 69 37 a1 3f 0a 09 9d 3f
       1.2618887 1.2509913 1.2595035 1.2268384
000020 06 b3 a0 3f e6 a8 9d 3f 7d 60 9f 3f 2d 89 a0 3f
       1.2554634 1.2317169 1.2451321 1.2541863
000030 ba e5 a0 3f a3 61 9c 3f f7 41 a0 3f 16 7c a4 3f
       1.2570107 1.2217296 1.2520131 1.2850368
000040 84 ce a3 3f b0 a5 a2 3f f7 e3 9f 3f ee 78 a2 3f
       1.2797399 1.2706814 1.2491444 1.2693155
000050 f5 d0 9f 3f d1 ea 9d 3f 8e b0 9e 3f fa 7f 9f 3f
       1.2485644 1.2337285 1.239763 1.246093
000060 82 aa a0 3f 26 4a a3 3f 2e 26 a0 3f ee 23 9e 3f
       1.2552035 1.2757003 1.2511652 1.2354715
000070 72 3f a4 3f ad 16 a0 3f 0c f8 a0 3f 96 e2 9d 3f
       1.2831862 1.250692 1.2575698 1.2334774
000080 65 7e a0 3f 5c 8a a3 3f 67 de a4 3f 4d 15 a1 3f
       1.2538573 1.2776599 1.2880372 1.2584625
000090 2a e9 9e 3f d9 5d 9f 3f 34 1c a1 3f 11 1b a4 3f
       1.2414906 1.2450515 1.2586732 1.282076
0000a0 cd e5 9f 3f 65 10 a0 3f 02 b9 a8 3f 58 b6 a4 3f
       1.2492005 1.2505003 1.318146 1.2868147
0000b0 a9 77 a3 3f 5b 4e a1 3f 18 33 a1 3f f4 1c a3 3f
       1.2770892 1.2602037 1.2593718 1.2743211
0000c0 7e b4 a1 3f f4 b3 9f 3f 37 1a a2 3f 04 c1 9e 3f
       1.2633207 1.2476792 1.266425 1.2402654
0000d0 f3 18 a5 3f 5f c7 9e 3f c4 af ab 3f 8d aa a2 3f
       1.2898239 1.2404593 1.3413014 1.2708298
0000e0 85 6a a2 3f 52 10 9c 3f a4 07 a6 3f 1f d6 a0 3f
       1.2688757 1.219248 1.2971082 1.2565345
0000f0 28 64 a2 3f 40 17 a0 3f 62 10 a4 3f 1e 9b a0 3f
       1.2686815 1.2507095 1.28175 1.2547338
000100 6e 0e a1 3f e8 a2 a0 3f bc 7a a2 3f f6 e2 a4 3f
       1.2582529 1.2549715 1.2693706 1.2881763
000110 e0 2d 9d 3f 6f c0 a0 3f 1a e2 a1 3f 1f c3 a1 3f
       1.2279625 1.2558726 1.2647126 1.2637671
000120 60 a2 a5 3f 56 b2 9f 3f c9 26 a1 3f 06 96 a2 3f
       1.2940178 1.2476299 1.2589961 1.2702034
000130 d4 eb a0 3f eb 73 a2 3f 80 b9 a6 3f db b2 9d 3f
       1.2571969 1.2691625 1.302536 1.2320207
000140 f1 58 9b 3f 4c bc 9f 3f 66 48 a3 3f 79 fa a1 3f
       1.2136518 1.2479339 1.2756469 1.2654563
000150 2d ea 9e 3f e2 25 a3 3f 13 99 a3 3f 6a 1b a2 3f
       1.2415215 1.2745936 1.278109 1.2664616
000160 20 cb 9d 3f eb ef 9c 3f 26 40 a1 3f af c9 9f 3f
       1.2327614 1.2260717 1.2597702 1.2483424
000170 44 59 a2 3f bb d6 a3 3f 35 cc 9e 3f 79 ba a3 3f
       1.2683492 1.2799906 1.2406069 1.2791282
000180 61 a8 9f 3f 7b 6b 9f 3f a8 67 9f 3f 4f d0 a0 3f
       1.247326 1.2454675 1.2453508 1.2563571
000190 d8 ce a1 3f e4 9d a2 3f aa 85 a0 3f 26 a0 9e 3f
       1.2641249 1.2704434 1.2540791 1.2392623
0001a0 89 23 a0 3f 23 9f 9f 3f 4a 65 a6 3f ba d9 a1 3f
       1.2510844 1.247044 1.2999661 1.264457
0001b0 dc cf 9f 3f 49 f6 9e 3f 40 b2 9e 3f b9 ff a1 3f
       1.2485309 1.241891 1.2398148 1.2656165
0001c0 f9 0c 9e 3f e6 31 a4 3f 3b a1 a3 3f ae e7 9e 3f
       1.2347709 1.2827728 1.2783579 1.2414453
0001d0 54 ef a1 3f e8 4a a6 3f f3 05 9f 3f e0 57 a3 3f
       1.2651162 1.299161 1.242369 1.2761192
0001e0 8c 44 a2 3f 8d 5f a0 3f 89 2f a2 3f 10 11 a3 3f
       1.2677169 1.252916 1.2670757 1.2739582
0001f0 e2 6e a0 3f d0 e4 9e 3f b2 84 9f 3f d1 61 a2 3f
       1.2533839 1.2413578 1.246237 1.2686101

transformer.h.0.mlp.c_fc.weight f4 [512, 128]
000000 f7 9e c4 bb cd 55 04 3c a6 c1 25 3d f0 59 37 bd
       -0.0060003954 0.008077097 0.04046788 -0.044763505
000010 5c b2 63 3d 51 e5 2d bd b4 f1 00 3c 2b 3d a0 bd
       0.05559002 -0.04245502 0.0078701265 -0.07824167
000020 41 77 b8 bc 22 1d db 3c b4 84 cf bc 79 d3 32 3d
       -0.022517802 0.02674729 -0.025331832 0.043658707
000030 51 5e 70 bc 2f a3 7c bd ba 98 14 bd c7 a5 ff 3b
       -0.014670924 -0.06167906 -0.036278464 0.0078017446
000040 0d 94 45 3d 91 6b 96 bc f6 f3 09 bd d7 24 02 3e
       0.048236895 -0.018361839 -0.033679925 0.12709366
000050 7a 46 80 3c 71 6b 74 3b a7 ba 33 3d 9e 7c 48 3c
       0.015658606 0.0037295485 0.043879177 0.012236742
000060 57 98 0f bd 81 02 1a 3c 6f 24 b2 ba e2 f7 f9 3c
       -0.035057392 0.009400011 -0.001359118 0.030513708
000070 f7 fa c6 3d b7 63 7f 3c 17 8e a3 3d 09 a1 6c bd
       0.097158365 0.015587739 0.07986086 -0.057770763
000080 1c 7e 20 bc 3f 11 5f bc 11 ae 9e 3c 5c 46 a0 3d
       -0.009795692 -0.013614952 0.01937011 0.0782592
000090 4b bc f4 3c 1f 32 29 3d 69 27 9f 3c b5 96 09 bb
       0.029874941 0.041307565 0.019427972 -0.002099437
0000a0 1b c7 51 3c 00 58 b0 bc 34 2b 61 bc 25 16 0f bd
       0.012803818 -0.021526337 -0.013743211 -0.034933228
0000b0 d5 12 d5 bc f3 63 fa 3c aa be aa bc 2f 24 78 bd
       -0.026009956 0.030565238 -0.020842869 -0.060581382
0000c0 1f 94 b4 bb c1 26 c0 bd 33 e8 23 bd 80 1e 96 bd
       -0.0055108215 -0.09382392 -0.040016364 -0.07330036
0000d0 72 19 74 3c 6d 54 82 3d 30 c2 94 bb 71 95 0c 3d
       0.014898645 0.06363759 -0.0045397505 0.034322206
0000e0 e4 a3 96 3c 4d 6f 68 3c be 8d 0f 3d 4f 1f 80 3b
       0.018388696 0.014186692 0.035047285 0.0039099823
0000f0 f0 0f e9 bc 47 2b c0 3c 22 ee d4 bc 2a 2f ff bc
       -0.028449982 0.023458136 -0.025992457 -0.03115042
000100 68 9d b0 3b f1 0b 87 3c 1d 21 cf 3d d7 57 06 3d
       0.005389858 0.016485186 0.10113738 0.032798614
000110 9a 14 e0 3c e1 93 77 bc 86 1f f1 bc 8d 26 99 bc
       0.027353574 -0.015110941 -0.029433977 -0.01869514
000120 f2 82 17 3b 52 69 e9 bc 47 03 15 3c 76 27 0b bc
       0.002311882 -0.028492603 0.00909502 -0.008493295
000130 31 28 00 3c 41 1f 30 bc 41 eb 45 bc 12 18 25 bb
       0.007822082 -0.010749639 -0.012080015 -0.002519135
000140 71 4e 28 3d 0f d8 9a 3c 03 6e 58 3d 63 00 10 3c
       0.041090433 0.018901853 0.05283929 0.008789155
000150 0f 29 a4 bd e6 b1 3c 3d 85 68 89 bd 4a 56 c4 ba
       -0.08015644 0.046068095 -0.06709389 -0.001497933
000160 f3 7f 81 bd 4d 9c ad bc a0 f9 f9 bc 17 fb 83 b9
       -0.063232325 -0.021192694 -0.030514538 -0.00025173344
000170 13 73 38 bd ad 4e 38 bb f3 45 36 bc 73 fd d7 bc
       -0.04503162 -0.0028123066 -0.011125076 -0.026365971
000180 fc 61 f3 bc 17 10 2f 3d 60 dc f8 3c 9c 5c cd bc
       -0.029709809 0.042739954 0.03037852 -0.025068574
000190 b1 43 59 bd 31 37 7c bc 0b 55 8d ba 1c 6c ea bb
       -0.05304307 -0.015394018 -0.0010782791 -0.007154001
0001a0 30 2a 0e bb fb b2 41 3d 1d 7e 0e 3d 86 a1 08 3d
       -0.0021692626 0.04728983 0.03478824 0.033357166
0001b0 b1 c1 82 3d 1a 07 8d 3c f1 00 b1 bd c8 89 0f bd
       0.063846 0.0172153 -0.08642758 -0.035043508
0001c0 8f 23 31 3d ee e8 94 3c 37 66 8a bd 52 2e ab 3d
       0.043246802 0.018177476 -0.06757777 0.08358444
0001d0 95 7d 04 bd f4 c6 2f 3c a5 03 c7 bb 4e 0b 38 bd
       -0.032346327 0.010728586 -0.0060734325 -0.044932656
0001e0 41 09 52 bd a3 99 26 bd 58 a7 97 3d 07 fd 02 bd
       -0.051278356 -0.040673863 0.07404965 -0.031979587
0001f0 f9 2c 1e 3c 26 c8 14 3d 6f 6f f0 bc e9 4e 8d 3d
       0.009654277 0.03632369 -0.02935001 0.068998165
000200 9a ec a3 3b 48 e5 f2 3c 76 08 e9 bc 5c 47 db 3c
       0.0050025703 0.029650345 -0.028446417 0.026767425
000210 4a 8e 68 bb 32 b6 8f 3d b9 6f 39 bc 1f 6a e8 bc
       -0.0035485202 0.07017173 -0.011318141 -0.028370915
000220 7f 78 b0 bc 2c da 8a bd 2d 63 a7 3c 8a 5d 92 3c
       -0.021541832 -0.06779894 0.020433033 0.017866869
000230 6c d7 06 bd 0d 80 c5 bc af f3 b3 bc 10 11 34 bd
       -0.032920286 -0.024108911 -0.021966783 -0.043961585
000240 b4 2a 8c 3d e8 5d 13 3d 48 80 28 bc f6 34 16 3a
       0.068440825 0.035978228 -0.010284491 0.00057299377
000250 5b 51 83 bd fb d6 a4 3d 9c 20 e2 3b 0c 21 b3 3c
       -0.06412002 0.08048817 0.00690086 0.021866344
000260 84 5d 36 bd 09 bd 38 3d 4c 22 a1 bd e3 de aa bc
       -0.044522777 0.045102153 -0.0786787 -0.020858234
000270 77 5c 07 ba 02 c2 17 bd 5d 8b a3 3b 27 0b 03 bd
       -0.00051636196 -0.037050255 0.0049909786 -0.031993058
000280 b3 ff dc 3c 38 cd 8a 3d d1 cf f7 bc f3 91 c0 3d
       0.026977396 0.067774236 -0.030250462 0.094028376
000290 8b 2a ec 3c 44 7a 78 bb b8 5e 08 3c 56 20 38 3d
       0.02882888 -0.0037914673 0.008323364 0.044952713
0002a0 29 f8 3f bc f0 14 a0 bc f3 cc ba bb cf a2 99 bc
       -0.011716881 -0.019541234 -0.0057007014 -0.018754391
0002b0 a3 9b 36 bd 11 bc b1 bc d0 3e ec bb ec bb 06 3d
       -0.04458202 -0.021696122 -0.0072096363 0.03289406
0002c0 ed 36 b3 bd 60 34 d3 bc 24 d9 12 bd 41 af 22 3d
       -0.08750711 -0.02578181 -0.035851613 0.039717916
0002d0 2d 43 17 bd d8 d9 cd bc ba 9c 05 3d 0c f6 37 bc
       -0.0369293 -0.02512829 0.03262017 -0.011228096
0002e0 03 58 94 3b 36 79 f6 bc 01 8f 2f bd e7 d7 78 3c
       0.0045270934 -0.030087095 -0.04286099 0.015188194
0002f0 46 41 3d 3d f9 8d d0 bd b5 18 32 3d 5f 22 07 3c
       0.046204828 -0.10183329 0.043480594 0.008247941
000300 8a 6a 34 3d ba f6 4a 3d cc 45 95 3d 8d d0 81 3c
       0.044046916 0.049551703 0.07288703 0.015846515
000310 b5 c6 9b 3d ed 30 7f bd c4 2d de bb 64 ef 36 bd
       0.0760626 -0.06230252 -0.006780358 -0.044661894
000320 f1 b6 14 3d 90 e2 9f 3b fa 94 2d bc 8e f6 6f 3d
       0.03630728 0.0048793033 -0.010594601 0.058584742
000330 67 7c a0 bd d8 92 77 bc 2e 0d 4f bd b8 61 98 3c
       -0.07836228 -0.015110694 -0.05054968 0.018601283
000340 5a 53 30 ba 90 96 84 3d bf bc 83 bd 0f 33 8d bc
       -0.00067262875 0.0647403 -0.06432485 -0.01723626
000350 0b 42 80 39 54 fb 5e bc 79 b8 aa bd 2d 1e 84 3d
       0.00024463268 -0.013609726 -0.083359666 0.06451068
000360 ce 53 a4 3c fa 49 19 3d 53 68 56 bd 99 30 34 3c
       0.020059492 0.037424065 -0.052345585 0.010997915
000370 07 48 0b 3b f8 7e f5 bc 6e c8 a9 3c 8f 05 b3 bd
       0.0021252648 -0.02996777 0.020725455 -0.087412946
000380 70 d8 9e 3c b9 86 b6 bc 38 d0 81 3d 71 d4 f7 bc
       0.019390315 -0.022281038 0.06338543 -0.030252667
000390 bc fe c2 3c d0 01 63 bd 06 53 2d 3d bc 90 a3 bc
       0.023803107 -0.05542165 0.042315505 -0.019966476
0003a0 b0 3b a9 3c 26 bb 6e bb d9 66 10 3d c2 f6 da bb
       0.020658344 -0.0036427467 0.035254333 -0.006682248
0003b0 19 66 4a bd 7f 17 7d bc 2a cb d2 bc f7 e3 94 3c
       -0.049413774 -0.015447496 -0.025731642 0.018175108
0003c0 1b a1 a1 3b 41 89 54 bb 25 2b d4 bc 61 41 6b bc
       0.0049325353 -0.0032430443 -0.02589948 -0.014358849
0003d0 9d cc d1 3d 4d da 2d bb 71 4b 94 3d c0 29 db 3c
       0.10244105 -0.0026527822 0.07240952 0.026753306
0003e0 9b c5 82 bd 8b 99 f9 3b e4 d7 65 3c 2d f1 9f 3c
       -0.063853465 0.0076171807 0.014028523 0.019524181
0003f0 52 43 cf bb 0f e1 b5 3c 4a 58 dc bd a7 7f da 3c
       -0.006325164 0.022202043 -0.10759027 0.026672198

transformer.h.0.mlp.c_proj.weight f4 [128, 512]
000000 58 cc 2c 3c b9 98 0c 3c 22 16 ae 3c 4a 53 bb bc
       0.010546766 0.008581334 0.021250788 -0.022866864
000010 fc bb 54 3c b7 90 7c 3b 66 d3 57 3c e8 3e 1b 3d
       0.012984272 0.0038538405 0.01317296 0.03790179
000020 a2 c3 0b 3d 29 f3 88 bc 94 25 69 3d 65 3c 87 bb
       0.034122117 -0.01671751 0.056920603 -0.0041270726
000030 97 c0 8b bc f2 22 d3 bb 52 68 c7 bc 1a 8f 8e bd
       -0.017059607 -0.006443375 -0.024341736 -0.06960888
000040 35 dc 4e bc 2a 4a 25 bc 5c bb 42 3b ba 6b b0 bd
       -0.012625744 -0.010088483 0.0029713726 -0.08614297
000050 bf 40 52 bc 4a 92 52 3b 6e 7c 30 3b 20 54 51 3b
       -0.0128328195 0.0032130652 0.0026929635 0.0031941012
000060 5e 99 36 3d 2f a0 6a bc 4f 13 cc 39 6d 63 d6 3c
       0.044579856 -0.014320417 0.00038924298 0.026170457
000070 7f d5 29 bd 6c b7 6e 3d 3d 5d f7 3c db ef 75 3c
       -0.04146337 0.058280393 0.030195827 0.015010799
000080 3f e1 0f bd 0d 09 99 3c 3a f2 1e 3d db d6 12 bd
       -0.03512692 0.018681074 0.038805224 -0.035849433
000090 f3 d1 9e bb 0a ba b0 bb 45 d1 82 3a 98 67 97 3b
       -0.0048468052 -0.0053932713 0.000998058 0.0046205036
0000a0 82 0b 9a bc df c6 38 bc 4a 3c e8 bb 5d 54 35 3d
       -0.018804315 -0.011277883 -0.007087265 0.04426991
0000b0 82 37 0b 3c 6c 34 a4 bc aa 75 00 bd 61 26 07 bd
       0.008497121 -0.020044528 -0.031362213 -0.032995585
0000c0 5a cc 29 bd 4a da 6c 3d 40 c8 cd 3c d9 26 84 bc
       -0.04145465 0.057825364 0.0251199 -0.016131805
0000d0 cc ff 17 bd 29 62 06 bd 49 1d 09 bd 32 bd c5 bc
       -0.03710918 -0.032808457 -0.033475194 -0.024138067
0000e0 80 b8 4e bd f1 72 80 bc 1a 98 87 bd 7f 40 1f bc
       -0.05046892 -0.015679808 -0.06620808 -0.009719967
0000f0 b3 c4 1b 3c 16 c6 9a bd 63 42 15 bd bb 67 56 bd
       0.009507346 -0.07557313 -0.036440264 -0.05234502
000100 a2 6d c4 bb d7 0b 41 3c e6 ab 0a 3d 0f ac cc 3c
       -0.0059945146 0.011782608 0.03385534 0.024984388
000110 6c 6f 91 bc 9c ce 79 3c ad eb 91 bd 1f ce 52 3c
       -0.017753325 0.015247013 -0.0712503 0.012866526
000120 df d8 83 bc f5 d4 1d 3b 23 45 fa bc 52 3e 0d bc
       -0.016094623 0.002408323 -0.030550545 -0.008620815
000130 f5 65 44 bd a7 9e 4c 3d 8a 2f 23 3d 88 67 7f 3d
       -0.047948796 0.04995599 0.03984026 0.062354594
000140 b2 7e a5 bc 54 3c e5 3c 97 a1 12 3d 02 28 14 3c
       -0.020202015 0.027982868 0.035798635 0.009042742
000150 78 e5 0c 3d 1d 80 bd 3d 9d 18 10 bd 80 33 b7 bc
       0.034398526 0.09252951 -0.035179723 -0.022363424
000160 41 0f c7 3b 81 a2 7c bb a8 a2 4b bd 86 cc 3c bb
       0.0060748165 -0.0038549008 -0.049715668 -0.002880843
000170 42 8a 67 bc b4 cf 75 3d 7a 72 f1 3c fa ae a3 ba
       -0.014132084 0.060012534 0.029473532 -0.001248806
000180 11 3e 86 bc 9a 7e b1 3d e4 6d 5f 3c 3c 6f 0e bd
       -0.016387017 0.086667255 0.01363704 -0.03477405
000190 ba 18 de bc 30 6b 27 3d a8 38 25 bd 41 4f a7 3c
       -0.0271114 0.040873706 -0.040337235 0.020423533
0001a0 16 23 0a bc 4c be b3 bb 45 c8 53 bc c3 5b 19 bb
       -0.008431217 -0.0054853316 -0.012926166 -0.0023400642
0001b0 46 1a 07 3b 59 6b 94 bd df 87 46 bd 90 83 a8 bc
       0.0020615025 -0.072470374 -0.04846942 -0.020570546
0001c0 7d aa 5b 3c 2a 27 14 bd 28 17 fb 3b dd 48 95 bd
       0.013407347 -0.036170162 0.0076626725 -0.07289288
0001d0 e9 90 11 3c a0 fe 6e 3d 1e 59 82 3a 2b a1 54 3c
       0.008884647 0.058348298 0.0009944772 0.012977879
0001e0 bb d8 3f bd 47 bd 0f 3d 55 62 16 bd 7c 98 42 bc
       -0.04683755 0.03509262 -0.03671487 -0.011877175
0001f0 5f d0 a1 bc aa 0b 87 3b bb 86 04 bd 43 4e 42 3c
       -0.01975268 0.0041212635 -0.03235505 0.011859479
000200 6c a7 09 3c 09 06 91 ba 5d 5c 94 3c 14 74 09 3d
       0.008401733 -0.0011064421 0.018110448 0.033557966
000210 49 a3 d9 bc cb 2b 59 3d 3f b8 32 3d 78 05 1a bc
       -0.026567118 0.05302028 0.043632742 -0.009400718
000220 fc bc 5d 3c ae 65 15 bd d9 c6 85 3c 49 51 24 3d
       0.013533827 -0.036473922 0.01633017 0.040116582
000230 90 de 01 3d 4c b2 01 3d 36 8e 75 bc 32 9f da bc
       0.031706393 0.031664178 -0.014987519 -0.026687238
000240 2c 31 1a bd 6b 0b a3 3c a1 e4 11 3d f2 aa 5f bc
       -0.03764455 0.019902905 0.03561843 -0.013651596
000250 9b c3 31 bc 6d 40 09 bd 21 a0 90 ba bc ea b5 3c
       -0.010849859 -0.033508707 -0.001103405 0.022206657
000260 93 e9 19 bc ed b8 f4 3b 3f c8 69 3a d7 b4 aa 3c
       -0.009394067 0.007468334 0.00089180836 0.020838184
000270 ec 82 7b bc bf d1 86 bc 5b 1b 07 bd 30 9d cb 3c
       -0.015351038 -0.016457437 -0.032985073 0.024855226
000280 b3 16 60 3c 93 0d a8 bd 96 4b 93 bd d4 37 02 bd
       0.013677287 -0.08205714 -0.07192151 -0.031791523
000290 a9 0d 83 bd 99 f5 a6 3c b3 e3 3c bd 77 7a 45 3d
       -0.0639909 0.020380782 -0.04611559 0.048212495
0002a0 3d d5 0f 3d de 70 3c 3d f1 b4 c1 3b 97 e9 79 3c
       0.03511547 0.046006076 0.0059114625 0.015253446
0002b0 eb 65 7f bd fa 67 36 3c 69 b9 2d bc cb 18 f6 bc
       -0.062353056 0.011133188 -0.010603287 -0.03004112
0002c0 46 0f 1b 3d a6 0a 36 3d b4 c2 7d bc 92 44 ac 3c
       0.037856363 0.04444375 -0.015488315 0.02102879
0002d0 72 01 a1 39 3d a5 db 3a a5 16 a1 3a 8c 7a 1a 3d
       0.0003070939 0.0016757619 0.0012290074 0.037714526
0002e0 9c bb 85 3b 3a 3a 10 3d d3 17 7b 3a 0c 7f 67 bc
       0.0040812027 0.03521178 0.000957844 -0.014129411
0002f0 d5 d2 07 bd 49 18 3d bc dc bb 98 bb 3e 5a 0b bd
       -0.03316005 -0.011541435 -0.0046610665 -0.03402161
000300 41 12 e6 bc 7b 0d 4f 3d d3 bf 48 3d 74 45 0f 3c
       -0.028084876 0.050549965 0.049011063 0.008744586
000310 05 3c 33 bb 43 39 21 3c 56 3d 3c bd 53 53 e4 bc
       -0.0027349007 0.009840312 -0.045956932 -0.027871763
000320 48 18 ef bb be 58 e4 bc f6 df ab bc 33 cb da bc
       -0.0072965957 -0.027874347 -0.020980816 -0.026708221
000330 e3 3f 40 bd a6 80 9d 3c 8e 57 55 bd 7e 82 4f 3b
       -0.046935927 0.019226383 -0.05208545 0.0031663473
000340 98 34 66 3c 8d 76 2c 3b d9 12 df ba 27 ca 5f bb
       0.014050625 0.002631578 -0.0017019167 -0.0034147592
000350 7f 42 a2 bc c0 b7 49 3d 73 07 68 3b 73 af 63 3c
       -0.019807098 0.049247503 0.003540483 0.013896811
000360 04 0f 22 3c 0d ba 02 3c 21 56 16 bd 69 ba cd bb
       0.009891275 0.007978928 -0.036703233 -0.0062783253
000370 1c c7 e0 bb 37 9e d6 3c eb 2f b5 bc 6a 23 dc 3b
       -0.006859673 0.02619849 -0.022117576 0.006718089
000380 4d 67 45 bb 49 84 05 3d 84 10 93 3d c7 46 16 3c
       -0.0030121387 0.03259686 0.071808845 0.009172148
000390 91 fd 38 3c 88 d1 50 bb 95 8c ee bc 1c 50 19 3d
       0.011290924 -0.0031863172 -0.02911977 0.037429914
0003a0 95 cd 6e bc 8f a4 80 bc 91 59 ae 3b a4 8a ee bb
       -0.014575382 -0.015703468 0.0053207357 -0.007279711
0003b0 69 e4 7f bb 36 88 48 bb 37 b7 16 bd 57 7c a1 3b
       -0.0039046055 -0.0030598766 -0.03679582 0.0049281525
0003c0 eb 1f 83 3d 01 c2 a9 b9 32 0c da bb 30 32 8a 3d
       0.06402572 -0.00032378736 -0.006654286 0.06747854
0003d0 b9 a9 70 bb cf d2 d5 3c b4 af e6 3c d3 f7 b6 3c
       -0.0036722256 0.026101498 0.028159954 0.022334969
0003e0 e3 9f b7 3b 7b 34 8d bd 6b 57 e7 3c b4 c7 77 bc
       0.005603777 -0.068947755 0.028239926 -0.0151232965
0003f0 0d 84 7f 3b eb e7 c4 3b 94 ed 64 3d 4c 58 33 bd
       0.003898862 0.006009092 0.055890635 -0.04378538
